python3/star_removal/saved/2021_12_06__16_30_20_NF_4_LR_0.001_EP_2/nf_4_LR_0.001_EP_2.pth (torch, 318977 bytes, 109 tensors)

inc.double_conv.0.weight f4 [4, 1, 3, 3]
000000 07 7a 5c bd 1b 12 95 be a7 0f aa 3c 8f f5 41 3c
       -0.05382731 -0.29115376 0.020759417 0.011838331
000010 82 db 63 bd 33 78 f8 3b f7 2b b6 3c e3 be 22 3f
       -0.05562926 0.0075826882 0.022237761 0.6357252
000020 1a 4b 34 bb 4f cc 87 bd 50 b3 03 3d d9 a8 f7 3d
       -0.0027510584 -0.06630766 0.032153428 0.12092752
000030 83 1c 4e 3d 61 e9 2f 3e e7 a0 a5 3e 42 4a 7d 3d
       0.05032016 0.1717887 0.3234932 0.061838396
000040 ea c2 12 bf c2 b5 d8 3c db 7d ca bd 2f f8 2c be
       -0.57328665 0.026453856 -0.09887286 -0.1689155
000050 3a ba d9 be 37 a3 35 be c3 a9 0b 3f 4e d1 db 3b
       -0.42524892 -0.17738043 0.5455591 0.0067083007
000060 ca b0 05 3c e2 41 37 3c 13 a9 83 3d e8 2d 0c 3e
       0.008159826 0.011185141 0.06428733 0.13689387
000070 af 39 16 bc ba 05 0f 3e 29 4e f0 3d 4a 4d b5 3d
       -0.009169026 0.13967028 0.11733658 0.08852632
000080 b8 58 a9 3d 39 d0 aa 3e 51 9b a0 be fa 5b ef be
       0.08268875 0.33361986 -0.31368497 -0.4674986

inc.double_conv.0.bias f4 [4]
000000 9a 1f 5f be e9 1b 7c 3d 9c 87 12 3e 19 78 a3 be
       -0.21789399 0.061550055 0.14309543 -0.31927565

inc.double_conv.1.weight f4 [4]
000000 38 25 5e 3f 34 81 86 3f c6 d2 8b 3f 12 60 6b 3f
       0.8677554 1.050818 1.0923698 0.91943467

inc.double_conv.1.bias f4 [4]
000000 9a fe 1e 3f cb 78 b8 3e 0a 8b b5 be db 67 6d 3e
       0.6210724 0.36029658 -0.3545764 0.23184149

inc.double_conv.1.running_mean f4 [4]
000000 e3 65 44 43 10 cd 40 42 29 da a3 c2 90 e1 07 42
       196.398 48.200256 -81.926094 33.970276

inc.double_conv.1.running_var f4 [4]
000000 0a 90 72 47 18 a2 44 47 39 fc 3d 47 af 65 9b 47
       62096.04 50338.094 48636.223 79563.37

inc.double_conv.3.weight f4 [4, 4, 3, 3]
000000 de 43 49 be 73 e6 49 be 23 cd ad bd f2 d9 a2 bd
       -0.19654796 -0.19716816 -0.08486392 -0.07951726
000010 7b e3 42 3d 5a ac 1a bd 5d 5e c8 bc 49 bb 85 3c
       0.047580224 -0.037762024 -0.024459058 0.016324656
000020 bc aa 3d 3c b2 79 c7 3d d3 cb a3 bd 8b 95 29 bd
       0.011576351 0.097400084 -0.07997861 -0.04140238
000030 2f 71 e8 3d 47 b1 58 3e e4 b5 81 3d c1 a3 0c 3d
       0.11349713 0.21161376 0.06333521 0.034335855
000040 3d 70 cb 3d 53 83 6d bd 1a 64 d8 bd e9 88 04 bc
       0.09933517 -0.05798657 -0.10565968 -0.008089283
000050 de 98 8b 3c 2f 72 26 be 88 95 fd 3e 7b 34 45 bd
       0.017040666 -0.16254495 0.49528146 -0.048145752
000060 7b 9a 4a 3d af 87 ba bd 31 13 c8 bd f5 7f 9b 3d
       0.04946373 -0.09107911 -0.097692855 0.07592765
000070 df b3 85 bd 61 86 07 be e9 ab 0d bd 1a 3e 9e bd
       -0.06528448 -0.13234855 -0.034587774 -0.07726689
000080 33 9d 19 3d 25 e3 84 bd f7 62 ac 3d ce 6f 47 3d
       0.037503432 -0.06488637 0.084173135 0.04869061
000090 8f b4 1a 3e 0e 22 02 3e 99 f8 41 be ab 6e 92 3d
       0.1510794 0.12708303 -0.18942489 0.071500145
0000a0 13 21 23 3e c8 1d 7a 3d c2 36 d8 bd f1 3f bc bd
       0.15930586 0.061063558 -0.10557319 -0.09191883
0000b0 eb a3 94 3b d9 b1 cd bc 07 3d 88 be d4 43 62 bd
       0.004536142 -0.025109218 -0.2660906 -0.055240467
0000c0 3a df fe bd 29 c1 19 3e d4 c2 8c 3d 8b 20 88 bd
       -0.12444921 0.15015091 0.06873098 -0.06646832
0000d0 17 57 19 3d 84 91 d5 bb 82 3a 02 bd 0d 77 68 bc
       0.03743657 -0.006517591 -0.03179408 -0.01418854
0000e0 07 3b 7e 3d 76 f8 05 be 13 2b 9d bd 12 fa 47 3e
       0.06206801 -0.13083062 -0.076742314 0.19528988
0000f0 27 0e 1c be 31 52 38 be fd 44 91 bd 54 f0 ca bd
       -0.15239774 -0.18000104 -0.070932366 -0.0990912
000100 dc 76 2d bd e4 c3 f0 3d 1d 98 40 3d 2e 80 26 3e
       -0.04234968 0.11756113 0.047020067 0.16259834
000110 97 61 e0 3c c3 53 91 bd 3b f9 fd 3d 97 1a 70 bc
       0.027390284 -0.070960544 0.124010526 -0.014654777
000120 24 a6 0b 3e 3b 24 6b 3e 0b ee 64 be 47 df ac 3d
       0.13637596 0.2296304 -0.22356431 0.08441024
000130 ba 92 c8 3d 29 f4 2b 3c d2 ed b7 3d 62 29 1c bd
       0.09793611 0.010495224 0.089809075 -0.038125403
000140 d2 a8 36 3b a3 6c af 3d 35 a2 3d be 8d 9b 96 3d
       0.002787162 0.08565643 -0.18518908 0.07353888
000150 e8 61 a2 3d 04 d9 6e bd 8c 26 3d bd ac db 53 3d
       0.079288304 -0.05831243 -0.04617934 0.051723167
000160 c6 70 23 3d cf de 3b 3d 58 80 a5 3d 5a d2 17 3d
       0.03990247 0.045866784 0.0808112 0.03706584
000170 14 88 ca 3d cc 29 1b 3e fa 71 9d 3e b0 f7 88 be
       0.09889236 0.15152663 0.3075102 -0.2675147
000180 f4 ea 62 3d 79 5a 9a b8 94 11 1c bd 5e 57 a7 3b
       0.05539985 -7.360144e-05 -0.0381027 0.0051068505
000190 2b 3c 8f be 0b 36 23 3e 00 20 c0 bb 87 c8 78 bd
       -0.27975592 0.15938585 -0.0058631897 -0.060738113
0001a0 9b 0a bf 3d b3 c8 5f bc 6f 8d 58 be 7a ba 87 3c
       0.09328195 -0.01365869 -0.21147703 0.016568411
0001b0 70 45 24 3d 06 bf 5f bd a4 4f 07 3e fc 25 1f 3d
       0.040105283 -0.054625534 0.13213974 0.038854584
0001c0 6e 6e a3 3e 93 40 72 bd 16 8b 9e bc 91 8d 43 bd
       0.3192019 -0.059143614 -0.01935343 -0.04774243
0001d0 aa b0 46 bd 9b 47 97 3c 8a 87 1d 3a 31 81 69 bd
       -0.048508324 0.018466761 0.00060092716 -0.057007972
0001e0 5e ad 3a 3d e7 06 f1 be d8 0e a5 3c 40 5c cd 3d
       0.045575492 -0.4707558 0.02014868 0.10027361
0001f0 31 d1 23 3e c6 01 e6 bb a0 53 6e 3d e8 4d b4 3d
       0.15997769 -0.0070192544 0.05818522 0.08803922
000200 bc c5 0a 3e 9a b3 1b 3d b6 6c 31 3e cf 04 a7 3d
       0.13551992 0.03801308 0.17326626 0.08155214
000210 96 52 79 3d 19 6c 42 3e 3c 0d 15 bc c8 02 30 bb
       0.060869776 0.18986548 -0.009097394 -0.0026857127
000220 90 7d b1 bc fd 07 55 38 77 bb 4e be 3f 87 44 be
       -0.021666318 5.0790597e-05 -0.201887 -0.19192217
000230 48 98 db 3d 9a e8 79 bb 15 4d 03 3d af 77 6c 3d
       0.10722405 -0.0038133026 0.032055933 0.057731327

inc.double_conv.3.bias f4 [4]
000000 ab 02 84 3e 61 63 7c 3d 00 b7 a7 bd d1 ad e5 3d
       0.25783285 0.061618213 -0.08189201 0.112147935

inc.double_conv.4.weight f4 [4]
000000 81 7e 85 3f 69 f5 51 3f 95 a2 84 3f 04 0b 9f 3f
       1.0429231 0.8201509 1.0362116 1.2425237

inc.double_conv.4.bias f4 [4]
000000 f0 3a 19 be f6 ee 09 3e 68 cf a9 3e b8 0b 95 3d
       -0.14963889 0.13470063 0.3316605 0.07277626

inc.double_conv.4.running_mean f4 [4]
000000 76 29 2b 3e d4 2a e5 3d 15 e1 fa 3d 23 6f 65 3e
       0.16715035 0.111898094 0.12249962 0.22405677

inc.double_conv.4.running_var f4 [4]
000000 2c 8f 0c 3e d2 49 36 3d 85 b7 9e 3e a8 77 4c 3e
       0.1372649 0.044503994 0.3099939 0.1996752

down1.maxpool_conv.1.double_conv.0.weight f4 [8, 4, 3, 3]
000000 b3 17 61 3e 41 24 2c 3e 5a 2e 9f 3d 00 80 3b 3e
       0.21981697 0.16810705 0.07772513 0.18310547
000010 98 06 98 3e 2d 2f 4b 3d 27 96 03 3e 39 22 ac 3b
       0.2969253 0.049605537 0.12850247 0.005253103
000020 f5 92 d0 3d ea c5 eb bd c2 e7 3b 3d e5 b5 d6 3a
       0.1018428 -0.115123585 0.04587532 0.0016381113
000030 fc 58 29 bd ac 0c 83 3e d8 e7 a0 bd 37 73 03 3e
       -0.041344628 0.25595605 -0.07856721 0.1283692
000040 f3 33 89 be ca e3 16 3e 61 67 19 be 52 65 1a bd
       -0.26797447 0.14735332 -0.14980842 -0.037694283
000050 eb 8e d2 bd 78 db 0a be 3b c6 a2 bd af f8 07 bd
       -0.10281166 -0.13560283 -0.07947966 -0.033196148
000060 75 24 34 3d 8d b1 11 be 07 d7 be 3d 36 17 71 3d
       0.04398008 -0.14227886 0.09318357 0.058860026
000070 52 b3 31 3e 3f f6 c0 3d 78 c2 af 3d b7 a7 52 be
       0.17353562 0.09421968 0.08582014 -0.2057179
000080 ca 40 83 bd 9a e7 99 3d e2 c5 a5 be d4 9f ba 3c
       -0.06408842 0.075148776 -0.32377535 0.02278129
000090 f4 b4 be bd 62 d4 64 be b1 45 88 be 74 c9 3c 3e
       -0.09311858 -0.22346643 -0.2661567 0.18436223
0000a0 d7 ec e5 bd 2d 34 26 be 82 60 64 be 38 9e 1b be
       -0.11226814 -0.16230841 -0.2230244 -0.15197074
0000b0 e8 56 27 3d 22 8c f4 bd 62 58 8b 3d 0f 92 80 3d
       0.040854365 -0.11940791 0.06803967 0.062778585
0000c0 bf 31 38 be b2 e9 a0 3b 81 7c d9 3d 69 60 67 3d
       -0.17987727 0.004910671 0.1061945 0.05648843
0000d0 50 c8 3b 3d d2 2d e7 3b 61 af 22 be b6 0e d3 3d
       0.04584533 0.0070550228 -0.15887214 0.1030554
0000e0 ce 61 df 3d 57 0a 3a be 1c f7 0d 3c 35 aa 00 3d
       0.10907327 -0.18168007 0.0086648725 0.031412322
0000f0 90 d1 f1 bd e1 e3 4e bd f9 8b 31 be ff a8 8d be
       -0.11807549 -0.05051029 -0.17338552 -0.27667996
000100 fe ad d3 3c 29 8a 5d 3e 6a e0 82 be 14 a2 13 be
       0.025839802 0.21634735 -0.2556184 -0.14417297
000110 42 b6 68 bc d3 c0 07 3d cc e4 5b be ce 54 d5 3d
       -0.01420361 0.033142876 -0.21473998 0.10416566
000120 0a 67 f4 bd ba cf 08 3e 8f 34 81 be 95 63 42 bd
       -0.11933716 0.13360491 -0.25235412 -0.04745825
000130 9b 1a 87 3d 3a b6 7e 3d 8d 81 6b 3b c9 fd 1a 3e
       0.065968715 0.062185504 0.0035935373 0.15135874
000140 d6 81 c5 bc 99 02 5a 3e be 0b fa bd 1e 40 f5 bd
       -0.024109762 0.21290053 -0.12209271 -0.1197512
000150 0d 88 69 3c f2 25 1f bd f3 7b a5 bd 19 06 85 3d
       0.014253628 -0.038854547 -0.08080282 0.06495304
000160 f6 da 33 3d b6 dd 5e 3d 1d f4 f6 3c 67 15 8a be
       0.04390999 0.05441066 0.0301457 -0.26969454
000170 19 e1 1c be b7 64 fd 3d 1e f4 c8 be 9f 92 20 3e
       -0.15320243 0.123727255 -0.39248747 0.15680932
000180 44 34 5f ba 2c 92 22 3d 20 4b 58 bb 97 92 d8 3d
       -0.0008514563 0.03969018 -0.0033003762 0.10574835
000190 5f a5 81 be 36 0a 93 bc a6 e7 9f bc 62 38 79 3d
       -0.2532148 -0.017949205 -0.019519638 0.060844786
0001a0 44 11 2d 3e c7 8b 09 bc d9 ea 09 3c 49 68 97 3c
       0.16901118 -0.008395142 0.008417808 0.018482344
0001b0 4c 7c 12 3d 50 26 32 be 31 26 a9 bd c5 6d dd 3c
       0.03576307 -0.17397428 -0.082592376 0.027029881
0001c0 77 14 3d be 3c e1 87 3d 94 06 ec bd 63 58 46 be
       -0.18464838 0.06634757 -0.11524692 -0.19369654
0001d0 40 f6 43 be 6c 20 30 bd 29 c1 46 bd 0f e0 5f bd
       -0.19136906 -0.04299967 -0.048524056 -0.05465704
0001e0 9c 96 cb 3d 3f 23 ee bd 78 72 03 bd 9c e4 80 3d
       0.09940836 -0.116278164 -0.032091588 0.06293604
0001f0 8f 00 0e 3e 79 f4 fd 3d 2a e7 8e bd a5 cb 3f be
       0.138674 0.12400145 -0.06977685 -0.18730028
000200 da 49 0b 3d c2 dd 7b 3e 1e 9c 04 be 26 74 2d 3e
       0.034005977 0.24596313 -0.12950179 0.16938838
000210 1f 58 2a 3e f9 4f 3f 3e 3f 7f 13 3e 77 4d 47 bc
       0.16635178 0.18682851 0.1440401 -0.012164465
000220 38 64 90 be 6d 01 7f bd e0 28 01 3e 0a 7b 02 bd
       -0.2820146 -0.06225722 0.12613249 -0.03185562
000230 91 7d 4a bd cf 3b 50 bd 04 85 a3 bc b3 f3 6e bc
       -0.049436156 -0.050838288 -0.019960888 -0.01458447
000240 a2 53 03 be 0f 8c 29 3e a5 b4 2d 3e e2 ba 20 be
       -0.12824872 0.16557334 0.16963442 -0.1569629
000250 e0 8b cf bc ad 95 80 3e 47 0b 32 3e 89 fc 5b bc
       -0.025335252 0.25114194 0.17387114 -0.013426908
000260 5f d5 a1 bd be 4f 41 be 32 f9 30 be cb 3a c1 3c
       -0.079020254 -0.18878075 -0.1728256 0.023587605
000270 b9 cc d7 bd c1 2d a6 3c 54 05 b1 bd 7d 06 56 be
       -0.105370946 0.020285489 -0.086435944 -0.20900913
000280 fc c7 36 3d ae 81 08 3d 3a 60 a7 bd b3 ca c0 bb
       0.044624314 0.033326797 -0.08172651 -0.0058835386
000290 35 97 3e bd 75 75 14 be 03 d4 27 3e c5 d6 7c 3d
       -0.04653092 -0.14497931 0.1638947 0.061728258
0002a0 5f 12 33 be 19 d1 6e bc 5e 1b 94 3d 2f 53 44 be
       -0.17487477 -0.01457622 0.072317824 -0.19172357
0002b0 fd 07 9c 3c af 14 4f 3e d8 68 3a be 65 9e 3f 3e
       0.019046778 0.20222734 -0.18204057 0.18712766
0002c0 03 6e d3 3d b7 c3 6d be 48 87 30 3e 4d 7f 49 3d
       0.103237174 -0.2321919 0.17239106 0.04919367
0002d0 13 cb 6d be b0 3d 22 be 40 ac 10 be 06 aa f1 3d
       -0.23221998 -0.15843844 -0.14128208 0.118000075
0002e0 5e 51 04 be 3b eb 08 bd 4d 38 ea 3d ba d0 5f 3d
       -0.12921664 -0.03342746 0.1143652 0.054642417
0002f0 2b 4d 18 bb 80 26 ca 3b 8d 82 01 be 2f 82 30 3e
       -0.0023239355 0.0061691403 -0.12647457 0.17237161
000300 1a 5d 10 3e fe 78 6f 3e 0a cd a9 3c 3a af 5c 3c
       0.14098015 0.23385999 0.020727653 0.013469512
000310 92 4b 33 bd 9b b6 2b be c4 11 01 3e 7b 4f 37 3e
       -0.04377324 -0.16768877 0.12604433 0.17901413
000320 9a 34 ee 3d 4e 21 42 3d a0 51 7b 3e 14 f8 8d 3d
       0.11631127 0.047395043 0.24542856 0.06932083
000330 d2 15 bb bd e6 a9 f5 bd e4 50 34 bd 14 ae 7e bd
       -0.09135021 -0.11995296 -0.044022456 -0.062177733
000340 85 34 a1 3d f3 1c 14 3d d3 96 11 bd b2 31 d6 3d
       0.078713454 0.03616042 -0.035544228 0.104586974
000350 a1 0c a4 bb 43 f2 1d be 5c 17 b3 bd f0 03 e8 bc
       -0.0050063883 -0.15424447 -0.0874469 -0.02832219
000360 ed 06 27 be 52 35 7a bd 7f 59 c5 be b8 d1 18 3d
       -0.16311236 -0.061086006 -0.38544843 0.03730938
000370 dc fc 9d be 2c 7c a0 bc 53 46 17 bb be 3e f4 3d
       -0.3085698 -0.01959046 -0.0023082688 0.119260296
000380 5b 94 a9 3c f6 34 14 be 9d 0e 17 be 02 10 fb 3d
       0.020700624 -0.14473328 -0.14751668 0.122589126
000390 bf 4c b2 be 50 f4 b2 bd b5 25 42 3e 07 aa 4a 3d
       -0.34824178 -0.08738005 0.18959697 0.049478557
0003a0 fe 81 ae 3d e0 78 90 3d 21 08 c3 3c d2 26 49 3e
       0.08520888 0.07054305 0.023807587 0.19643715
0003b0 ee 63 22 bc a9 e1 89 3d a0 e2 1b 3e e1 0d 0d be
       -0.00991152 0.067324944 0.1522317 -0.13774826
0003c0 34 fb 31 be 66 9d 0d 3e 7f 9d ac bc b5 05 67 bd
       -0.17380983 0.13829574 -0.021071194 -0.056401927
0003d0 26 38 99 bb b1 d1 d5 bd a0 aa a5 3d f4 be ba 3c
       -0.004675883 -0.10440386 0.08089185 0.022796132
0003e0 51 35 e9 bd 4f 94 5a be 75 4c 39 be e9 7c 95 3d
       -0.113871224 -0.21345638 -0.18095572 0.07299215
0003f0 5d 4a e8 bb 8e 27 ce 3d b9 9f 8b bc 34 b3 38 bd
       -0.007088943 0.10066138 -0.017043935 -0.045092776

down1.maxpool_conv.1.double_conv.0.bias f4 [8]
000000 ab cb ae bc a7 b3 af 3d e2 2f 40 bc af 71 39 3b
       -0.02133735 0.08579188 -0.011730166 0.002829652
000010 28 17 82 3d e1 f2 bc bd 10 6a 09 3d 53 4e 13 be
       0.06352073 -0.09226013 0.033548415 -0.14385347

down1.maxpool_conv.1.double_conv.1.weight f4 [8]
000000 3c f8 84 3f e6 fb 83 3f 99 01 88 3f 45 bc 92 3f
       1.0388255 1.0311248 1.0625488 1.1463705
000010 02 29 70 3f 8d b9 6b 3f 85 61 62 3f ef 88 57 3f
       0.9381257 0.92080003 0.88430053 0.8419332

down1.maxpool_conv.1.double_conv.1.bias f4 [8]
000000 d1 c3 89 3e 98 d2 95 3d 8f 0a c1 3d 01 36 19 3f
       0.2690721 0.07315558 0.09425842 0.5984803
000010 b9 db 68 3c b2 27 a7 3e 0e 65 81 3d a3 da b2 3e
       0.014212542 0.32647473 0.06318103 0.34932432

down1.maxpool_conv.1.double_conv.1.running_mean f4 [8]
000000 0f c2 3c bd 0f a7 d7 be ca c7 6b be 15 95 98 bd
       -0.046083506 -0.42119643 -0.23025432 -0.0745031
000010 63 c8 1d bd 53 a0 c8 3d 44 9e 49 be e4 16 09 3f
       -0.03852118 0.097962044 -0.1968928 0.53550553

down1.maxpool_conv.1.double_conv.1.running_var f4 [8]
000000 50 64 48 3f a4 df bb 3f 63 91 55 3f 82 d2 80 3f
       0.78278065 1.4677625 0.8342497 1.0064242
000010 c2 19 c3 3f 2c ae db 3e 4c 0f 5e 3f 1f 9b e7 3f
       1.5242236 0.4290632 0.8674209 1.8094214

down1.maxpool_conv.1.double_conv.3.weight f4 [8, 8, 3, 3]
000000 2d 28 1c 3d 49 26 a8 bd e6 6e 96 bd fc 47 55 be
       0.038124252 -0.08210427 -0.07345371 -0.20828241
000010 c9 d6 3e be c9 57 30 be 06 3b 9e bd a5 98 de bd
       -0.18636622 -0.17220987 -0.077261016 -0.108689584
000020 e6 af 05 be 5c 00 a4 bd 08 46 ad bc 88 9d 96 3c
       -0.13055381 -0.08007881 -0.021151558 0.018385664
000030 3d 87 63 bb ec 04 34 3d 98 63 79 bc 0b 50 e7 3c
       -0.003471806 0.043950006 -0.015221499 0.02823641
000040 98 a0 34 bd eb 4a 06 be 30 3f a2 bc 6b cb 4d be
       -0.044098467 -0.13114516 -0.01980552 -0.20097129
000050 6e a4 07 bd 62 b9 e0 bc 35 47 9d bd 14 7a 21 3e
       -0.033115797 -0.027432147 -0.07679597 0.15769225
000060 82 b3 c3 3c 91 8b 6f bd 45 12 db 3d 93 12 cf bb
       0.023889307 -0.05848271 0.10696844 -0.006319353
000070 20 c0 5e be b0 0c 0b bd 93 d4 aa 3c 39 83 9a be
       -0.21752977 -0.033947647 0.020853316 -0.3017824
000080 a6 51 f7 3d 94 15 5b 3d 11 f6 a0 bb 04 e2 72 3e
       0.1207612 0.053487375 -0.004912146 0.2371903
000090 57 87 02 bd 5e b0 4b bd 80 10 a7 bc db 81 d1 bd
       -0.03186735 -0.049728744 -0.02039361 -0.10229846
0000a0 1f 33 14 be 9e f0 ef bc 25 9e 9e bd 59 d0 86 bc
       -0.14472626 -0.02928954 -0.077450074 -0.01645677
0000b0 b9 2e a7 bb f9 0d 00 3e 97 ef 85 bc 4f 53 87 b9
       -0.0051020053 0.1250533 -0.016349597 -0.00025811276
0000c0 5b 01 64 3d e4 eb 30 be 96 1b 93 3d 8e 04 65 3d
       0.055665355 -0.17277485 0.07182996 0.055912547
0000d0 61 14 4e bd 93 54 00 3d 64 e6 1f be e0 28 84 be
       -0.050312404 0.031330656 -0.15615231 -0.25812435
0000e0 3a f3 e4 bd 18 5b 53 be 2d cf 3f be bc dd 48 be
       -0.11179204 -0.20640218 -0.18731375 -0.19615835
0000f0 f5 5f d1 bc 48 42 b2 bd ff 42 e8 bc 9e b2 92 3c
       -0.025558451 -0.087040484 -0.028352259 0.017907437
000100 eb 24 30 3d d5 4a 9a be 36 0e 34 bd aa de 10 3d
       0.043003958 -0.30135217 -0.043958865 0.0353686
000110 9e 19 0f be 64 8d 24 3c b7 a9 10 3e fa 5d 5b 3c
       -0.13974616 0.010043476 0.14127241 0.013389105
000120 1c 1d b6 3c 27 b3 b2 3d 26 61 93 3e c4 00 e5 3d
       0.022230677 0.08725577 0.28785056 0.11181787
000130 19 5b 66 3d 9f df cc 3d 1d 89 f9 3c 93 05 34 3e
       0.05623922 0.1000359 0.030460889 0.17580251
000140 27 f3 65 3d 35 54 8b 3d b1 db 82 ba 55 92 8a 3e
       0.05614009 0.068031706 -0.0009983686 0.27064767
000150 29 3f 18 3d 94 9b 70 3c f6 e5 8e be 83 f6 4e 3e
       0.03716961 0.01468553 -0.2790982 0.20211224
000160 f8 56 24 3e 5b eb 8b be 88 59 c0 3d 62 45 16 3e
       0.16048801 -0.27328 0.09392077 0.14674905
000170 f0 f7 1a bd 0c 4d ea 3d df f9 02 3e 97 72 04 3d
       -0.037834108 0.11440477 0.12790631 0.032335844
000180 17 2b 5f bd 19 22 11 3e 82 f9 6c 3e 46 4c 7e bb
       -0.054484453 0.14173163 0.23142055 -0.0038802787
000190 9f c3 2b 3e 9b 71 0e 3d 01 be c8 3d ae 04 d9 bd
       0.16773842 0.03477631 0.09801865 -0.10596596
0001a0 aa 99 ed 3d 1d c0 04 bb ca 4b 67 be 42 ef cc bd
       0.11601575 -0.002025611 -0.22587505 -0.10006572
0001b0 b2 48 89 3d 83 3c e1 bd bd 51 f1 bd c4 c0 8c bd
       0.06703319 -0.1099787 -0.117831685 -0.068727046
0001c0 d8 88 23 3c f6 87 b1 bd 6a 07 7e 3d 1c ea e0 bd
       0.009981357 -0.086685106 0.06201879 -0.10982153
0001d0 4c e0 4c be c5 f8 58 bd c8 a4 87 be 36 85 1e be
       -0.20007437 -0.05297162 -0.26492906 -0.15480503
0001e0 48 3d 2c bc 6e 69 10 3e 77 f9 7e bd 9d 1e e1 bc
       -0.010512657 0.14102718 -0.062249627 -0.027480418
0001f0 14 1c d8 3c 37 01 15 be 63 91 22 be a5 62 28 3d
       0.026380576 -0.14551245 -0.15875773 0.0411097
000200 26 94 3b bc 1e dc 90 bd ea e7 3e 3d 88 d7 d6 bd
       -0.011448896 -0.07073234 0.04660789 -0.10490328
000210 6e 7a 85 be db a8 55 bd cf 00 5e be 70 a3 0b be
       -0.2606997 -0.052162986 -0.21679996 -0.13636565
000220 13 f0 79 bc 88 cd 28 bd 14 f0 34 bc 07 9e 96 3d
       -0.015254992 -0.041211635 -0.011043567 0.0735436
000230 92 13 c7 3d e2 20 fe bc 3e 8f f7 3c fb 0b f0 3c
       0.097205296 -0.03102154 0.03021967 0.029302588
000240 d7 da fa 3d f3 68 98 3d 95 7a 42 3d cc ce 1d be
       0.12248772 0.074418925 0.047480185 -0.15410918
000250 17 dd 13 3e bf 63 9d 3d b5 f4 8d be 0a 88 ca ba
       0.14439808 0.07685041 -0.2772576 -0.001545192
000260 c1 53 e6 3d 59 80 92 bc 23 0d b9 3d 32 71 3c 3d
       0.112464435 -0.017883467 0.09035709 0.04600639
000270 1b af 13 be 22 b8 95 3d dc 4c 09 3d dc f7 a1 be
       -0.14422266 0.07310511 0.033520564 -0.31634414
000280 f2 df 95 be f5 b6 c1 3d 19 34 d4 bd 3b 21 b2 3d
       -0.2927242 0.094587244 -0.10361499 0.086977445
000290 64 6c bc bb da b4 6b 3d 51 ae 5a 3e 86 b2 b9 bd
       -0.005750226 0.05754552 0.21355559 -0.09067254
0002a0 da 11 ac 3d fc fa 6e 3d 34 05 ba bd f9 a3 88 bc
       0.084018424 0.058344826 -0.09083024 -0.01667975
0002b0 8c bc 76 be 1e 0b 0c be 0c 22 2d 3d 88 c7 e4 3c
       -0.24095362 -0.13676116 0.042268798 0.027927175
0002c0 87 4c 1e bd 1d e8 11 3e 55 1e 51 3e c8 d2 6d bd
       -0.0386472 0.142487 0.20421727 -0.058062345
0002d0 c6 98 33 be 0d 00 17 be ce 59 21 3c a0 aa 20 be
       -0.17538747 -0.14746113 0.009848071 -0.15690088
0002e0 fa 29 44 3e 91 7d 3a 3d 22 2d 91 bc 6e e5 e9 3d
       0.19156638 0.045529906 -0.017721716 0.11420713
0002f0 a3 35 9b bd 05 9c ce 3d f6 2f 8d 3d 44 f1 aa bc
       -0.0757859 0.10088352 0.068939134 -0.020866998
000300 8d 95 3c be 9c 9d de bd 37 04 9f bd 78 d2 c1 3c
       -0.18416424 -0.10869905 -0.07764476 0.02365993
000310 65 b4 04 be 10 80 32 be 98 2c f9 bc b2 62 de 3d
       -0.1295944 -0.17431664 -0.030416772 0.108586684
000320 6b 3b 96 bc 77 00 dc bd 64 41 9b bd 8e 41 27 bd
       -0.01833888 -0.10742276 -0.07580832 -0.040834002
000330 9d ad b3 bd c7 b0 fe bd 19 f6 b5 3c 7b ff 36 bd
       -0.087733485 -0.12436061 0.022212075 -0.04467724
000340 89 90 11 be 8b 13 35 be 72 90 08 3d cf 72 8a bd
       -0.14215292 -0.17683236 0.03334088 -0.06760179
000350 ca de 5d 3c 00 17 2f 3d 4b 53 91 3d a1 22 ed 3d
       0.013541887 0.042746544 0.07095965 0.115788706
000360 93 e8 d3 3d ad 1f b3 bd cd 06 35 3e e9 ca 0b be
       0.103470944 -0.08746276 0.17678376 -0.13651623
000370 ad 10 7c be e1 7c 32 be 7f 6e 8c bd 79 85 c5 bc
       -0.24615736 -0.1743045 -0.06857013 -0.024111496
000380 2d 41 92 bc 3c 68 1a be a2 6f 65 3d e1 6f a8 3c
       -0.017853344 -0.15078825 0.056014664 0.02056116
000390 bf 1f 46 be cd e9 66 bd 75 69 ae bc e6 c8 09 be
       -0.19348048 -0.056375314 -0.02129052 -0.13455543
0003a0 29 13 43 bd 7e f6 17 bd ad b1 c4 bd 6c a1 a7 bb
       -0.047625694 -0.037100308 -0.096042015 -0.0051156785
0003b0 b2 43 41 3d b8 19 36 bc 7f cb a8 be a6 5a af 3d
       0.0471837 -0.01111453 -0.32967755 0.08562212
0003c0 6a f6 35 be 52 69 6a bd 7c 00 c0 3b ad bd 55 bd
       -0.17769781 -0.057229348 0.0058594327 -0.052182842
0003d0 f5 ba 52 be 27 76 18 3e 8a 07 1e 3e 8a 0b de 3d
       -0.20579131 0.14888822 0.15432563 0.10842045
0003e0 23 ce 76 3d 6f cc 23 bb 6e a6 1a be 35 45 ac 3c
       0.06025518 -0.0024993678 -0.1510255 0.021029094
0003f0 c7 c6 c4 3d b0 5f c0 3d d8 59 11 be 42 81 41 3c
       0.09608226 0.09393251 -0.14194429 0.011810603

down1.maxpool_conv.1.double_conv.3.bias f4 [8]
000000 56 dc e4 bd b5 12 e9 bd f5 28 24 bd 4a 82 45 3e
       -0.11174838 -0.11380521 -0.040078122 0.19287983
000010 5e 02 7a bd c6 58 ab 3d 34 3f 2a 3e 2d e8 be bd
       -0.061037414 0.083665416 0.16625673 -0.09321628

down1.maxpool_conv.1.double_conv.4.weight f4 [8]
000000 42 ec ae 3f 9c 50 78 3f 0c d4 7a 3f 3f 64 75 3f
       1.366585 0.96998 0.9797981 0.9585609
000010 f7 2f 5f 3f 34 3e 86 3f c9 df 88 3f 18 2c 6e 3f
       0.87182564 1.0487733 1.0693294 0.9303603

down1.maxpool_conv.1.double_conv.4.bias f4 [8]
000000 6c c1 57 3e 96 4b ea 3c 92 99 50 3e 14 30 8c 3d
       0.21069878 0.028600495 0.20371082 0.06845108
000010 14 e1 92 3e ca e3 d8 3e b1 7d 80 3e 65 15 a6 3e
       0.28687346 0.4236129 0.25095895 0.32438198

down1.maxpool_conv.1.double_conv.4.running_mean f4 [8]
000000 e8 f9 89 bf 5d 71 42 3d 5b 5c da be 6e 91 b8 bd
       -1.077939 0.047471393 -0.42648587 -0.090121135
000010 d1 d6 15 bf 33 89 21 be 69 53 bb bd 8f 4b d3 be
       -0.5853091 -0.15774994 -0.091467686 -0.41268584

down1.maxpool_conv.1.double_conv.4.running_var f4 [8]
000000 58 43 61 3f 53 d8 14 3f c7 63 1b 3f 3e 72 c0 3e
       0.87993383 0.58142585 0.60699123 0.3758716
000010 ab 7f 67 3e 1f 4f ab 3e bf 41 50 3f b5 46 bb 3e
       0.22607295 0.33458802 0.8135032 0.36577383

down2.maxpool_conv.1.double_conv.0.weight f4 [16, 8, 3, 3]
000000 7d 30 a2 be 25 04 81 bd 88 3f 95 bd c3 a2 aa be
       -0.3167762 -0.06299619 -0.07287508 -0.33327302
000010 34 f2 41 be 03 b1 19 3e 57 91 c9 bd 5f 03 41 bd
       -0.1894005 0.15008931 -0.098421745 -0.047122356
000020 98 0d 03 be e2 70 95 3c 7b 20 5e bd b6 99 83 3d
       -0.12798154 0.018242303 -0.054230195 0.064258024
000030 47 e2 43 3c 4d 90 49 bd 5a 2e 01 bd d1 6d 85 3b
       0.011955804 -0.04920988 -0.031538345 0.004071929
000040 7b e9 ce bd ec c8 fa 3c d4 21 bd bc b6 e0 17 bc
       -0.101031266 0.030613385 -0.02308742 -0.009269884
000050 cf ce 93 bd 6b bb 83 bc 83 c8 eb 3d c2 d5 d8 bd
       -0.0721718 -0.016080579 0.11512854 -0.10587646
000060 a2 dc 8c 3e 86 26 25 bd 6e 95 42 bc 3e 48 11 be
       0.2751208 -0.040319942 -0.011876447 -0.14187714
000070 cf 43 10 3e 64 ed 4a bd 30 15 f8 bd 66 0c bf 3d
       0.14088367 -0.0495428 -0.12113416 0.09328537
000080 19 54 a8 bc 89 b5 8c be 8d 1a 3e 3e b9 3d 12 3e
       -0.020547913 -0.2748225 0.18564816 0.14281358
000090 cf 91 b8 3d 10 af 18 3e a4 a5 54 3d d5 da d9 bc
       0.09012186 0.14910531 0.05191578 -0.026593605
0000a0 14 20 2b 3d ff 67 67 bd 7f 74 6c be 87 2c 0f bd
       0.04177864 -0.056495663 -0.23091315 -0.034954574
0000b0 bb ad 95 bc 4d ed de bb eb 9a 25 3c 89 05 c9 bd
       -0.018271318 -0.006803191 0.010107736 -0.09815509
0000c0 d0 ef f4 3d f9 6d 39 3e 9f c1 9f be f1 05 86 bc
       0.11959803 0.18108357 -0.3120241 -0.016360255
0000d0 70 43 c1 bc 36 af 3a be 50 23 62 be f5 28 ed bd
       -0.023591727 -0.182309 -0.22083783 -0.115800776
0000e0 6c cd e0 bd d8 85 f4 bc 32 d3 67 3b b4 92 7c bd
       -0.10976681 -0.029848978 0.0035373685 -0.061663345
0000f0 34 f3 8a 3c 9b 9a d0 bb 2d 11 2a be 74 da 92 3d
       0.016961671 -0.0063660867 -0.16608115 0.07170573
000100 40 e0 1e be 51 80 1e 3e a1 fa 03 bc 30 f9 35 be
       -0.15515232 0.15478636 -0.00805536 -0.17770839
000110 43 f5 ac bd a6 46 83 bd 6e 49 b5 3c 8d 9b f3 3d
       -0.084452175 -0.064099595 0.02212974 0.11894903
000120 64 0c 35 bb 1a e4 aa 3e 1f 83 84 bd b0 1f 9d 39
       -0.0027625794 0.33377153 -0.06470322 0.00029968983
000130 6f 70 96 3e 59 3e f2 bd 8c 6a d3 bd a5 31 81 3e
       0.29382655 -0.11828298 -0.103230566 0.25233188
000140 b2 90 b1 be 22 a8 8b 3d bb a0 1e bd f0 8d 81 3c
       -0.34680706 0.06819178 -0.038727503 0.015814751
000150 3b aa 19 bb 48 71 18 3d cc 10 23 bd bb c4 57 3d
       -0.0023447413 0.03721741 -0.03981094 0.05267785
000160 55 4b 15 3e 58 43 05 3e e8 3e 52 3e a6 c8 16 be
       0.14579518 0.13013971 0.2053181 -0.14724979
000170 3e ce de bd d0 52 c3 3a 55 f0 04 be 47 8e 9a 3d
       -0.10879181 0.0014901999 -0.12982304 0.075466685
000180 de 8f d7 bd ec e2 fe 3d 14 5c 33 3d e6 b5 b9 bd
       -0.10525487 0.12445626 0.043788984 -0.090678975
000190 b0 fa 27 3e d8 cf a4 bc 73 e6 06 be 08 6a b4 bd
       0.16404223 -0.020118639 -0.13173847 -0.08809286
0001a0 06 79 8c bd 5f 6e 25 bd fe c8 ef bd ae fc 90 be
       -0.06859021 -0.04038846 -0.11708258 -0.2831778
0001b0 c7 33 38 ba 64 41 d4 bc b6 e6 58 3e ec ce 4e 3d
       -0.00070267584 -0.025910087 0.21181759 0.050490305
0001c0 7d 13 98 3d 22 2e 89 bc 15 e7 5d 3d 1e 5a 7b be
       0.07425592 -0.01674563 0.054175455 -0.24546096
0001d0 4f fa 71 be 15 0f 80 3d 2f c5 00 bd 11 65 a7 bc
       -0.23630641 0.06252877 -0.03143805 -0.020433934
0001e0 60 26 0b 3e 39 ac 09 3e ef 76 11 3c 7d cf 4d bc
       0.13588858 0.13444604 0.008878454 -0.012561676
0001f0 e3 70 81 bd 92 31 be bc 47 57 8d 3d 0f c8 23 be
       -0.063203596 -0.023216996 0.069014125 -0.15994285
000200 76 cb 31 3d 48 57 e7 3a eb 16 9e 3c 93 7a b8 3d
       0.043406926 0.0017649913 0.019298038 0.09007754
000210 04 02 61 3d 9c 3b a2 3d 52 10 e6 bb 15 ae bb 3d
       0.054933563 0.07921526 -0.0070209885 0.09164063
000220 be 2b 54 3c 25 f3 71 3c 6e e2 06 3e 85 0c 08 be
       0.012949882 0.014767443 0.13172314 -0.13286026
000230 0c d6 de bd fa d4 8c 3d a4 a0 60 be ba e3 6f be
       -0.1088067 0.068765596 -0.2193628 -0.23426715
000240 cc 07 2d be fc 25 67 be 84 38 68 3e ff ef 05 be
       -0.16897506 -0.22573084 0.22677809 -0.13079832
000250 09 71 be be 9e 2b 52 3e c2 32 12 bc 8b 60 78 3d
       -0.37195614 0.20524451 -0.008923234 0.060638946
000260 15 34 07 3e 22 aa 1a 3d 50 fa a4 3d fb ae 22 bd
       0.13203461 0.037759908 0.08055556 -0.039717656
000270 d1 c0 43 3c c6 ce 72 bb 84 74 02 3e 1a 3f 15 bc
       0.0119478265 -0.0037049516 0.1273976 -0.009109283
000280 ee ca ae 3d ce b3 ab bc fa 81 84 3d 11 27 9f 3d
       0.085347995 -0.020959761 0.064701036 0.07771123
000290 8d 6c 94 bd ab b3 a3 3d 16 6f 5e bd 86 12 93 bd
       -0.07247267 0.07993253 -0.05430516 -0.071812674
0002a0 06 bd 39 be d6 e8 31 3d 84 01 6e 3d 7a f9 55 be
       -0.18138513 0.04343494 0.058106914 -0.20895949
0002b0 0a f2 74 3d bd 53 be 3d e5 5a 32 be 6d 94 f6 3d
       0.05980114 0.092933156 -0.17417486 0.12040029
0002c0 13 33 12 3d d8 8b 5c be 90 18 95 bc 4e 84 af bd
       0.03569324 -0.21537721 -0.018200189 -0.08570157
0002d0 81 3a 1a 3d 1e 88 c7 3d 1b ff 04 be d2 4f 69 be
       0.03765345 0.09742759 -0.1298794 -0.22784355
0002e0 69 c4 dc bc 72 cf 38 be 77 42 59 bd 97 d2 d5 3d
       -0.026949124 -0.18047884 -0.0530419 0.104405575
0002f0 a9 c9 c8 3b 9a ee 10 be 4a f8 f9 bc ec 79 35 bd
       0.0061275554 -0.1415352 -0.030513901 -0.044305727
000300 d9 e9 ce bd 20 1b 15 be ff a9 1d ba 70 2b 81 bd
       -0.10103197 -0.14561129 -0.0006014406 -0.06307113
000310 91 42 db 3d d2 01 81 bd b5 ae 2e bb 03 05 5f be
       0.10706056 -0.06299175 -0.0026654426 -0.21779256
000320 c8 e7 91 be 15 f0 d2 bd de 58 2e bd df 7e 1e bd
       -0.28497148 -0.10299698 -0.04256522 -0.038695212
000330 be 67 2c be 9e f1 56 3d 36 9f 5a ba 1d f5 47 3e
       -0.1683645 0.052476518 -0.00083397643 0.19527097
000340 75 c6 c3 bd 52 d9 af 3d 00 69 99 bd d4 ef 92 bd
       -0.09559337 0.085863724 -0.0749073 -0.0717465
000350 c8 62 4a 3d 6c 07 ec 3b d5 c0 e7 3d 04 96 e5 3d
       0.04941061 0.007203033 0.11316077 0.11210254
000360 c1 0a af be 0a 2c 70 3e 7b 3d b0 bd 30 6b 91 be
       -0.34187892 0.234543 -0.086054765 -0.2840209
000370 ea 54 8d 3e 9a 73 97 3d f0 8d d4 bd ca f2 8f 3e
       0.27603847 0.07395096 -0.10378635 0.2811492
000380 88 c4 81 bd 58 e8 08 3e 6b 9c e8 3c 4a 40 0e 3d
       -0.063363135 0.13369882 0.028394898 0.03472928
000390 39 31 1d 3d b3 29 35 bd f0 61 9f 3b ef 8a 34 bd
       0.03837702 -0.04422922 0.00486397 -0.04407781
0003a0 4d c3 61 3b 2c 81 36 bd 02 e7 8b 3d 15 75 e4 3c
       0.0034448684 -0.04455678 0.068311706 0.02788786
0003b0 83 a4 c0 bd 56 00 c4 3d dc c7 08 3e 72 13 c5 3d
       -0.09406378 0.095703766 0.1335749 0.096228495
0003c0 2a ba a0 bc 8c af 82 39 9d 0f c3 3d be b7 57 be
       -0.01962002 0.00024926325 0.09524462 -0.21066186
0003d0 39 b6 a4 bd cf 98 59 be 18 88 4e be 7a 64 d4 3d
       -0.08042569 -0.21249698 -0.20169103 0.10370727
0003e0 c2 16 d8 3d b0 f3 bb 3d a1 47 f7 3d 91 44 1f 3e
       0.10551216 0.09177339 0.12074209 0.155535
0003f0 70 ad bc bd e4 71 a0 bb f3 c1 27 be b9 f0 1b 3d
       -0.09212768 -0.0048963893 -0.1638258 0.038071368

down2.maxpool_conv.1.double_conv.0.bias f4 [16]
000000 37 31 a8 3c 3e 2a 58 3d 88 5c 3c 3b 89 8f ed 3d
       0.02053128 0.05277466 0.0028741676 0.11599643
000010 44 b3 d2 3d 85 d7 03 be 94 87 0a be 82 24 55 3e
       0.102880985 -0.12875183 -0.13528281 0.20814708
000020 39 73 1f bd 06 c8 ba bc 17 de 11 bd 58 a2 8a bd
       -0.038928244 -0.022800457 -0.035612192 -0.06769246
000030 98 24 98 be 5a b3 ac 3c e9 f3 36 be a7 7f b5 bd
       -0.2971542 0.021081615 -0.17866482 -0.088622384

down2.maxpool_conv.1.double_conv.1.weight f4 [16]
000000 1b 77 6e 3f a2 62 8e 3f 60 63 86 3f 22 3e 93 3f
       0.9315049 1.112385 1.0499077 1.1503336
000010 3d fa 99 3f cd 48 63 3f 1d a5 3f 3f c0 2b 87 3f
       1.2029492 0.8878296 0.7486132 1.0560226
000020 93 12 97 3f 07 d3 82 3f 30 44 77 3f 57 63 6a 3f
       1.1802543 1.022065 0.9658842 0.9155783
000030 3f 04 80 3f d2 2f 87 3f 3f a6 5d 3f 6b 46 85 3f
       1.0001296 1.0561469 0.86581796 1.0412115

down2.maxpool_conv.1.double_conv.1.bias f4 [16]
000000 da 81 ba bb b3 48 b5 bc 9a d4 38 be ef 46 38 3d
       -0.005691749 -0.022129392 -0.18049851 0.044989523
000010 ea fb 30 3e ee fc 9b bd 8a 14 a4 be e7 f6 53 3e
       0.17283598 -0.07616602 -0.3204692 0.20699655
000020 54 f8 36 3d 84 bf e3 3d 8c 3c 0e be 44 b2 f3 3a
       0.044670418 0.11120513 -0.13890284 0.0018592556
000030 28 5b 32 bd 91 3a 7c 3e 90 a2 a4 3d f4 08 e3 3d
       -0.043543965 0.24631716 0.08038819 0.11085692

down2.maxpool_conv.1.double_conv.1.running_mean f4 [16]
000000 a9 22 5a bf d1 24 e8 3a 1e da 44 bf 40 50 6f be
       -0.8520914 0.0017711167 -0.7689532 -0.23370457
000010 88 af f5 be 1a cb 61 bf 5d 45 52 3f 50 17 b2 bf
       -0.47985482 -0.88200533 0.8213709 -1.3913364
000020 f2 a3 9c bf f4 57 95 bf c5 7f 78 bf e6 7b f7 be
       -1.2237532 -1.1667466 -0.9706996 -0.48336715
000030 5b b2 6f bf 7b 1e bd bf c5 46 21 bf d0 5c c5 bf
       -0.93631524 -1.4774927 -0.6299861 -1.5418949

down2.maxpool_conv.1.double_conv.1.running_var f4 [16]
000000 56 2f e2 3e 14 1b 10 3f 61 43 0b 3f 3d 26 01 3f
       0.4417674 0.5629132 0.5439969 0.5044897
000010 2c c9 43 3f 6c 7a 89 3e b1 30 fc 3e 8d 7a 4e 3f
       0.7647884 0.26851213 0.492559 0.8065575
000020 45 1a de 3e d3 a2 bd 3e 66 17 e2 3e bf ee 58 3f
       0.43379417 0.37038288 0.44158477 0.847393
000030 e6 16 de 3e 0a 3d ba 3e 54 92 aa 3e 9b 12 01 3f
       0.43376845 0.36374694 0.33314764 0.50419015

down2.maxpool_conv.1.double_conv.3.weight f4 [16, 16, 3, 3]
000000 9a 4e d8 bc 0c a8 8d 3d d5 07 4a be 0f 8e 00 be
       -0.026404668 0.06916818 -0.1972955 -0.12554191
000010 42 78 12 bd c0 83 86 bd f2 94 e5 3d 0b 9c a9 bd
       -0.035759218 -0.06568098 0.1121005 -0.08281716
000020 63 65 8f 3d 98 4b 52 be 16 c6 38 3d fc 31 03 3d
       0.0700176 -0.20536649 0.045110784 0.03203009
000030 53 a8 bd 3c 25 57 c4 3c a6 2e 99 be 49 07 1b 3e
       0.023151552 0.023967335 -0.29918402 0.15139498
000040 07 bf 94 bd 3d 8a b8 bc 0d 93 60 bd 44 06 08 be
       -0.07262998 -0.022526855 -0.05482774 -0.1328364
000050 37 be c3 3d 94 7a 61 bd 52 7c 1c bd d5 f1 03 be
       0.09557765 -0.05504854 -0.0382045 -0.1288522
000060 98 7d 16 3c 42 68 7f bb ef da 3b be f4 49 38 3b
       0.009185217 -0.0038972055 -0.18345235 0.0028120251
000070 73 8f 4c 3d b7 16 69 3d f1 bf 03 bd 9e 0c 1d be
       0.04994149 0.05690643 -0.03216547 -0.15336844
000080 36 b6 5b b7 f5 20 5c be 76 53 2c be eb be fe bc
       -1.30958415e-05 -0.21496947 -0.16828713 -0.031096896
000090 1d 2c 6c be 95 21 05 be af 18 08 3d ef 5f ec 3d
       -0.23063703 -0.13001092 0.033226665 0.115417354
0000a0 82 6f 06 3e 42 69 38 3e 5f d0 2c 3e a3 bf 3f 3d
       0.13128474 0.18008903 0.16876362 0.04681362
0000b0 cc e8 96 3d 37 64 b7 bd dc 4e 07 bd 50 d0 07 bc
       0.07368621 -0.08954661 -0.03303419 -0.008289412
0000c0 7c 9b 47 bd aa e1 01 3d 27 9c ae 3d 75 6f d7 bd
       -0.048732266 0.03170935 0.085258774 -0.105193056
0000d0 80 e2 c1 bd a6 2b 23 bd b5 61 a1 3c 24 32 15 bd
       -0.094670296 -0.03983655 0.01969991 -0.03642477
0000e0 51 dd 8d bd 4c 99 b1 3c c4 7a 4a be e9 db 07 be
       -0.069269784 0.021679543 -0.19773394 -0.13267483
0000f0 9a 3f 12 bd 96 0a 4b bd 7a ff d0 3c 95 24 81 bc
       -0.035705186 -0.049570642 0.025512446 -0.015764514
000100 62 ab 74 3d c8 63 eb 3d 68 c1 be 3d d6 7e c6 3c
       0.059733756 0.11493641 0.09314233 0.024230402
000110 cb 95 63 bd 62 a8 d8 3d b0 15 c0 bc c3 c3 ce bd
       -0.055562776 0.105789915 -0.023447841 -0.10095932
000120 3d 28 b8 3d dc c5 4b be fb d4 fa 3c e0 75 c1 bc
       0.0899205 -0.19899696 0.030619135 -0.023615777
000130 cc 01 f4 bd 90 a7 be 3d e1 60 ca bd 3f e5 2a be
       -0.11914405 0.09309304 -0.098817594 -0.16689013
000140 47 33 c9 bc 00 a3 bb bd c1 0a ac bd 70 d7 03 3d
       -0.024560584 -0.09161949 -0.08400489 0.03218788
000150 8a 97 d3 bd 2e 62 91 bc 01 e0 c3 3d bb 55 72 bb
       -0.10331638 -0.017747011 0.0956421 -0.003697737
000160 95 d0 7c bd 16 2e 23 be d2 06 99 3d d9 28 0f be
       -0.061722357 -0.15935549 0.07472004 -0.13980426
000170 73 63 0d be 7e f7 1e bc 85 c0 14 3e 52 43 03 3e
       -0.13807468 -0.009702561 0.14526565 0.1281865
000180 83 7d b6 3d 0f 80 22 3d 3f 8b c7 3b b1 4f 85 bd
       0.08910658 0.039672907 0.0060895975 -0.065093406
000190 9b 5f 12 3e 3e 23 d6 3c 43 9c 09 be 5f 03 9d 3d
       0.14294283 0.026139852 -0.13438515 0.076666586
0001a0 92 ba ad 3d 0a 71 fd 3c 8c db 10 3d 29 1c cb 3d
       0.08482851 0.03093769 0.035365626 0.099174805
0001b0 a3 63 cd bc fc 04 55 be 42 ff a9 bc 38 c7 23 bd
       -0.025071925 -0.20802683 -0.0207516 -0.03998491
0001c0 aa 5a a2 bd 53 76 e8 3b 01 c4 96 3d 89 a3 99 3d
       -0.07927449 0.0070941835 0.073616035 0.07501895
0001d0 ef c0 48 3e b5 8c 2d be 5b f6 39 3e 6d a1 bf 3c
       0.19604848 -0.16948207 0.18160383 0.023392403
0001e0 a6 3c 21 3d 84 64 d3 3d 2e 2a c9 bc 52 26 ae bc
       0.03936448 0.10321906 -0.024556246 -0.021258507
0001f0 6d b8 8c 3c 27 01 be bd 85 bc 96 bd 6b 62 25 3d
       0.017177785 -0.092775635 -0.07360176 0.04037706
000200 fe 5a 9a bd a1 ff c8 bd ee ab 91 3d 24 cb a3 bc
       -0.07536887 -0.09814382 0.07112871 -0.019994326
000210 68 a6 97 3d ad 61 b6 3c c8 4c 00 be c4 17 65 bd
       0.07404786 0.022263372 -0.1252929 -0.055930868
000220 67 aa e8 3d 1c d8 88 bd 54 8b de 3d 59 d3 db 3d
       0.11360627 -0.066818446 0.108664185 0.10733671
000230 e5 c6 8f bd a1 51 57 be b3 95 e4 bd 9e cc 9c 3b
       -0.07020358 -0.21027233 -0.11161365 0.0047851345
000240 1e 17 fa bc 2f d6 e8 bc 32 2f 94 bc 20 81 23 bd
       -0.030528601 -0.028422443 -0.01808891 -0.039918065
000250 c5 8e 47 3d bd 74 f9 3d 5b a3 73 bc 6d 53 09 bd
       0.04872014 0.12180469 -0.01487049 -0.033526827
000260 be 63 9a 3e 5d 9c 09 3e b8 23 26 3e 0b 7f e7 bd
       0.30154222 0.13438554 0.16224563 -0.113035284
000270 a0 60 70 3d bb 19 28 3e fb f9 72 3a b5 3d 94 3e
       0.0586859 0.16416065 0.00092688174 0.2895333
000280 d6 52 42 bd f0 58 2f bd bd 5c 1f be 42 5e 20 bd
       -0.04744228 -0.042809427 -0.1556272 -0.03915239
000290 da b8 07 3d dc fe 3f 3c 5c a1 48 be 1d b5 ce 3d
       0.033135273 0.011718478 -0.19592804 0.10093138
0002a0 d3 a5 0c be 68 f8 53 be 02 4c 11 3e 45 8e 56 3d
       -0.13735132 -0.20700228 0.14189151 0.052381773
0002b0 66 42 dd bb 72 af 31 bd c0 5b 85 bb a7 6f 53 3c
       -0.0067523 -0.04338021 -0.0040697753 0.012905038
0002c0 59 6f aa bd b5 52 e9 3d d3 d2 9b 3d a8 18 c4 3c
       -0.08322019 0.11392728 0.07608571 0.023937538
0002d0 a6 9a 78 3d f1 3b 28 bc 4c 38 06 be 5d 3e 96 bd
       0.06069436 -0.010268197 -0.13107413 -0.073361136
0002e0 f0 b5 12 3d 8f ef 03 bd 84 65 57 be 0c ce 99 be
       0.03581804 -0.032210883 -0.21034819 -0.30040014
0002f0 74 b1 1c be 44 98 6e 3d 12 c0 25 be 81 58 f5 bb
       -0.15302068 0.05825068 -0.1618655 -0.007487357
000300 8f 4f 3a 3e e2 e9 f5 3d e1 b5 a2 bc 6b 8d 86 3b
       0.18194412 0.120075 -0.019862117 0.004106214
000310 5a 02 0b 3e 54 15 8f 3d 4a bd c9 3b 72 37 91 3d
       0.13575116 0.0698649 0.006156598 0.070906535
000320 ba a9 02 bc d7 8e 92 bc 5d 2c 47 3c c7 bb d4 3c
       -0.007975036 -0.017890377 0.012156573 0.025968445
000330 6c 51 10 3d b6 9b d4 bd 7c a6 a6 3c bb f7 98 be
       0.0352339 -0.10381262 0.020343058 -0.29876503
000340 03 85 00 bd 8b 35 2e 3e 5b 20 41 be c7 1f 61 be
       -0.03137685 0.17012613 -0.18859999 -0.21984778
000350 12 96 3d bc c1 87 80 be 31 7b 4e be ab 17 73 3e
       -0.011571424 -0.25103572 -0.20164181 0.23739497
000360 bd a9 24 3d d7 a9 b0 bd 21 dc 36 bd 1c 8d ec 3c
       0.040200938 -0.086261444 -0.044643525 0.02887588
000370 a2 c3 61 be 76 73 c4 3d 0d 35 00 be e7 20 9c bd
       -0.22047284 0.09592335 -0.12520237 -0.07623463
000380 de 99 10 3e 5f ac e3 bd c1 97 d2 bd 0d e1 b4 bd
       0.14121196 -0.111168616 -0.10282851 -0.088319875
000390 56 aa b8 bd a1 35 14 bd 58 30 9d bd e1 70 c6 3d
       -0.09016864 -0.036183957 -0.076752365 0.09689499
0003a0 b1 c1 66 3d 36 5f d7 bd 53 9d 60 bd 78 6c 1d bd
       0.056337062 -0.10516207 -0.054837536 -0.038433522
0003b0 f8 b0 8f bc 4a 58 a0 bd 6f 7a ab 3d 5a 3c 6b bc
       -0.01754044 -0.0782934 0.08372962 -0.014357651
0003c0 83 76 8e bd 8f 14 4c 3c c3 70 4d bc 09 3d 15 3e
       -0.06956198 0.012456073 -0.0125390915 0.14574064
0003d0 13 fc 56 bd 63 49 09 3e a0 af c8 bc 80 6d 46 bc
       -0.05248649 0.13406901 -0.024497807 -0.012111068
0003e0 50 4f ed 3d 2f c5 39 bd 6e 5d 84 3c c5 70 a8 ba
       0.11587393 -0.045354065 0.016157832 -0.0012850991
0003f0 bf 73 05 3e 84 6f cb bc 06 0d 1e be a2 f7 06 be
       0.13032435 -0.024833448 -0.15434656 -0.13180402

down2.maxpool_conv.1.double_conv.3.bias f4 [16]
000000 40 ce 12 3d 6b 45 60 bd 27 f5 8c bd 24 40 0e 3e
       0.035841227 -0.054753702 -0.068826966 0.13891655
000010 39 84 69 bd 63 bd 24 3e 14 02 a1 bd cf f6 fe bd
       -0.057010863 0.1608787 -0.078617245 -0.12449419
000020 2f 84 b1 bc c2 46 27 3d 7d 37 4e 3e de 4a e6 3c
       -0.021669475 0.040838964 0.20138355 0.028111871
000030 da a0 42 3d c4 ff 88 bd 2a 49 b0 3d fd f3 1f 3c
       0.04751668 -0.066894084 0.08607705 0.009762761

down2.maxpool_conv.1.double_conv.4.weight f4 [16]
000000 ca a4 85 3f d2 8f 86 3f 3c 49 91 3f b2 28 80 3f
       1.0440915 1.051264 1.1350474 1.0012419
000010 af 9a 78 3f 80 80 5d 3f 1d f9 83 3f 85 b9 45 3f
       0.9711103 0.865242 1.0310398 0.77236205
000020 40 57 75 3f 67 bb 75 3f 7c 7f 83 3f 4f 22 87 3f
       0.9583626 0.9598908 1.027328 1.0557345
000030 1e 01 90 3f f5 35 83 3f fe 6a 83 3f b3 43 82 3f
       1.1250341 1.0250841 1.0267026 1.017691

down2.maxpool_conv.1.double_conv.4.bias f4 [16]
000000 ab 25 b4 bd a2 24 01 be 05 4a 4e be 2a 2e 72 be
       -0.08796247 -0.1261163 -0.20145424 -0.23650423
000010 97 52 39 be 4b c5 32 be 72 c8 c7 bd de de d2 be
       -0.18097912 -0.17458074 -0.09755029 -0.4118566
000020 d6 d7 1c be 6d 86 10 3d de c5 6e 3c 47 87 6f bd
       -0.1531671 0.03528445 0.014573542 -0.05847862
000030 ff 4b bd bd 15 db 8d bc a7 47 10 bd 6a 08 65 3c
       -0.09243011 -0.01731638 -0.035224583 0.013979057

down2.maxpool_conv.1.double_conv.4.running_mean f4 [16]
000000 43 04 00 bf e4 3d 75 bf 54 88 70 bf f8 b8 48 be
       -0.500065 -0.9579756 -0.9395802 -0.1960181
000010 79 8d fc be 28 25 8c be a0 1d 24 bf 80 4d 36 3e
       -0.49326685 -0.27372098 -0.64107704 0.17803001
000020 09 1a cc bd a1 06 8e be 96 09 7a bf 23 e8 09 bf
       -0.09965903 -0.27739432 -0.97670877 -0.5386984
000030 44 d8 39 bf 33 d8 82 be 96 ec b0 be c3 80 4f bf
       -0.7259562 -0.25555572 -0.345555 -0.8105585

down2.maxpool_conv.1.double_conv.4.running_var f4 [16]
000000 5e c5 cc 3e 0c 8a dc 3f f2 7d 4c 3f 0b 86 02 3f
       0.3999433 1.7229629 0.7987968 0.50985783
000010 b2 9b a7 3f 6c 8d 33 3f b0 b4 11 3f 4f 40 f1 3e
       1.309439 0.7013767 0.5691633 0.47119376
000020 ed 46 81 3f 55 e3 25 3f 85 99 4e 3f 28 2a 1a 3f
       1.009977 0.64800006 0.80703 0.60220575
000030 4f 11 ea 3f 60 bd 3c 3f f9 03 56 3f 0a 01 59 3f
       1.8286532 0.73726463 0.8359981 0.8476721

down3.maxpool_conv.1.double_conv.0.weight f4 [32, 16, 3, 3]
000000 a3 c4 29 bc 90 8c bb 3d 44 4e ea bd fc 28 69 bd
       -0.010361823 0.091576695 -0.11440709 -0.05692385
000010 75 00 0c 3d 0d 43 dd bd 23 27 b5 3c 16 d7 b7 3d
       0.034180123 -0.108038045 0.022113388 0.08976571
000020 60 f3 e2 3c ef f7 85 bd 8d ee 26 3d 17 bd bf 3d
       0.02770394 -0.0654143 0.040754844 0.09362238
000030 b6 6b e9 bd 7b 98 ac 3d 58 2c e5 3d f0 15 86 bd
       -0.11397497 0.08427521 0.111900985 -0.06547153
000040 95 50 86 3d de 24 b8 3c 7b 2a 22 bd 5c 11 a7 3d
       0.065583386 0.022478517 -0.039591294 0.08157608
000050 d7 7e 21 3e 1d 19 96 3c 16 2b c1 bb 47 f0 a6 bd
       0.15771042 0.018322522 -0.005895029 -0.08151298
000060 b9 35 00 be 94 70 14 be 0d 6c 0a bd ca 73 a5 bc
       -0.12520494 -0.1449607 -0.03379445 -0.020196814
000070 48 f8 62 bc c4 2c 27 be 57 a4 06 bd 4f 61 11 bd
       -0.01385314 -0.1632567 -0.03287157 -0.03549319
000080 76 db 0e be b9 05 e2 3c be 94 c1 3d 87 3f 8c bd
       -0.13950905 0.02759062 0.094521984 -0.068480544
000090 32 82 82 3e 7e 90 9f bd 22 59 27 be db 9f b1 3d
       0.25489956 -0.077912316 -0.16342595 0.08673068
0000a0 27 43 89 bd 91 54 ce bd d5 35 51 3d ff e2 1c bd
       -0.067022614 -0.100747235 0.05107673 -0.038302418
0000b0 d5 14 81 bd 3c 5c 60 3d ea 07 36 3e f7 f6 5a 3d
       -0.063028015 0.05477546 0.17776456 0.05345818
0000c0 ae 32 b5 bb ba c3 9b 3d 59 e4 0e be 34 f4 68 3d
       -0.005529723 0.07605691 -0.13954295 0.056873515
0000d0 f4 6d df 3c 7f db c9 bd 11 26 0a bd 3d a6 2b bc
       0.02727411 -0.09856319 -0.03372771 -0.010476646
0000e0 59 17 45 be b3 95 f6 bd 7a 73 73 3b d9 48 a6 bd
       -0.19247188 -0.120402716 0.0037147687 -0.08119363
0000f0 03 af 3e bd 9c 9a 1c 3d 1a 7e 34 bd 9e 0a b2 3d
       -0.046553623 0.038233384 -0.044065572 0.08693431
000100 16 5d 96 3b 9d 97 2a be b2 a2 c4 bb ba 4d 65 3c
       0.0045887334 -0.16659398 -0.00600084 0.013995582
000110 be a5 92 bd 42 75 98 ba ac 91 d2 bc 4a 68 f6 bd
       -0.07160519 -0.0011631625 -0.025704227 -0.1203161
000120 81 1e e7 3c 8a 8f 88 bc 8d 27 2b 3d 00 09 d6 3c
       0.028212788 -0.016670007 0.041785765 0.026127338
000130 6c 6b 29 3d 3f 91 9d bd 61 0b 11 3e a2 be eb bc
       0.04136221 -0.07693719 0.14164497 -0.028777424
000140 97 a2 d3 bd e1 e9 69 3c 98 82 d8 bc ec c9 22 be
       -0.10333746 0.0142769525 -0.02642946 -0.1589734
000150 e8 c0 73 3d 2d 78 13 3e d1 50 6f bd 05 5b 63 bc
       0.05951014 0.14401312 -0.058426682 -0.013876681
000160 d5 81 db 3d ab 52 08 be fa 02 17 bd e3 e7 a4 3d
       0.10718123 -0.13312785 -0.036868073 0.080520414
000170 d3 dd 2f 3e 37 3d c2 3d c5 00 81 3d 90 ce d4 3d
       0.17174463 0.09484332 0.06298975 0.10390961
000180 0b ab 1c 3e 9a 4d d3 3d f5 59 a5 3c f2 5c 5c bd
       0.15299623 0.10317536 0.020184496 -0.053799577
000190 6c 72 ce 3c 24 b1 28 bd 4d c4 65 bd ff 06 77 bd
       0.025201045 -0.04118456 -0.05609541 -0.060309406
0001a0 11 12 cb 3c c8 d0 aa bb df 47 d8 bd 12 67 e2 bd
       0.024788888 -0.005212877 -0.10560583 -0.11054815
0001b0 c6 f6 37 3d a7 fc a9 be 21 5d 7e be 35 f7 95 3c
       0.044913076 -0.3320057 -0.24840213 0.018306354
0001c0 6c 4e 31 be 5f 7e ea bd ae da 98 bc 22 98 f1 bd
       -0.17315072 -0.114498846 -0.018658962 -0.11796595
0001d0 d8 34 25 bd ff 43 55 3e 31 99 a8 bc 95 f8 52 be
       -0.0403336 0.2082672 -0.02058086 -0.20602639
0001e0 64 32 56 bd 03 10 b3 bd f9 1c 2a be 26 c8 77 bd
       -0.05229415 -0.08743288 -0.16612615 -0.06049361
0001f0 53 3e cf 3d db ec b4 bc 19 05 ad 3c cd 1d 1e be
       0.10119309 -0.022085598 0.021120595 -0.15441056
000200 3d 02 19 be b1 3f 70 be dd 2d 28 3d 31 0a ee 3c
       -0.1494226 -0.23461796 0.041059364 0.029057594
000210 28 23 ad bc 86 d3 82 3b e7 37 a2 bd 93 03 33 3e
       -0.021134928 0.0039925007 -0.07920819 0.17481832
000220 de 7d 20 3d b0 63 8e bd 29 c6 64 3d 19 56 7f 3d
       0.039182536 -0.06952608 0.055853043 0.06233797
000230 a1 d2 bc bb d4 67 25 3e 2f a3 07 3e 51 e8 6c 3d
       -0.0057624136 0.16152889 0.13245843 0.05783874
000240 96 1d 91 3b 85 70 6b be 65 04 6e be ff b5 de 3d
       0.0044285757 -0.22992142 -0.23243864 0.10874557
000250 c6 c9 64 3d 91 8a ef 3b 23 d9 bb 3c 2b c6 34 bd
       0.05585649 0.0073102196 0.022930687 -0.0441343
000260 4f 3f 92 bc 29 19 99 bd 0d c8 36 3c 62 ed 20 3d
       -0.017852454 -0.07475502 0.011156094 0.039288886
000270 eb ef ee bd 18 1f 8c bd be f2 9c 3c 79 aa cb bd
       -0.116668545 -0.06841868 0.019158717 -0.099446245
000280 4f 7e bf bd 62 72 3c be c1 8b 24 be 55 22 c0 3c
       -0.09350263 -0.18403009 -0.16068937 0.02345387
000290 15 fa 08 3e 5e a6 11 be bd a1 02 3d 9c 33 f4 bd
       0.13376649 -0.1422362 0.031892527 -0.11923906
0002a0 82 6e 4b bd de 09 cf 3c f2 e0 c7 bb 45 1d b3 3d
       -0.049665935 0.02527326 -0.0060998136 0.08745817
0002b0 c4 00 19 3d 60 2b 16 3e 04 60 04 be 1a e5 47 be
       0.037354246 0.14664984 -0.12927252 -0.19520989
0002c0 00 14 b3 3d 51 6f 26 be 05 42 07 be 8a 72 86 bb
       0.08744049 -0.16253401 -0.13208778 -0.0041030096
0002d0 f8 fb 86 3c ec f1 cd 3d 84 7d 94 3c 4e 44 8f bd
       0.01647757 0.100559086 0.018126257 -0.0699545
0002e0 1a ea 80 bd 4a 0e 85 bc ef 51 07 3e 2f 8c d6 bd
       -0.06294651 -0.016242165 0.13214849 -0.10475957
0002f0 da ad 48 bc 14 ec e8 bd fe b6 f3 bd c0 9b 82 bd
       -0.012248481 -0.11373153 -0.11900137 -0.06377363
000300 d0 d5 aa 3d f4 39 bd 3d d4 51 e1 bc b7 22 74 bd
       0.08341563 0.09239569 -0.027504839 -0.05960342
000310 22 94 5d 3c fc 90 0d bc b9 b8 50 be e2 c8 6b be
       0.013524087 -0.008640524 -0.20382966 -0.2302585
000320 02 28 36 be 40 c8 5d 3e 75 68 c0 3d bc ce 0a 3e
       -0.177887 0.2165842 0.093949236 0.13555425
000330 5d 88 17 bc 45 bd 6d 3d 75 6b c1 bb 1e ed 5b be
       -0.00924882 0.05804183 -0.0059027025 -0.21477172
000340 53 85 01 be e5 44 e5 bd 9c 40 21 be 01 e5 34 3d
       -0.12648515 -0.11194781 -0.15747303 0.044163708
000350 97 a1 9d bc 40 eb 7b bd d3 c7 52 3a 54 5d 96 bd
       -0.019242091 -0.06150365 0.00080406404 -0.0734202
000360 34 fc 96 bd 92 87 39 be b2 ec ac 3b 1f 01 ba 3c
       -0.07372323 -0.18118122 0.0052772397 0.022705613
000370 92 eb 95 bd d1 6d 5b bd ba af 48 3d 64 88 34 bd
       -0.07320322 -0.053571526 0.04899571 -0.044075385
000380 02 0b 81 ba 6b d3 92 bd 37 c2 00 be e1 7c c9 bc
       -0.00098452 -0.07169231 -0.12574087 -0.02459568
000390 cf 84 4b bd 4e a5 ed bd a4 96 a3 bd c7 44 87 bd
       -0.049687203 -0.11603795 -0.07987717 -0.06604915
0003a0 fe 5f 14 3d a7 2e e1 bc 18 af 8c bd 31 7c 60 3a
       0.036224358 -0.027488066 -0.06869334 0.0008563428
0003b0 f6 3f c7 bb 61 ac 8b 3c e4 25 23 bc 27 b1 03 3d
       -0.006080623 0.01704997 -0.009957764 0.032151368
0003c0 96 be 9b 3c 38 bb 64 3c 08 fb 80 bd 01 8e 64 be
       0.019011777 0.013960652 -0.062978804 -0.22319795
0003d0 f8 5f 4f be bd cb a3 3d 41 89 f1 bd bf 0e a3 be
       -0.20251453 0.07997844 -0.11793757 -0.31847188
0003e0 eb bf 90 bd 94 fd 89 bd 41 cc 88 be c6 72 1c be
       -0.070678554 -0.06737819 -0.26718333 -0.15278158
0003f0 67 31 8a bd 9a df b7 3d 23 bd 0d be ef cd cc 3c
       -0.06747704 0.089781955 -0.13841681 0.02500054

down3.maxpool_conv.1.double_conv.0.bias f4 [32]
000000 7e 9d 67 bd 5d 1a c8 bc e4 80 6d 3d 06 30 fe 3c
       -0.05654668 -0.024426633 0.057984248 0.031028759
000010 50 2d 0c 3d 81 52 e7 bd e7 55 a5 bd 7d ef 29 3c
       0.0342229 -0.11295033 -0.08073025 0.01037204
000020 ad 2f 0d 3e 70 80 0d be a9 2e 05 bd a9 b0 ad 3d
       0.13787718 -0.13818526 -0.0325152 0.08480961
000030 22 68 2e 3d ca 87 a4 3c 59 37 91 3c a6 cf 34 3e
       0.042579778 0.02008428 0.017726587 0.17657337
000040 99 14 20 3d 6b 9d 5e bd bf 0c 66 3d 6b b5 1b 3d
       0.039082143 -0.054349344 0.0561645 0.03801481
000050 f7 59 78 bd 51 fe 3f 3d dd 95 31 3d 6d dd c7 bc
       -0.060632672 0.046873394 0.04335581 -0.024397576
000060 f7 1f 09 be 56 90 d7 3c eb 08 2b 3e 37 de 7f bc
       -0.133911 0.026313942 0.1670262 -0.015616945
000070 da 63 00 bd 03 b0 98 3c a6 f2 1d bc 26 1e 80 3d
       -0.031345226 0.018638616 -0.009640371 0.0625575

down3.maxpool_conv.1.double_conv.1.weight f4 [32]
000000 2e 5d 6e 3f 75 95 90 3f d2 ee 84 3f 17 a8 54 3f
       0.9311093 1.1295611 1.0385382 0.83068985
000010 58 54 8d 3f aa 2a 7b 3f e3 64 75 3f 01 7d 84 3f
       1.1041365 0.98111975 0.95857066 1.0350648
000020 34 88 70 3f 42 4a 99 3f 7d 26 9d 3f 44 2b 60 3f
       0.9395783 1.1975787 1.2277371 0.8756602
000030 45 27 86 3f f8 dc 7a 3f 89 79 7d 3f c2 03 90 3f
       1.0480734 0.9799342 0.9901357 1.1251147
000040 c8 5c 76 3f e3 56 5f 3f 75 47 91 3f 69 88 9b 3f
       0.9623532 0.87241954 1.1349932 1.2151004
000050 2a e4 67 3f 11 58 8f 3f 9d c0 48 3f 50 03 8e 3f
       0.90582526 1.1198751 0.78418905 1.1094761
000060 13 f8 89 3f 38 a3 84 3f 11 38 82 3f cc 0d 71 3f
       1.0778831 1.036231 1.017336 0.9416168
000070 0f 9d 71 3f d9 6e 70 3f cd 97 84 3f a9 98 65 3f
       0.9438028 0.9391914 1.0358826 0.89686066

down3.maxpool_conv.1.double_conv.1.bias f4 [32]
000000 d0 66 76 bd 01 05 ec 3c 5b fa 1b 3d 87 e1 a7 bd
       -0.060156643 0.02881098 0.038080554 -0.08197313
000010 9b 28 3f bd 9e 54 43 be 7b dd 31 3c 0a 28 30 3d
       -0.046669584 -0.19075248 0.010856028 0.043006934
000020 f7 9d f3 bd da 39 28 3e 0b af d2 3d 2d 57 f8 bd
       -0.11895364 0.16428319 0.10287293 -0.121260025
000030 89 d7 2d 3b dd 3d 70 bd 4b 40 1b be 01 70 e7 bd
       0.0026526174 -0.058652747 -0.15161245 -0.1130066
000040 dc 24 e4 3d a9 24 cb 3b a4 f1 09 bd 81 14 c5 3c
       0.11139843 0.0061994386 -0.033677712 0.024057629
000050 8f 29 21 be 9c 6a 12 bd 4b b4 5f be e9 2c 0d 3e
       -0.1573851 -0.035746202 -0.2184612 0.13786663
000060 d5 5a 95 3d b7 53 88 3d 77 81 8c 3b 1c e9 eb bd
       0.072927155 0.06656592 0.0042878943 -0.115190715
000070 5d ae 95 be f4 e7 38 be c8 f4 ca bd 19 77 e1 bd
       -0.2923459 -0.18057233 -0.099099696 -0.11009044
