python3/iconfuv/data/unet_c4_v1.pth (torch_old, 28923 bytes, 35 tensors)

conv1.weight f4 [4, 1, 3, 3]
0	0xbe78da76	-0.24302086
1	0x3ef7190a	0.4826129
2	0xbeeb0f95	-0.45910326
3	0xbe897841	-0.2684956
4	0x3ca49425	0.020090172
5	0xbc49d9f1	-0.012320028
6	0xbe97c680	-0.2964363
7	0xbe004953	-0.12527971
8	0x3ec342dc	0.38136947
9	0x3ea5129e	0.32240766
10	0x3eb8d0fc	0.36096942
11	0xbd44af45	-0.048018713
12	0xbef43b90	-0.47701693
13	0xbd30b826	-0.043144368
14	0x3f2938ff	0.66102594
15	0x3cf1f371	0.029535027
16	0xbd5d2c97	-0.053997602
17	0xbc536416	-0.01290228
18	0xbef2fc74	-0.4745823
19	0xbe0f59be	-0.13999078
20	0x3eb7389e	0.35785383
21	0xbe17c377	-0.14820658
22	0x3e8babcf	0.27279517
23	0x3e8f553e	0.27994722
24	0x3e564992	0.20926502
25	0x3e1440b9	0.14477815
26	0xbf07d3b2	-0.53057396
27	0xbeab2859	-0.3342922
28	0xbda3c9ef	-0.079975
29	0xbe6bf928	-0.23044264
30	0xbd828551	-0.06373084
31	0xbe714814	-0.23562652
32	0x3cd1fcad	0.02563318
33	0xbdf7c43d	-0.12097976
34	0xbd03580a	-0.032066382
35	0xbebf4e90	-0.37364626

conv1.bias f4 [4]
0	0x3efb6ed7	0.49108002
1	0x3f071c83	0.5277788
2	0x3ea6e54a	0.3259681
3	0x3f01a05c	0.50635314

batch1.weight f4 [4]
0	0x3f3665db	0.7124917
1	0x3f8bb37e	1.0914152
2	0x3f5b1ef5	0.8559411
3	0x3f721795	0.94567233

batch1.bias f4 [4]
0	0xbc79be20	-0.015243083
1	0xbd176875	-0.036964852
2	0xbef6f807	-0.48236105
3	0xbd6c0148	-0.05761841

batch1.running_mean f4 [4]
0	0x3f0eede0	0.5583172
1	0x42543c58	53.05893
2	0x404e1509	3.220034
3	0x3e573a02	0.21018222

batch1.running_var f4 [4]
0	0x42881f63	68.0613
1	0x449100f0	1160.0293
2	0x43b6d743	365.68173
3	0x3deb7b64	0.11498144

conv2.weight f4 [8, 4, 3, 3]
0	0x3d65c255	0.056093533
1	0xbdc7aabd	-0.097493626
2	0xbc9d97ef	-0.019237487
3	0x3e05f126	0.13080272
4	0xbd913bf1	-0.07091511
5	0x3e3990c2	0.18121627
6	0xbe040b1f	-0.12894867
7	0x3c0df632	0.008664655
8	0x3eaa29ec	0.3323511
9	0xbd996ec7	-0.07491832
10	0x3d5f37af	0.054496463
11	0xbe4db361	-0.20087959
12	0xbe007acb	-0.12546842
13	0x3e4fa3d5	0.2027734
14	0x3e9bfba7	0.30465433
15	0x3cafa133	0.02143917
16	0xbeaf3f97	-0.34228203
17	0xbe33fd6d	-0.17577143
18	0xbdd98e8f	-0.10622894
19	0x3e8137c2	0.25237852
20	0x3e01acd0	0.12663579
21	0x3d63f099	0.055649374
22	0x3e8d4ad4	0.27596152
23	0xbde6a1dc	-0.11261341
24	0xbc36e2d4	-0.0111624785
25	0xbe297e06	-0.1655198
26	0xbd9d9048	-0.07693535
27	0x3d2fbf03	0.042906772
28	0xbe43acd0	-0.19108891
29	0xbd13da77	-0.036097016
30	0xbcf27baf	-0.029599993
31	0xbe98e12f	-0.298593
32	0xbdb778c1	-0.08958579
33	0xbe525232	-0.20539168
34	0x3db48c70	0.08815849
35	0x3e16be99	0.14721145
36	0x3e15e946	0.14639768
37	0x3d221d82	0.039578922
38	0x3d84d95b	0.0648677
39	0x3e9ed152	0.31019074
40	0x3e2ab415	0.16670258
41	0x3d46b320	0.04851067
42	0x3e7954a7	0.24348699
43	0xbcb8e3c8	-0.022569552
44	0xbe0f92aa	-0.14020792
45	0x3bfd38e4	0.007727729
46	0x3ee57177	0.4481313
47	0xbcc22da7	-0.02370341
48	0x3dc71a73	0.09721842
49	0x3e14af99	0.1452011
50	0x3bccb6d3	0.0062473803
51	0x3d17d78a	0.03707079
52	0x3e5b6dc0	0.21428585
53	0xbd450df4	-0.04810901
54	0x3e9d0746	0.30669612
55	0x3e51dc38	0.20494163
56	0xbc8dff31	-0.017333599
57	0x3d7d2a5b	0.06180797
58	0x3e4a59dd	0.19760843
59	0x3d5cf3a7	0.053943302
60	0x3db44aec	0.08803353
61	0x3e3f7766	0.1869789
62	0xbd4bfc7b	-0.04980133
63	0x3e2c592e	0.16830894
64	0x3e10387c	0.14084047
65	0xbebcc8c2	-0.36871916
66	0x3e21a252	0.15784577
67	0x3d3a231e	0.045443647
68	0x3e14131d	0.14460416
69	0x3e0358ad	0.12826796
70	0xbe0bb8da	-0.13644734
71	0xbe580ec1	-0.21099378
72	0xbe1f7bf3	-0.15574627
73	0x3e1c4170	0.15259337
74	0xbe09c357	-0.13453422
75	0x3e51cac9	0.20487513
76	0x3c13ac1c	0.009013202
77	0x3e1208c4	0.14261156
78	0xbd0772dd	-0.033068527
79	0x3d0de4bc	0.034641966
80	0xbf078556	-0.5293783
81	0x3ebfe318	0.37477946
82	0xbdb009c0	-0.0859561
83	0x3e9b6d32	0.30356747
84	0xbd7647d3	-0.06012709
85	0xbd34f22b	-0.044176262
86	0x3d613117	0.054978456
87	0x3e0ece68	0.13945925
88	0x3d9c1cbb	0.076226674
89	0xbc92e229	-0.017930107
90	0x3d9a863a	0.07545133
91	0xbc40806a	-0.011749366
92	0xbd8f4a2b	-0.06996568
93	0xbcb8cdc9	-0.022559064
94	0x3e511894	0.20419532
95	0xbe090c83	-0.13383679
96	0xbd9e975f	-0.077437155
97	0xbe10849c	-0.14113086
98	0xbe293075	-0.16522391
99	0x3e426828	0.18985045
100	0x3e42f703	0.1903954
101	0x3de8a114	0.11358848
102	0xbe3ae870	-0.1825273
103	0xbdb7e411	-0.08979047
104	0xbd4c99c7	-0.04995134
105	0xbd25c18a	-0.040467776
106	0x3d9f1af2	0.07768811
107	0x3eb28582	0.34867483
108	0xbe386331	-0.18006589
109	0x3df1ad81	0.11800671
110	0xbca2a27b	-0.019852867
111	0xbe219673	-0.15780048
112	0xbecd5a66	-0.4010803
113	0xbe236220	-0.159554
114	0x3dd948b4	0.1060957
115	0xbd0de3a1	-0.034640912
116	0x3dec7c32	0.11547126
117	0xbdd85cc1	-0.105645664
118	0xbd84fac8	-0.06493145
119	0x3c9bbf1a	0.019012023
120	0x3e5bf175	0.21478827
121	0x3cdb56a9	0.026774721
122	0x3ddb0603	0.10694506
123	0x3d4ceda1	0.050031308
124	0xbd4cc081	-0.049988274
125	0xbd0baa9a	-0.034098245
126	0xbdfe50b9	-0.124177404
127	0x3dc2a02f	0.09503209
128	0xbe406732	-0.18789366
129	0xbdbbc0d8	-0.091676414
130	0x3d2a6cb8	0.04160759
131	0xbe9db3dc	-0.30801284
132	0x3c86e31f	0.016465722
133	0xbe199e76	-0.15001854
134	0xbe25b19e	-0.16181037
135	0x3e7f9cc8	0.24962151
136	0xbcc2b53e	-0.023768064
137	0xbe271dbe	-0.1631994
138	0xbee76fe9	-0.45202568
139	0xbec93c25	-0.393037
140	0xbe6001d0	-0.21875691
141	0xbea9a601	-0.33134463
142	0x3e10cf6e	0.14141628
143	0xbe0d2d21	-0.13786747
144	0xbd41b176	-0.04728838
145	0xbe092a24	-0.13394982
146	0xbdbb95ff	-0.09159469
147	0x3df6a9fc	0.12044141
148	0xbcb75460	-0.0223791
149	0x3c4cd2ff	0.012501477
150	0x3e0029ad	0.12515898
151	0x3db099a4	0.086230546
152	0x3c8974d5	0.016779343
153	0xbeea995a	-0.45820123
154	0xbe0a9cd5	-0.13536389
155	0x3d48de0e	0.049039893
156	0xbdb9da85	-0.090748824
157	0xbeaa2080	-0.3322792
158	0xbde0a209	-0.10968406
159	0x3e54e959	0.2079214
160	0x3e63bfbd	0.22241111
161	0xbececb3a	-0.40389425
162	0xbe4e6a29	-0.20157684
163	0xbe9942fd	-0.2993392
164	0x3d159c2b	0.036525887
165	0xbe5c0431	-0.21485974
166	0xbdbc17e4	-0.09184244
167	0x3eabfd1c	0.33591545
168	0x3d88955c	0.06669113
169	0x3e2c4eb9	0.16826905
170	0x3e36bf04	0.17846304
171	0x3def955d	0.11698411
172	0xbe24e292	-0.16102055
173	0xbd8b14d4	-0.06791082
174	0x3b9f1105	0.004854324
175	0x3ce8899a	0.028385926
176	0xbea28bbe	-0.3174724
177	0xbe0c7800	-0.13717651
178	0x3ce981f1	0.028504344
179	0x3e3341bc	0.17505544
180	0x3dc5a4b6	0.09650557
181	0x3dc4a3f9	0.09601588
182	0xbede80b7	-0.43457577
183	0xbd9f7dd3	-0.07787671
184	0xbc61e53b	-0.013787563
185	0x3ccc7ccc	0.024961852
186	0x3d49e16d	0.04928725
187	0xbe4995d1	-0.19686057
188	0x3dfe2f44	0.12411359
189	0x3e973bcb	0.29537806
190	0xbde40335	-0.11133424
191	0xbe26afb8	-0.16277969
192	0xbe2213a9	-0.15827812
193	0x3e0b9690	0.13631654
194	0x3e40bc28	0.18821776
195	0xbe886c00	-0.26644897
196	0x3d9e4b0d	0.077291586
197	0x3c68cc5b	0.014208878
198	0xbc46b2ed	-0.01212762
199	0xbdaa507f	-0.08316135
200	0xbe0d0b37	-0.1377381
201	0xbe000fa7	-0.12505971
202	0xbe4fd2f6	-0.20295319
203	0xbcfc0d69	-0.030768113
204	0xbe9a1eb3	-0.30101547
205	0xbd3e98fe	-0.046532623
206	0x3e95f07f	0.29285046
207	0x3ca728e5	0.020405242
208	0xbdde4d58	-0.10854596
209	0x3ea553fd	0.3229064
210	0xbcfb33f1	-0.030664416
211	0x3e541f5b	0.20715086
212	0xbdb32ec1	-0.08749152
213	0x3d7cd855	0.061729748
214	0x3de9dcf7	0.11419099
215	0xbe286332	-0.1644409
216	0xbe2ceed4	-0.1688798
217	0xbe4fd333	-0.2029541
218	0x3e4ca3e5	0.19984396
219	0xbd787b44	-0.06066443
220	0xbd7c6447	-0.06161907
221	0x3d5d139f	0.05397379
222	0xbdef9990	-0.116992116
223	0xbe94b55f	-0.29044625
224	0xbd82d6db	-0.06388637
225	0x3e211a6c	0.15732735
226	0x3e27f9f9	0.16403951
227	0xbeb1a572	-0.34696537
228	0xbe57b130	-0.21063685
229	0x3dd9d68b	0.10636624
230	0x3dec7473	0.115456484
231	0xbe1f115f	-0.1553397
232	0xbd2c1e2f	-0.042020973
233	0x3e2426cc	0.16030425
234	0x3dc9477d	0.098280884
235	0xbd8824c6	-0.06647639
236	0xbeac840c	-0.33694494
237	0xbe7e76ed	-0.24850054
238	0xbb86345a	-0.0040955963
239	0xbdfa38df	-0.122178786
240	0xbdf3ac25	-0.11898068
241	0xbd2f478e	-0.04279285
242	0xbdd56add	-0.10420773
243	0xbe345504	-0.17610556
244	0xbd8cc8eb	-0.068742596
245	0x3e18a942	0.14908317
246	0x3e898f3b	0.2686709
247	0x3dba49ee	0.09096132
248	0xbeb25f85	-0.348385
249	0x3e2da526	0.1695753
250	0x3d8af48a	0.067849234
251	0xbddad511	-0.106851704
252	0xbddd8e87	-0.108182006
253	0xba813a54	-0.0009859302
254	0x3c05ce94	0.008166928
255	0xbdf2c0aa	-0.11853154

conv2.bias f4 [8]
0	0x3edc30df	0.43006036
1	0x3d337f02	0.043822296
2	0x3ddc98a0	0.107712984
3	0x3e5dadde	0.21648356
4	0x3e4567a5	0.19277819
5	0xbd9ca139	-0.07647938
6	0x3e8ad3c3	0.27114686
7	0x3e9cf079	0.30652216

batch2.weight f4 [8]
0	0x3f8317d5	1.0241648
1	0x3f5eb2c3	0.8699152
2	0x3f537d00	0.8261261
3	0x3f5ed71d	0.87046987
4	0x3f82e844	1.0227132
5	0x3f6970d7	0.91187805
6	0x3f77daeb	0.9681842
7	0x3f69de05	0.913544

batch2.bias f4 [8]
0	0x3d208c3a	0.03919623
1	0xbda55d9d	-0.08074496
2	0x3de7aa33	0.1131176
3	0x3e76db4f	0.24107097
4	0xbed2db4a	-0.4118293
5	0xbe579ae6	-0.21055183
6	0xbe1bf3df	-0.15229748
7	0xbed7ec8a	-0.42172652

batch2.running_mean f4 [8]
0	0x3eea2f6b	0.45739302
1	0x3f4acc5c	0.7921808
2	0x3ef34c65	0.47519222
3	0x3f1b4c66	0.6066345
4	0x3e9f8364	0.3115493
5	0x3e42cecf	0.19024204
6	0x3eead31a	0.45864183
7	0x3f8b8fa0	1.0903206

batch2.running_var f4 [8]
0	0x3f08b783	0.53405017
1	0x40756caa	3.8347573
2	0x3f04d2eb	0.51884335
3	0x3e85cd05	0.2613298
4	0x3ea75e26	0.32689017
5	0x3e2f7dd5	0.17137845
6	0x3e013554	0.12618
7	0x4020360e	2.5032992

conv3.weight f4 [16, 8, 3, 3]
0	0xbdcdf84e	-0.10057126
1	0xbcdd145d	-0.026987249
2	0x3d489483	0.048969757
3	0xbc848dcf	-0.0161809
4	0x3dc2271f	0.09480118
5	0xbd00e56d	-0.031468797
6	0x3de96773	0.113966845
7	0xbd880bee	-0.066429004
8	0x3b350932	0.002762389
9	0x3babe31d	0.00524558
10	0x3dcf5efb	0.10125538
11	0x3ddf2e0d	0.10897455
12	0xbb9ba022	-0.004749314
13	0x3ded4cd5	0.1158692
14	0xbcf1e2ec	-0.02952715
15	0x3e28cbfc	0.16484064
16	0xbe6da3d4	-0.23207027
17	0xbe6c4c55	-0.23075993
18	0x3e1d8dc7	0.15386115
19	0xbd51708a	-0.051132716
20	0x3e2ece7c	0.17070955
21	0xbbcf9096	-0.0063343747
22	0xbe0226a4	-0.12710053
23	0xbd364f40	-0.044509172
24	0xbc6239a1	-0.013807685
25	0x3e2ec4de	0.17067286
26	0xbdfaa1d2	-0.12237896
27	0xbd50e5cf	-0.051000413
28	0x3e04d544	0.1297198
29	0x3da3457a	0.07972236
30	0x3e3e7d61	0.18602516
31	0x3e380738	0.17971504
32	0xbd0ef71c	-0.03490363
33	0x3e7efc4a	0.24900928
34	0x3ceb1058	0.028694317
35	0xbda563d4	-0.08075681
36	0x3dc1fc08	0.09471899
37	0x3df4062e	0.11915241
38	0xbd544c51	-0.051830593
39	0x3dcf7c77	0.10131162
40	0x3dc70013	0.09716811
41	0xbe7443e3	-0.23854022
42	0xbbf7399b	-0.007544709
43	0xbd46bd3c	-0.04852031
44	0x3d9c71e0	0.076389074
45	0x3e2feb98	0.17179716
46	0xbd30fbc2	-0.043208845
47	0x3d6600f8	0.056153268
48	0xbe1aaa44	-0.15104014
49	0xbe60e7b8	-0.21963394
50	0x3c2a1278	0.01038038
51	0x3cb35710	0.0218921
52	0xbe2d6c74	-0.16935903
53	0xbcdfa56a	-0.027300555
54	0x3e13e49b	0.14442675
55	0xbd90291e	-0.070390925
56	0xbd9da4d2	-0.076974526
57	0x3deb8759	0.11500425
58	0x3d92aee2	0.071622625
59	0x3d97f840	0.07420397
60	0x3d46a0f4	0.04849334
61	0xbbdb3ab0	-0.0066903457
62	0x3da69180	0.08133221
63	0xbe1b3702	-0.15157703
64	0xbd6f3f4f	-0.058409985
65	0xbdcfa265	-0.10138396
66	0xbca08ded	-0.019598925
67	0xbf0866d7	-0.5328192
68	0x3dc87f3d	0.09789894
69	0x3de17fd3	0.11010709
70	0xbe344088	-0.17602742
71	0x3d91d179	0.07120032
72	0x3c1d43d1	0.009598688
73	0xbdfe9034	-0.12429848
74	0x3df3aae2	0.11897828
75	0x3da612b2	0.081090346
76	0x3e935d20	0.28781986
77	0x3e2310eb	0.15924422
78	0x3cd79b2c	0.026319109
79	0xbd63cf52	-0.055617638
80	0x3d4cf6cd	0.050040055
81	0xbdcf26de	-0.10114835
82	0x3dd70b1a	0.10500164
83	0x3e26fe90	0.16308045
84	0xbcbbdafb	-0.022931566
85	0x3e150eab	0.14556377
86	0x3df371a3	0.11886909
87	0xbc01b12a	-0.007915774
88	0xbb83e8c0	-0.0040255487
89	0x3d9ed44f	0.077553384
90	0xbe2579cd	-0.16159745
91	0xbd3a6af1	-0.045512144
92	0xbd927ea7	-0.07153063
93	0xbe053e71	-0.13012101
94	0x3d42d649	0.04756764
95	0xbe871ee9	-0.2639077
96	0xbe148fb6	-0.14507946
97	0xbcd80520	-0.026369631
98	0x3e1e8c76	0.15483269
99	0xbe84dbe3	-0.2594901
100	0xbd790c7d	-0.060802925
101	0x3d96f7d5	0.07371489
102	0x3caa7677	0.020808442
103	0x3c5a2d04	0.013316397
104	0x3e251a2d	0.16123267
105	0x3cc7b377	0.024377568
106	0x3e1058fd	0.14096446
107	0xbe2346a6	-0.15944919
108	0xbe4f3dda	-0.20238438
109	0xbd084069	-0.03326455
110	0xbd9b8b1a	-0.07594891
111	0xbdb814e1	-0.08988357
112	0x3e3f86e3	0.18703799
113	0xbbc54113	-0.0060197203
114	0xbdd9c8cd	-0.10634003
115	0xbe241347	-0.16022979
116	0x3e34ba39	0.17649163
117	0xbd9b8621	-0.075939424
118	0x3e15b8c0	0.14621258
119	0x3c543cc9	0.012953945
120	0xbd3349bb	-0.043771487
121	0x3df9d383	0.12198546
122	0x3d9a8d72	0.0754651
123	0xbd7517eb	-0.059837263
124	0xbd16d324	-0.036822453
125	0x3dee11fc	0.11624524
126	0xbbd95ac9	-0.006633137
127	0xbe020214	-0.12696105
128	0xbd910c93	-0.070824765
129	0xbe6539d8	-0.22385347
130	0x3e78e525	0.24306162
131	0x3c51f81b	0.012815501
132	0xbcee0727	-0.029056145
133	0x3e02e17b	0.12781326
134	0x3e1029f0	0.14078498
135	0xbdf2bcc8	-0.118524134
136	0xbd904cac	-0.07045874
137	0xbcd2ba21	-0.025723519
138	0x3d46850d	0.04846673
139	0x3e8473bd	0.2586955
140	0xbdbab6f7	-0.09116929
141	0x3e001953	0.1250966
142	0xbe10db55	-0.14146169
143	0xbd369dee	-0.044584207
144	0xbdf04942	-0.11732723
145	0xbdc88f8f	-0.09793007
146	0xbd290f1d	-0.04127418
147	0x3d39842a	0.045292057
148	0x3dbe5fba	0.09295602
149	0xbe5961fd	-0.21228786
150	0xbd93186a	-0.07182391
151	0x3f04f48a	0.51935637
152	0xbbb35428	-0.0054726787
153	0xbdbb85a7	-0.091563515
154	0x3cb9125b	0.02259176
155	0xbe4240ed	-0.1897008
156	0xbb17ac69	-0.0023143536
157	0xbe16b53f	-0.14717577
158	0x3d438d4d	0.047742177
159	0x3db07fcc	0.08618125
160	0x3d7f81bc	0.062379584
161	0xbc950ab0	-0.018193573
162	0x3c2096e6	0.009801602
163	0xbde21049	-0.110382624
164	0x3d4ac3fd	0.049503315
165	0xbd577721	-0.052603845
166	0x3e0a4ab2	0.13505057
167	0xbe66d984	-0.22543913
168	0xbd3964b1	-0.045262042
169	0x3e2930d1	0.16522528
170	0xbc2580f6	-0.010101547
171	0xbda31ca1	-0.07964445
172	0x3dc674f1	0.096902736
173	0xbd080570	-0.03320831
174	0x3e3367b1	0.17520024
175	0x3d829615	0.06376282
176	0x3e0c6f68	0.13714373
177	0x3e888150	0.26661158
178	0xbd913ed0	-0.07092059
179	0x3e0e414d	0.13892098
180	0xbd3e6cf5	-0.04649063
181	0xbe8385c6	-0.25688
182	0xbd781786	-0.06056931
183	0x3d40536c	0.046954557
184	0x3cc419b4	0.023938037
185	0xbdd5c0ea	-0.10437186
186	0x3dd9bc28	0.10631591
187	0xbbe678e0	-0.0070334524
188	0xbe4d8dd0	-0.20073628
189	0x3b736cbb	0.0037143666
190	0xbd1a0232	-0.03759975
191	0x3dab992e	0.08378826
192	0x3dca050a	0.098642424
193	0x3dbbe507	0.09174543
194	0xbd463e17	-0.048399057
195	0xbcf59f1a	-0.029983092
196	0x3dfb2467	0.122628026
197	0xbd3ce92c	-0.046120808
198	0xbe5d1e92	-0.21593693
199	0x3dbb78c1	0.09153891
200	0xbde70977	-0.11281102
201	0x3d1b68e2	0.03794182
202	0x3db0bad6	0.08629386
203	0x3e2546b1	0.16140248
204	0x3dc662ba	0.09686799
205	0x3c5ca615	0.013467331
206	0x3e2bed0a	0.16789642
207	0x3e27030d	0.16309758
208	0x3e2407f9	0.16018666
209	0x3d4b558d	0.049642134
210	0x3e6df215	0.23236878
211	0x3e12c2c6	0.14332113
212	0xbb823f95	-0.0039748647
213	0x3dd110b1	0.10208262
214	0xbe0db47a	-0.13838378
215	0x3ca13e7a	0.019683111
216	0x3e01df4b	0.12682836
217	0x3de9b2e3	0.11411073
218	0x3e0a2c1b	0.13493387
219	0x3e3fb2f9	0.18720616
220	0x3e0062c6	0.12537679
221	0xbdbe5dd4	-0.0929524
222	0x3d0046a0	0.031317353
223	0x3df86a4f	0.12129652
224	0x3de3dd35	0.11126176
225	0x3dc217f8	0.09477228
226	0xbdfdae25	-0.12386731
227	0xbe549a5b	-0.20762007
228	0x3e0cab61	0.13737251
229	0xbd6812f0	-0.056658685
230	0xb9cfc128	-0.0003962603
231	0x3d6aeb70	0.057353437
232	0x3dd53588	0.10410601
233	0xbdc87a4d	-0.09788952
234	0xbe30e576	-0.17275032
235	0xbe3292ae	-0.17438766
236	0xbd6f93fd	-0.058490742
237	0xbe0e0f6a	-0.13873067
238	0x3e6eded8	0.23327196
239	0xbe8e4e78	-0.27794242
240	0xbc5a12a9	-0.013310113
241	0x3d390833	0.045173835
242	0x3d43c9be	0.04779982
243	0x3e414e86	0.1887761
244	0x3e1e483c	0.15457243
245	0x3d88aec7	0.06673961
246	0x3e23fc9d	0.16014333
247	0xbdb80c36	-0.08986704
248	0xbde2b0cd	-0.11068878
249	0xbe01b741	-0.12667562
250	0xbcf94094	-0.030426301
251	0xbce12f52	-0.027488384
252	0x3e640258	0.22266519
253	0x3e19289b	0.14956896
254	0x3cfc755b	0.030817678
255	0x3e5d5779	0.216154

conv3.bias f4 [16]
0	0x3ee54230	0.4477706
1	0xbe3293fd	-0.17439266
2	0xbd967f6e	-0.07348524
3	0xbdc471e9	-0.09592039
4	0x3deec3c4	0.11658433
5	0x3c415907	0.011801011
6	0x3acc0b51	0.0015567337
7	0x3ecb4f93	0.39709148
8	0x3e7da59e	0.24770209
9	0x3e8f2bbe	0.2796306
10	0x3e6a2837	0.22866903
11	0x3e7ecdc7	0.24883185
12	0x3e59118e	0.21198103
13	0x3d249d74	0.04018922
14	0x3cdc3dac	0.026884876
15	0x3e6034bb	0.21895115

batch3.weight f4 [16]
0	0x3f6c2eb3	0.9225876
1	0x3f6798b6	0.90467393
2	0x3f6ec4db	0.9326913
3	0x3f5ecd8f	0.8703241
4	0x3f553878	0.8328929
5	0x3f718b69	0.9435335
6	0x3f70e56d	0.94100076
7	0x3f853fd2	1.0410101
8	0x3f7e85bf	0.9942283
9	0x3f75349e	0.9578341
10	0x3f7cf7b0	0.9881544
11	0x3f7ad82e	0.97986114
12	0x3f6f40d7	0.9345831
13	0x3f6e2d64	0.9303801
14	0x3f62c6bf	0.8858451
15	0x3f59cf93	0.8508236

batch3.bias f4 [16]
0	0xbe55f831	-0.20895459
1	0x3dc29099	0.09500236
2	0x3e304f8e	0.17217848
3	0x3db85979	0.090014406
4	0xbe51fbf1	-0.20506264
5	0xbe84bb74	-0.25924265
6	0xbe7e4f72	-0.24834993
7	0x3e728445	0.2368327
8	0x3e412c9a	0.1886467
9	0x3e25a77e	0.16177174
10	0xbdb3ae62	-0.08773495
11	0x3e5be7ca	0.2147514
12	0x3dc18848	0.09449822
13	0xbe3d0aa4	-0.1846109
14	0x3e217f8b	0.1577131
15	0x3e40faea	0.18845716

batch3.running_mean f4 [16]
0	0x3facbc9a	1.3495057
1	0x3eaf6e73	0.34263954
2	0x3f518f57	0.81859344
3	0x3f4166e0	0.755476
4	0x3e294a89	0.16532339
5	0x3f453a76	0.7704233
6	0x3f8f618c	1.1201644
7	0x3f439710	0.7640238
8	0x3eb888e1	0.3604193
9	0x3eebc620	0.46049595
10	0x3f64722c	0.8923671
11	0x3ef6eadf	0.48226067
12	0x3ea6a499	0.32547453
13	0x3f05b97d	0.5223616
14	0x3ebb2622	0.3655253
15	0x3f3d94b2	0.74055016

batch3.running_var f4 [16]
0	0x3f502306	0.8130344
1	0x3f9fede7	1.2494477
2	0x3fe5b253	1.7945045
3	0x3ffc00d1	1.9687749
4	0x3e19217b	0.14954178
5	0x3ec9cf91	0.39416173
6	0x3f8fb463	1.1226925
7	0x3f024983	0.5089342
8	0x3e596f22	0.212338
9	0x3e9790cd	0.29602662
10	0x3ed76df2	0.4207607
11	0x3e9e1d33	0.30881652
12	0x3e5bd559	0.21468104
13	0x3e9751a3	0.2955447
14	0x3e87a992	0.2649656
15	0x3ec9de62	0.39427477

conv4.weight f4 [8, 16, 3, 3]
0	0xbe121394	-0.14265281
1	0xbe1245d3	-0.14284448
2	0xbe240e5c	-0.16021103
3	0xbd5e7f3c	-0.05432056
4	0xbe592a9f	-0.21207665
5	0xbcabf1f5	-0.020989398
6	0xbd61a595	-0.055089552
7	0x3d61af21	0.055098657
8	0xbc73f74a	-0.014890501
9	0x3cf75248	0.030190602
10	0xbcfcaea9	-0.030845003
11	0x3da4f50a	0.0805455
12	0xbdc4cf89	-0.09609897
13	0x3c26432b	0.01014785
14	0x3e24c6d4	0.16091472
15	0xbe4a8fc4	-0.19781405
16	0xbdb94cd9	-0.09047861
17	0x3e57f51f	0.210896
18	0xbe1c91f2	-0.15290049
19	0xbd66af49	-0.05631951
20	0x3dc3a19e	0.095523104
21	0xbdf245d9	-0.11829729
22	0xbd64d0aa	-0.05586306
23	0xbde0bbaf	-0.10973298
24	0xbd9f2110	-0.07769978
25	0xbda0e565	-0.078562535
26	0xbdcd955f	-0.10038256
27	0x3d806e18	0.06270999
28	0x3d7f6a42	0.062357195
29	0x3ca96c8e	0.020681646
30	0x3e8282bf	0.25490376
31	0x3df7a98e	0.12092887
32	0x3d839683	0.06425192
33	0x3ddfb94a	0.10924013
34	0x3de124cc	0.109933466
35	0x3e2155bb	0.1575536
36	0x3dec9ffb	0.11553951
37	0x3cf2710b	0.029594919
38	0xbdccef1e	-0.100065455
39	0x3e2301ac	0.15918607
40	0xbaf393ab	-0.0018583437
41	0x3d618a22	0.055063374
42	0x3d4b4c11	0.04963309
43	0x39f83f09	0.0004734921
44	0x3dffeee1	0.124967344
45	0x3d3f9a63	0.046778094
46	0x3d07c49d	0.03314649
47	0x3bd27e92	0.0064237798
48	0xbd1bd50a	-0.038044967
49	0x3ddd6766	0.10810737
50	0x3bfa56e7	0.007639754
51	0xbab4472b	-0.001375412
52	0xbc971553	-0.018442785
53	0xbdd5645d	-0.104195334
54	0x3e00fa74	0.1259554
55	0xbc4a08ea	-0.012331227
56	0x3d5998f2	0.053124376
57	0xbe2b9d9d	-0.16759343
58	0x3ca7d7dd	0.020488674
59	0xbdbbe02b	-0.09173616
60	0x3d48c311	0.049014155
61	0xbe33f17f	-0.17572592
62	0xbe8e581c	-0.27801597
63	0x3cf7ccdf	0.030249057
64	0x3d632df0	0.05546373
65	0x3d6c5fbf	0.057708498
66	0x3e06a49f	0.13148735
67	0x3e0ec980	0.13944054
68	0x3e00ae98	0.12566602
69	0x3c0b8bd1	0.008517222
70	0xbbc79702	-0.0060909996
71	0x3e61867b	0.22023956
72	0x3db39509	0.087686606
73	0xbe3d9505	-0.18513878
74	0x3a8cbab2	0.0010736792
75	0x3cce231c	0.025163226
76	0xbe36462a	-0.17800203
77	0x3e4d64ff	0.20058058
78	0xbb601f2d	-0.003419827
79	0x3dd9df00	0.10638237
80	0x3cab44c7	0.020906819
81	0x3df41758	0.11918515
82	0x3c879975	0.016552666
83	0xbd245ddf	-0.040128585
84	0x3c78eb96	0.015192887
85	0x3d5ea547	0.05435684
86	0xbd0b8584	-0.034062877
87	0xbe0bb9d6	-0.1364511
88	0xbd0d180d	-0.034446765
89	0xbd1d1e13	-0.03835876
90	0xbe4c2cc1	-0.19938947
91	0xbd965ab9	-0.07341523
92	0x3cccfcf9	0.02502297
93	0xbe269a82	-0.16269878
94	0xbe1ef704	-0.15523916
95	0x3db1f24a	0.08688791
96	0x3d2457c0	0.040122747
97	0xbd10e805	-0.03537752
98	0xbd90bd4d	-0.07067356
99	0x3cc751b9	0.02433096
100	0xbde2320b	-0.11044701
101	0xbd606306	-0.054781936
102	0xbd866599	-0.06562347
103	0x3a222a2c	0.00061860937
104	0x3df09ef7	0.1174907
105	0xbda2bcda	-0.07946177
106	0x3c80bc38	0.01571475
107	0x3d855e98	0.06512183
108	0xbd3b2198	-0.045686334
109	0x3d9ab07e	0.075531945
110	0x3d2d2487	0.042271163
111	0x3d8485cf	0.064708345
112	0xbc972bfb	-0.018453589
113	0xbd03894d	-0.032113362
114	0x3d6aeb7a	0.057353474
115	0x3a7a0acd	0.00095383526
116	0xbd67f5c4	-0.056630865
117	0x3de507bd	0.111831166
118	0x3d991cb8	0.07476181
119	0x3d9b917a	0.07596107
120	0x3cb9088c	0.022587083
121	0x3c92f474	0.01793883
122	0xbc3a5962	-0.01137385
123	0x3d47aad2	0.04874689
124	0x3dc6e335	0.09711305
125	0x3c7c446e	0.015397174
126	0xbc4c11ae	-0.012455387
127	0xbe085609	-0.1331407
128	0xbc828694	-0.015933312
129	0x3da63950	0.081164
130	0xbe06b0ae	-0.13153335
131	0xbe2797db	-0.16366522
132	0xbca06c0f	-0.019582776
133	0x3e043b8d	0.12913342
134	0x3c89466b	0.01675721
135	0x3e03fc26	0.12889156
136	0xbc199c2d	-0.009375614
137	0x3d8a5e6b	0.0675629
138	0x3e546d93	0.20744924
139	0x3dbbd548	0.091715395
140	0xbdbc9be5	-0.09209422
141	0xbdd57171	-0.10422028
142	0x3db5efc9	0.08883626
143	0x3dc80008	0.09765631
144	0xbe4b277e	-0.19839284
145	0xbe0c0502	-0.13673785
146	0xbe580064	-0.21093899
147	0xbdaf4889	-0.08558757
148	0xbd335fe1	-0.04379261
149	0xbdaa14af	-0.08304726
150	0xbc483177	-0.012218825
151	0xbd59fe29	-0.0532209
152	0xbd43d03e	-0.047806017
153	0xbd6f61e2	-0.058442958
154	0x3d81dd6c	0.06341061
155	0x3d659df6	0.056058846
156	0xbd0787d1	-0.03308851
157	0xbe138828	-0.14407408
158	0x3c38eedd	0.011287418
159	0xbddd00f4	-0.107911974
160	0xbdf36d08	-0.118860304
161	0x3d5cc6fe	0.05390071
162	0xbde3dada	-0.11125727
163	0xbd7fea93	-0.062479567
164	0xbd91d083	-0.071198486
165	0xbcdbfdd1	-0.026854428
166	0xbdec4322	-0.11536242
167	0xbe04bf95	-0.12963708
168	0xbd44a0fe	-0.048005097
169	0xbdcf4830	-0.101211905
170	0xbcd2c96e	-0.025730815
171	0x3e26d6b1	0.16292836
172	0x3ddb2d47	0.10701995
173	0xbd431570	-0.047627866
174	0x3dbdb90d	0.09263811
175	0xbc9ce143	-0.019150382
176	0xbd1137bc	-0.035453543
177	0x3e7882c8	0.24268639
178	0x3e8b986e	0.27264732
179	0x3cd4eb59	0.025991129
180	0x3d20c761	0.039252643
181	0x3dccc8d3	0.09999242
182	0x3d926410	0.07147992
183	0x3e74fa22	0.23923543
184	0x3dfce76c	0.12348828
185	0x3d49f09f	0.04930174
186	0x3e0d5cbf	0.13804911
187	0x3d6a688c	0.05722861
188	0xbd7a1ab5	-0.061060626
189	0xbe2212a5	-0.15827425
190	0x3caa32a0	0.020776093
191	0xbd8c7b12	-0.06859411
192	0xbdcf0ee9	-0.10110266
193	0xbe02d40f	-0.12776206
194	0xbe6a5407	-0.22883616
195	0xbe500fe5	-0.20318563
196	0xbe09bf07	-0.13451777
197	0xbdd2eaef	-0.10298716
198	0x3c4902c9	0.01226873
199	0xbdea9266	-0.114537045
200	0xbe25274a	-0.16128269
201	0xbe430a55	-0.1904691
202	0xbe43eb67	-0.19132768
203	0xbe410670	-0.18850112
204	0xbe2b0de1	-0.16704513
205	0xbe2b29f4	-0.16715223
206	0xbe4ca780	-0.19985771
207	0xbd8d06a3	-0.068860315
208	0x3e5968bd	0.2123136
209	0x3e3346bd	0.17507453
210	0x3e14bf1c	0.14526027
211	0x3e498db7	0.19682966
212	0x3e29982d	0.16561957
213	0x3e6a6b6c	0.2289254
214	0x3e02c076	0.1276873
215	0x3e189ce6	0.14903602
216	0xbccf2edd	-0.0252909
217	0xbcd6eb3c	-0.026235215
218	0x3d0b04d0	0.033940136
219	0x3a32e751	0.000682463
220	0x3dd96d0b	0.106165014
221	0xbcbdd111	-0.02317098
222	0x3b8b4e08	0.0042512454
223	0x3cb9f567	0.022700025
224	0xbcfe092c	-0.031010233
225	0x3d834d94	0.06411281
226	0x3d8d90cd	0.06912384
227	0x3bc38904	0.0059672613
228	0x3e5149bd	0.20438285
229	0xbcc873ed	-0.02446934
230	0xbccf75f0	-0.025324792
231	0xbbb4c787	-0.0055169496
232	0x3d421c4f	0.04739028
233	0xbcb72aa5	-0.022359202
234	0xbe381e70	-0.17980361
235	0x3b4a31d3	0.0030852451
236	0xbd4504de	-0.048100345
237	0xbccd4e20	-0.025061667
238	0xbd9479b8	-0.072497785
239	0x3ca34a96	0.019933026
240	0xb985a426	-0.00025490037
241	0x3b16b04c	0.0022993265
242	0xbcbad932	-0.022808645
243	0xbe15b443	-0.14619546
244	0xbd9685ad	-0.073497154
245	0x3d2cba2c	0.042169735
246	0xbc9520de	-0.018204149
247	0xbd5f492c	-0.05451314
248	0x3e0270ae	0.12738296
249	0x3d2767ee	0.0408706
250	0xbd5b8562	-0.053594
251	0xbdfc2099	-0.12310905
252	0x3d6834ef	0.056691106
253	0x3db89042	0.0901189
254	0x3d0b01f8	0.033937424
255	0x3d15bdf3	0.036558103

conv4.bias f4 [8]
0	0xbda9da58	-0.08293599
1	0xbe0ff4cb	-0.14058225
2	0x3c3a0216	0.011353036
3	0xbc83d363	-0.016092008
4	0xbe0ad31c	-0.13557094
5	0x3ddd41dd	0.10803578
6	0xbec2eb1a	-0.38069993
7	0xbe01dfbf	-0.12683009

batch4.weight f4 [8]
0	0x3f662041	0.89892966
1	0x3f71c636	0.9444307
2	0x3f6d1626	0.9261192
3	0x3f797ff6	0.9746088
4	0x3f6d7154	0.9275105
5	0x3f874c36	1.0570133
6	0x3f7a39ed	0.9774464
7	0x3f6cc49d	0.9248751

batch4.bias f4 [8]
0	0xbe8cb7eb	-0.27484068
1	0xbe94c449	-0.29056004
2	0xbe892764	-0.26787865
3	0xbe941103	-0.2891923
4	0xbe88340a	-0.26602203
5	0x3e7ef8bc	0.24899572
6	0x3eb0e437	0.34549114
7	0xbe3aa76b	-0.18227927

batch4.running_mean f4 [8]
0	0x3dfc6b06	0.123251006
1	0x3e08da8e	0.13364622
2	0x3edefcb6	0.43552178
3	0x3e6f2a34	0.23355943
4	0x3daed435	0.08536569
5	0x3e5050f8	0.20343387
6	0x3d8ef622	0.0698054
7	0x3d95b5af	0.07310044

batch4.running_var f4 [8]
0	0x3ed763f2	0.4206844
1	0x3f049b27	0.51799244
2	0x3e919dc3	0.28440675
3	0x3e2de07d	0.16980167
4	0x3e3df51b	0.18550532
5	0x3e72444d	0.23658867
6	0x3e9a00af	0.30078647
7	0x3d8f8bbe	0.070090756

conv5.weight f4 [4, 8, 3, 3]
0	0x3e38a0d9	0.18030109
1	0x3e093923	0.13400702
2	0x3e43ff46	0.19140348
3	0x3e475f99	0.19470061
4	0x3e979c4f	0.29611441
5	0x3e3dc9a5	0.18533953
6	0x3dfb6578	0.12275213
7	0x3e845eed	0.25853673
8	0x3e0990ef	0.13434194
9	0xbdf4f6d4	-0.11961141
10	0x3d220a63	0.039560687
11	0x3cd32cdd	0.025778228
12	0xbc00f4a2	-0.007870825
13	0x3e35ab80	0.17741203
14	0x3e3e5eae	0.18590805
15	0xbddbb54c	-0.10727939
16	0x3e030b43	0.12797265
17	0x3e789657	0.242761
18	0x3e77cd3b	0.24199383
19	0x3e82ad70	0.25522947
20	0x3e25fe54	0.162103
21	0x3dbb15f2	0.09135045
22	0x3e900842	0.281313
23	0x3e0e443c	0.13893217
24	0x3e19ccd4	0.15019542
25	0x3d421c1f	0.0473901
26	0x3dc391ee	0.09549318
27	0x3e0c55d3	0.13704614
28	0x3cf09c7e	0.029371496
29	0x3d5c3e87	0.05377057
30	0xbcccec25	-0.025014946
31	0x3e130cb1	0.1436031
32	0x3d68b081	0.056808952
33	0x3d086bed	0.03330605
34	0x3b79cf3a	0.0038117901
35	0xbcfb5453	-0.030679857
36	0xbccfa168	-0.02534552
37	0xbc418489	-0.011811384
38	0xbe0522b7	-0.13001524
39	0x3cd64e53	0.026160395
40	0x3ca3af75	0.019981125
41	0xbd7b09eb	-0.061288755
42	0xbe916582	-0.28397757
43	0xbca36f7f	-0.019950626
44	0x3d264be4	0.04059972
45	0x3cb5fe02	0.022215847
46	0x3d825615	0.06364075
47	0xbe56e1f9	-0.20984639
48	0x3c458d25	0.012057577
49	0x3cf52b8c	0.029927991
50	0xbdbb395d	-0.091418006
51	0xbc9306ac	-0.017947517
52	0xbb57a092	-0.0032902104
53	0xbc948250	-0.018128544
54	0xbdbbeed8	-0.09176415
55	0x3d02fa66	0.03197708
56	0x3e03bb58	0.12864435
57	0x3b872bd3	0.0041250973
58	0x3cf42b57	0.029805822
59	0xbb46c112	-0.0030327481
60	0x3d826896	0.063676044
61	0x3d8ec4f1	0.06971157
62	0xbce2b2b6	-0.027673107
63	0xbda15585	-0.0787764
64	0xbe394155	-0.18091328
65	0xbc180c6c	-0.009280305
66	0x3d51cf08	0.05122283
67	0xbe01c091	-0.12671115
68	0xbe0a05ca	-0.13478771
69	0x3e02cba0	0.1277299
70	0x3d9587bd	0.07301281
71	0xbe0d9e0b	-0.1382982
72	0x3e338e99	0.17534865
73	0xbd42482c	-0.04743211
74	0x3e3a6d1b	0.18205683
75	0x3e67ae52	0.22625092
76	0x3e5f85a6	0.21828327
77	0x3e04711c	0.12933773
78	0x3b82c886	0.0039911894
79	0x3e567cd3	0.20946054
80	0x3e000f63	0.1250587
81	0xbda284bc	-0.07935473
82	0xbc63123d	-0.013859329
83	0x3c12a48f	0.008950367
84	0x3e9043ba	0.2817667
85	0x3dcb2394	0.09918895
86	0x3cd7899e	0.026310738
87	0x3e8c7b44	0.27437794
88	0x3deb6cd8	0.1149537
89	0x3d49909a	0.04921017
90	0x3e059bf6	0.13047776
91	0xbc9b7c25	-0.018980095
92	0xbd733ee8	-0.059386164
93	0x3ea54b54	0.32284033
94	0xbcf3146f	-0.02967283
95	0xbdb142f9	-0.08655352
96	0x3d240ca5	0.04005112
97	0x3d87a448	0.06623131
98	0xbd350b8a	-0.044200458
99	0x3e123534	0.14278108
100	0x3ce851d3	0.02835933
101	0xbdc0090c	-0.093767256
102	0xbccc9208	-0.024971977
103	0xbd5c4489	-0.053776298
104	0xbdf716af	-0.120648734
105	0xbdc015e7	-0.093791775
106	0x3d20da7f	0.039270874
107	0xbdd2bc92	-0.10289873
108	0xbd2a4382	-0.041568287
109	0xbeb48c7d	-0.35263434
110	0xbd47bcac	-0.048763916
111	0x3e24261a	0.1603016
112	0x3d8e1bfa	0.0693893
113	0xbdc8e253	-0.09808793
114	0xbdbec79f	-0.093154185
115	0x3d76b97d	0.06023549
116	0xbd86b9c4	-0.06578401
117	0x3c85a9bc	0.016316287
118	0xbd39dcf6	-0.04537674
119	0xbd88f4e4	-0.06687334
120	0x3e3b2bb5	0.18278392
121	0xbdd92227	-0.10602217
122	0xbe61eca8	-0.22062933
123	0xbd8581a8	-0.065188706
124	0x3e059c94	0.13048011
125	0x3d66a3c5	0.056308527
126	0xbd54b71d	-0.051932443
127	0x3e38814f	0.18018077
128	0x3de4a77b	0.11164757
129	0x3dbfdd26	0.093683526
130	0x3d02cda3	0.03193439
131	0xbd6c7b90	-0.057735026
132	0x3df20b9a	0.11818619
133	0xbe5d43dc	-0.21607918
134	0xbe4835a5	-0.19551714
135	0x3c5e0ff0	0.0135536045
136	0x3c8d59e8	0.017254785
137	0xbd9c79b4	-0.076404005
138	0xbe06bf0e	-0.13158819
139	0xbdb47825	-0.08811978
140	0xbdc60881	-0.09669591
141	0xbda88095	-0.0822765
142	0xbd6dcd06	-0.058056854
143	0xbc8d94de	-0.0172829
144	0x3d9e0d81	0.077174194
145	0x3d99ab21	0.075033434
146	0xbddc2c06	-0.10750584
147	0x3d6d8b52	0.057994194
148	0xbdbda577	-0.092600755
149	0xbcbcbfed	-0.023040736
150	0x3d37f757	0.044913616
151	0x3cba9b78	0.022779211
152	0xbda78d60	-0.08181262
153	0x3d9b9309	0.07596404
154	0x3d8f3eb1	0.06994379
155	0x3d709f34	0.058745578
156	0x3ca6077f	0.020267246
157	0x3e8c8217	0.27443
158	0x3d276935	0.040871818
159	0x3e5f7f5f	0.21825932
160	0x3b1b6d31	0.0023716206
161	0x3c5abe0b	0.013350974
162	0xbe49611e	-0.19665954
163	0xbe0de3ca	-0.13856426
164	0x3dc1e49e	0.094674334
165	0xbe639703	-0.22225575
166	0xbe009585	-0.12557037
167	0x3d9f3e60	0.07775569
168	0x3e24f472	0.16108873
169	0xbb6b28ea	-0.003588254
170	0x3d360e0e	0.044446997
171	0xbb77cdbf	-0.0037811843
172	0xbda45e4f	-0.080258004
173	0xbd831274	-0.06400004
174	0x3ca696eb	0.020335635
175	0xbcf3f390	-0.029779226
176	0x3c922f61	0.017844858
177	0xbd9778e2	-0.073961034
178	0xbe03fb18	-0.12888753
179	0x3d9c1b18	0.07622355
180	0xbbaedddc	-0.0053365063
181	0x3d9b2a88	0.075764716
182	0xbd3b7681	-0.04576731
183	0x3be102eb	0.006866803
184	0x3e8f9289	0.28041485
185	0x3d42c2f3	0.0475492
186	0xbcbd2779	-0.023090111
187	0xbbf54af0	-0.00748574
188	0xbe234f7c	-0.1594829
189	0xbdaf03d3	-0.08545651
190	0xbd85fd13	-0.06542411
191	0x3d9b8c6e	0.07595144
192	0xbe458768	-0.19289935
193	0xbe722f5e	-0.23650882
194	0xbbac9786	-0.0052670864
195	0xbde6b245	-0.11264471
196	0xbdd22b9c	-0.10262224
197	0xbdce47e9	-0.100723095
198	0xbe5821fd	-0.21106716
199	0xbd86d637	-0.06583827
200	0xbe3bb29b	-0.18329851
201	0xbde49d07	-0.11162763
202	0xbcbb73de	-0.022882398
203	0xbca1e8f0	-0.019764394
204	0xbea2cfca	-0.31799155
205	0xbd3965d2	-0.04526312
206	0xbda113b8	-0.07865089
207	0x3d83503a	0.064117864
208	0xbcb3f815	-0.02196888
209	0x3bc18560	0.005905792
210	0x3e27dc65	0.16392668
211	0x3cef486e	0.029209342
212	0x3c8969dd	0.016774112
213	0x3da25e95	0.07928196
214	0x3da1d40e	0.07901774
215	0x3c57cb07	0.013170964
216	0x3d3c76db	0.046011787
217	0xbd133adf	-0.035944816
218	0xbd9d4a52	-0.07680191
219	0xbdd88b73	-0.10573473
220	0xbd9ee996	-0.07759397
221	0xbe2b1a79	-0.16709317
222	0x3deaa864	0.11457899
223	0xbdf41586	-0.11918168
224	0x3c253603	0.010083678
225	0xbc3957b9	-0.011312419
226	0x3d5452f7	0.051836934
227	0xbd77404e	-0.06036406
228	0xbd9f396d	-0.07774625
229	0xbe6cae13	-0.23113279
230	0xbe3e3f96	-0.18578944
231	0xbeaf2a85	-0.34212127
232	0xbea2e301	-0.31813815
233	0xbe22a0e5	-0.15881689
234	0xbd81995a	-0.063280776
235	0xbe45c2fd	-0.19312663
236	0xbdebd4a3	-0.115151666
237	0xbd84b228	-0.06479293
238	0xbe91150c	-0.2833637
239	0xbdf80143	-0.12109616
240	0xbdfa7f0e	-0.12231265
241	0xbdbc40ca	-0.09192045
242	0x3bc8772b	0.0061177216
243	0x3e0625a0	0.1310029
244	0x3e2c31f4	0.1681593
245	0x3e4975ca	0.19673839
246	0x3e9f47bb	0.31109414
247	0x3e92c5d8	0.28666568
248	0x3eaab12e	0.33338302
249	0x3e88e142	0.26734358
250	0x3e02aff9	0.1276244
251	0x3d8e5ee3	0.06951692
252	0x3d631c97	0.055447187
253	0x3d3d0721	0.046149377
254	0x3cc14ee2	0.023597185
255	0xbc495596	-0.012288472

conv5.bias f4 [4]
0	0xbec914cf	-0.39273688
1	0xbe208d3e	-0.1567888
2	0x3f299e08	0.6625676
3	0x3f183f99	0.5947204

batch5.weight f4 [4]
0	0x3fc40049	1.5312587
1	0x3f5f7629	0.87289673
2	0x3f4dc940	0.8038521
3	0x3f1fd947	0.62440914

batch5.bias f4 [4]
0	0x3e0eccf8	0.13945377
1	0x3e328aff	0.17435835
2	0xbeb17e0c	-0.3466648
3	0xbe759985	-0.23984344

batch5.running_mean f4 [4]
0	0x3bc07e58	0.0058744363
1	0x3d138f04	0.036025062
2	0x3f868f19	1.051242
3	0x4025124e	2.5792422

batch5.running_var f4 [4]
0	0x3c331ec2	0.010932626
1	0x3e1f8e46	0.15581617
2	0x3f579770	0.8421545
3	0x3f98c034	1.1933656

conv6.weight f4 [1, 4, 3, 3]
0	0xbcd8c78b	-0.026462337
1	0xbca7ef08	-0.020499721
2	0xbbdb0a84	-0.006684603
3	0x3f683965	0.9071258
4	0x3f20e096	0.6284269
5	0xbbf83fcf	-0.007575966
6	0xbd45bb55	-0.048274357
7	0xbcc13e24	-0.023589201
8	0xbb6f4416	-0.0036509088
9	0x3ba1a188	0.004932586
10	0x3e07644a	0.13221851
11	0x3d84590a	0.06462295
12	0x3d804ad5	0.06264273
13	0x3ec86e98	0.39146876
14	0x3ea875e2	0.32902437
15	0x3c574191	0.013138191
16	0x3e4c5c79	0.1995715
17	0x3db4edf5	0.08834449
18	0x3cb7772e	0.022395696
19	0xbd0656ea	-0.03279773
20	0xbd262819	-0.040565584
21	0xbd8cabd4	-0.06868711
22	0xbd6f2efa	-0.05839441
23	0xbd122314	-0.035677984
24	0xbcb657dd	-0.022258693
25	0xbd99169c	-0.074750155
26	0xbd17df95	-0.03707846
27	0xbe311c7e	-0.17296025
28	0x3c2b5db7	0.010459355
29	0x3baeeb82	0.0053381333
30	0xbdf958b8	-0.12175125
31	0xbdaafead	-0.08349357
32	0xbcae4caf	-0.0212768
33	0x3d8b9022	0.068146005
34	0xbe1deb15	-0.15421708
35	0x3c8540ae	0.016266193

up1.weight f4 [16, 8, 4, 4]
0	0xbdb38ab5	-0.08766691
1	0x3c5ead0a	0.01359106
2	0x3ba4e419	0.005032074
3	0xbc812e61	-0.015769185
4	0xbd275d9a	-0.04086075
5	0xbd229d85	-0.039701004
6	0xbcfe21ab	-0.031021914
7	0x3c8acaea	0.01694246
8	0xbd739640	-0.05946946
9	0xbd39e22f	-0.04538172
10	0x3d23721f	0.039903756
11	0xbd59b5b0	-0.053151786
12	0xbd81f401	-0.06345368
13	0xbd88209a	-0.06646843
14	0x3b6325a1	0.003465988
15	0x3d841502	0.064493194
16	0x3db20117	0.08691614
17	0xbda4ddcc	-0.08050117
18	0xbdc430ad	-0.09579597
19	0xbddf5106	-0.10904126
20	0x3d932e5a	0.07186575
21	0x3d07fab0	0.03319806
22	0x3d72ad54	0.05924733
23	0xbdf8b9be	-0.121448025
24	0x3d2ba25f	0.041902896
25	0x3ddaafd4	0.10678068
26	0xbcb56065	-0.022140691
27	0xbcbb373a	-0.022853483
28	0x3dbba4d7	0.091623
29	0x3df2d5a0	0.11857152
30	0x3d2ac0a5	0.041687626
31	0xbbcaf2d4	-0.006193498
32	0x3da85818	0.082199275
33	0xbced11eb	-0.028939208
34	0x3c2eb0df	0.010662287
35	0xbd0897d4	-0.03334792
36	0x3d5d5fee	0.054046564
37	0x3d0aeba9	0.03391615
38	0xbc8209a4	-0.015873738
39	0x3d395ed4	0.04525645
40	0xbcf3476d	-0.029697144
41	0x3b85cda6	0.004083353
42	0x3d982c2a	0.074302986
43	0x3db4ca4e	0.08827649
44	0x3d398ea5	0.045302052
45	0x3dbda9b7	0.09260886
46	0xbcdcab32	-0.026937101
47	0x3d93ae16	0.07210939
48	0xbd5aa5c3	-0.05338074
49	0xbcc45353	-0.023965513
50	0x3d2008b5	0.039070804
51	0x3e5ede7d	0.2176456
52	0xbd1cb7aa	-0.038261093
53	0x3c8c93c3	0.017160302
54	0x3dce4412	0.10071577
55	0x3dcde2ca	0.10053022
56	0x3d57ec04	0.052715316
57	0x3d9d6d05	0.076868095
58	0x3d394f26	0.045241497
59	0xbc918007	-0.017761244
60	0xbc6776d9	-0.014127457
61	0x3ced5a2d	0.028973663
62	0x3b974186	0.0046159653
63	0xbddb1b3c	-0.10698554
64	0xbd053c63	-0.032528292
65	0x3d0c214b	0.03421144
66	0x3dececc3	0.11568596
67	0x3e0065e8	0.12538874
68	0x3d8f07cc	0.06983909
69	0x3c06c414	0.00822546
70	0xbd9576a7	-0.07298022
71	0x3d94d5a7	0.072673135
72	0x3d484b39	0.048899863
73	0xbc320b70	-0.010866985
74	0x3d34f2ae	0.04417675
75	0xbe1c0d92	-0.15239552
76	0x3cb64218	0.022248313
77	0x3b85bf38	0.004081633
78	0xbe2227a8	-0.1583544
79	0xbdf6575d	-0.12028382
80	0x3c90be41	0.017668845
81	0x3c51f797	0.012815378
82	0xbd8c33b5	-0.068458
83	0xbde9b4ae	-0.11411415
84	0xbdbf3345	-0.09335951
85	0xbcf82d14	-0.030294932
86	0xbd935af2	-0.07195081
87	0xbe1b18ac	-0.1514613
88	0xbde39649	-0.11112649
89	0xbcdde071	-0.027084561
90	0xbd78ecdf	-0.060772773
91	0x3d37bb7d	0.044856537
92	0xbd9eb384	-0.07749084
93	0xbcdcf464	-0.026972003
94	0x3d4a6e73	0.04942174
95	0xbc89b5a0	-0.016810238
96	0xbcc2ef80	-0.023795843
97	0xbce39e49	-0.027785437
98	0xbbef4bf8	-0.0073027574
99	0xbd856531	-0.06513441
100	0xbd6a840a	-0.05725483
101	0xbdb7ced8	-0.08974999
102	0xbdb43987	-0.08800035
103	0xbc108ddf	-0.008822887
104	0xbddf5fb8	-0.10906929
105	0xbcb3fe8f	-0.021971969
106	0xbd6bca16	-0.05756577
107	0x3cb802ca	0.022462267
108	0xbc4b9daa	-0.012427727
109	0xbd9ff0f2	-0.078096285
110	0x3de33d61	0.110956915
111	0x3d6dc391	0.058047835
112	0x3d6d25a2	0.057897218
113	0x3cfdff2a	0.03100546
114	0x3bfcbabf	0.0077126916
115	0x3ba92c6b	0.0051627657
116	0xbd13f0a9	-0.036118183
117	0xbc3306b9	-0.010926896
118	0x3c88a286	0.01667906
119	0x3ba6b031	0.0050869216
120	0xbc3e4150	-0.011612251
121	0x3dc4562f	0.09586751
122	0xbd0617a1	-0.032737378
123	0xbc14a44b	-0.009072374
124	0xbd841ff0	-0.06451404
125	0xbc5fce95	-0.013660093
126	0x3c4f2a4c	0.012644362
127	0x3d6883d6	0.056766354
128	0xbd936882	-0.07197668
129	0x3cdc2e44	0.02687753
130	0x3cfd886c	0.03094884
131	0x3d9268b2	0.07148875
132	0xbc954999	-0.01822357
133	0x3b572477	0.0032828131
134	0xbd25a6c5	-0.040442247
135	0x3cc05dc0	0.023482203
136	0xbd74c83a	-0.059761263
137	0xbd9471fb	-0.072483025
138	0xbd9c518a	-0.0763274
139	0x3d104958	0.035226196
140	0xbd5aae68	-0.053388983
141	0xbd79346e	-0.060841016
142	0xbd7b68da	-0.06137929
143	0xbab204aa	-0.0013581712
144	0x3c97a29a	0.018510152
145	0x3d3c1494	0.045918062
146	0x3c35923f	0.011082231
147	0xbd97b322	-0.07407214
148	0x3d10b720	0.03533089
149	0xb9ca7ec8	-0.00038622902
150	0xbd8b9f10	-0.06817448
151	0xbd7f937e	-0.06239652
152	0x3e05e1e9	0.13074459
153	0x3dc30924	0.09523228
154	0x3a9e40b0	0.0012073722
155	0x3e0eaade	0.13932368
156	0x3d905826	0.07048063
157	0x3c8e8ae4	0.017400213
158	0xbcea65ee	-0.028613057
159	0x3d4991e2	0.04921139
160	0x3c460a8c	0.0120874755
161	0xbd0574fa	-0.03258226
162	0x3cd7f107	0.026360048
163	0x3d2965b4	0.041356757
164	0x3d230a3a	0.039804675
165	0x3dc271db	0.094943725
166	0x3dbe77a1	0.09300161
167	0x3d8bfc53	0.068352364
168	0xba2a6073	-0.00064993574
169	0x3e030dd9	0.12798251
170	0x3e02f505	0.1278878
171	0x3d0240f1	0.031800214
172	0x3d757d56	0.059933983
173	0x3d152042	0.036407717
174	0x3d76a01c	0.060211286
175	0x3d370685	0.044683952
176	0x3d839ae6	0.06426029
177	0x3d6938c8	0.056938916
178	0xbc7bde8e	-0.015372885
179	0x3db9dec2	0.09075691
180	0x3d1259e3	0.035730254
181	0xbd4fc812	-0.05072791
182	0x3db43458	0.08799046
183	0xbbb87511	-0.00562919
184	0xbd9fd372	-0.07804002
185	0xbd969556	-0.07352702
186	0xb98397eb	-0.00025099455
187	0x3c91e4b7	0.017809255
188	0x3d86e8ff	0.06587409
189	0xbcf3a7b8	-0.02974306
190	0x3d5b19a4	0.05349125
191	0x3d8373da	0.06418581
192	0x3c891b91	0.016736777
193	0x3cb0472b	0.02151831
194	0x3d88deba	0.06683107
195	0x3af7ff2b	0.001892065
196	0xbd06f7dc	-0.03295122
197	0x3d7b733d	0.061389197
198	0x3cacda4c	0.021100186
199	0x3d841784	0.06449798
200	0xbdb723f0	-0.089424014
201	0x3d920bad	0.07131133
202	0x3d88fbc2	0.06688644
203	0xbc567692	-0.013089793
204	0x3d0509f0	0.03248018
205	0x3d5b7c06	0.053585075
206	0x3d8cf43e	0.06882523
207	0xbd89d4a5	-0.06730012
208	0x3daa76eb	0.08323463
209	0xbcb0825a	-0.021546531
210	0xbc5b5b66	-0.01338849
211	0x3d94e5c6	0.07270388
212	0xbd3b08bd	-0.04566263
213	0xbd300214	-0.04297073
214	0x3d3a845e	0.04553639
215	0xbce430e9	-0.027855353
216	0x3d1dd9e2	0.038537867
217	0xbd7d6d66	-0.06187191
218	0x3d8a888f	0.06764328
219	0x3d8ba7fc	0.0681915
220	0xbda71308	-0.08157927
221	0x3c59622b	0.013268034
222	0x3d04db9c	0.032436
223	0x3d1c8289	0.038210426
224	0x3c244b29	0.010027685
225	0xbb024093	-0.0019874915
226	0xbbef16f8	-0.0072964393
227	0xbdafd145	-0.08584837
228	0xbd43a8f4	-0.047768548
229	0xbdc2bc6f	-0.09508597
230	0x3d334236	0.043764316
231	0xbcec9327	-0.028878761
232	0xbd630609	-0.055425677
233	0x3b1cdf3a	0.0023936764
234	0x3c13bdaa	0.009017387
235	0x3da9af0f	0.08285343
236	0xbc1a2761	-0.009408803
237	0x3c9713df	0.018442092
238	0x3bfabc43	0.007651837
239	0x3d2e1ba5	0.042506833
240	0x3bc039a5	0.0058662468
241	0xbc73f1cf	-0.014889195
242	0x3dc338f8	0.0953235
243	0x3dadf93f	0.084948055
244	0xbc66c8a8	-0.014085926
245	0xbd16eb47	-0.03684547
246	0xbd3aca51	-0.0456031
247	0xbd97ea39	-0.07417721
248	0x3d6f4ba6	0.058421753
249	0xbcd4a687	-0.025958313
250	0xbda0e5e2	-0.07856347
251	0x3cb90baf	0.022588579
252	0xbd4a28a2	-0.049355157
253	0xbdad3a1d	-0.0845835
254	0xbc442895	-0.011972566
255	0xbd14ab11	-0.036295954

up1.bias f4 [8]
0	0x3e54fc4c	0.20799369
1	0x3e08901c	0.13336223
2	0x3e9feee9	0.3123696
3	0xbe981952	-0.29706818
4	0xbe3b5cf8	-0.18297184
5	0x3e84ae5a	0.2591427
6	0x3ea18a55	0.3155085
7	0xbe823dca	-0.25437766

up2.weight f4 [8, 4, 4, 4]
0	0x3d84cc4b	0.06484278
1	0xbb52085f	-0.0032048447
2	0x3ab9235d	0.0014124919
3	0xbd55db83	-0.052211296
4	0x3c94aedb	0.018149784
5	0x3c0779c6	0.008268779
6	0xbe05698c	-0.13028544
7	0xbc864792	-0.01639155
8	0x3d41a9f2	0.047281213
9	0x3d853053	0.06503358
10	0x3d4e79d4	0.050409153
11	0x3b382eb0	0.0028104
12	0xbd21a08c	-0.03945975
13	0x3dbbb4af	0.09165322
14	0x3e1bfe1d	0.15233655
15	0x3d7cf121	0.061753396
16	0x3d665145	0.05622985
17	0xbd2741dd	-0.040834296
18	0xbc925d15	-0.01786665
19	0x3db9b177	0.09067052
20	0xbd3f1caf	-0.046658214
21	0x3da1c222	0.07898356
22	0xbd46ac5f	-0.04850423
23	0x3d106030	0.03524798
24	0x3da96af4	0.08272353
25	0x3dd54b17	0.10414713
26	0x3d611e0d	0.0549603
27	0x3cbcfb70	0.023069113
28	0x3e0e87c9	0.13918985
29	0x3de9085b	0.11378547
30	0x3d7fa60c	0.062414214
31	0xbd6b528b	-0.057451766
32	0xbd47f417	-0.048816767
33	0x3d381f5c	0.04495178
34	0x3cb8efde	0.022575315
35	0x3e039f75	0.12853797
36	0x3cf5a145	0.029984126
37	0x3d9efe56	0.077633545
38	0x3dbe53be	0.09293316
39	0x3dda1189	0.10647876
40	0xbd976c4c	-0.07393703
41	0xbcc0fb2e	-0.023557272
42	0x3e28b357	0.16474663
43	0x3db47faf	0.08813416
44	0x3d4de9fc	0.050271973
45	0x3c88394f	0.01662889
46	0x3de3900e	0.111114606
47	0x3d908549	0.07056672
48	0x3d8f4739	0.069960065
49	0x3908b7f0	0.00013038493
50	0xbdb8ca6c	-0.09022984
51	0xbe14fe33	-0.14550094
52	0xbdb1d495	-0.08683125
53	0xbde032e8	-0.109472096
54	0xbc6c3fe2	-0.014419528
55	0xbcf01ae3	-0.029309696
56	0xbd1f9efc	-0.03896998
57	0xbe304939	-0.17215432
58	0xbe3100e2	-0.17285493
59	0xbe17c1d0	-0.14820027
60	0xbe74a637	-0.23891531
61	0xbdc4e69a	-0.09614296
62	0xbda11e9c	-0.078671664
63	0xbd0d9141	-0.034562353
64	0x3dbee1f4	0.09320441
65	0x3d2b2d19	0.041791055
66	0xbd836a63	-0.06416776
67	0x3db988a5	0.09059266
68	0x3e02762f	0.12740396
69	0x3e19d5e5	0.15023
70	0x3d82bf97	0.06384199
71	0x3c81fe15	0.015868226
72	0x3dd963c2	0.106147304
73	0x3e1add5e	0.15123507
74	0x3dffe5d1	0.12495006
75	0x3d443855	0.047905285
76	0x3b555f6a	0.0032558092
77	0x3c4983cf	0.012299492
78	0x3d8d2339	0.06891484
79	0xbd186648	-0.037206918
80	0x3d6dc473	0.058048677
81	0x3dd75e73	0.10516062
82	0x3daece4c	0.08535442
83	0x3d301b1b	0.0429946
84	0x3c6267c5	0.013818686
85	0x3dd123e5	0.102119245
86	0x3de82c51	0.11336578
87	0xbac69d76	-0.0015153128
88	0x3da94466	0.08264999
89	0x3e3a5439	0.18196191
90	0x3e113126	0.14178905
91	0x3cf7d531	0.030253025
92	0x3d5242aa	0.051333107
93	0xbd210a73	-0.039316606
94	0x3d7de3f2	0.061984964
95	0xbc24435b	-0.010025824
96	0x3d9a8230	0.075443625
97	0x3d97464a	0.073864534
98	0x3d1c6151	0.038178746
99	0x3d307a44	0.04308535
100	0x3bddeed1	0.006772854
101	0x3deb46c8	0.1148811
102	0x3db7f81c	0.0898287
103	0xbdad7e89	-0.084714
104	0x3dbb805e	0.091553435
105	0x3bc16fc7	0.0059032175
106	0xbbc72001	-0.006076813
107	0xbd85d969	-0.06535608
108	0xbc7824c7	-0.015145487
109	0x3cc611c4	0.024178393
110	0xbda80d47	-0.082056575
111	0x3d2aaf6f	0.041671213
112	0xbdce15f8	-0.10062784
113	0xbd6cfe05	-0.05785944
114	0xbcda972d	-0.026683414
115	0x3d39d7a9	0.045371685
116	0xbd613a59	-0.054987285
117	0x3a84946a	0.0010115032
118	0xbc841037	-0.016121013
119	0x3d28034c	0.04101877
120	0x3d76377d	0.06011151
121	0x3dcab211	0.09897245
122	0x3e0142c9	0.12623133
123	0xbd02ab5a	-0.031901695
124	0x3e194e49	0.1497127
125	0xbd882736	-0.06648104
126	0xbd1efd52	-0.038815804
127	0xbd16f17a	-0.036851384
128	0x3e32096a	0.17386404
129	0x3e16fcfa	0.1474494
130	0xbd1ed7c1	-0.038779978
131	0x3d7b40ca	0.061341085
132	0x3e1941a3	0.14966445
133	0x3e153cfa	0.14574042
134	0xbd86fc71	-0.06591118
135	0xbd78dd39	-0.06075785
136	0x3db3a685	0.087719955
137	0x3d52240c	0.05130391
138	0xbd8a69a1	-0.06758428
139	0x3c240ab1	0.010012315
140	0xbc475418	-0.012166046
141	0x3d33df7d	0.043914307
142	0x3dc95a65	0.098316945
143	0x3d363312	0.0444823
144	0x3e21e895	0.15811379
145	0x3dfa4739	0.12220616
146	0x3d60168b	0.054709
147	0x3da2db70	0.07952011
148	0xba74154e	-0.0009311036
149	0xbd8d688b	-0.069047056
150	0x3d97701e	0.073944315
151	0x3d1ee9e7	0.038797285
152	0x3e039053	0.12848024
153	0x3dc6100f	0.09671032
154	0x3d757a14	0.059930876
155	0xbdae3b31	-0.085073836
156	0x3db9d246	0.090733096
157	0x3d6aed29	0.05735508
158	0x3cf006fa	0.029300202
159	0x3c1ef8fb	0.009702916
160	0x3bcc8720	0.006241694
161	0xbdca074b	-0.09864672
162	0x3d060b49	0.032725606
163	0xbd6aca25	-0.057321686
164	0xbd8c330c	-0.06845674
165	0xbd27c622	-0.04096044
166	0x3d23dfa8	0.040008217
167	0xbd52975b	-0.051413875
168	0x3dab3818	0.083603084
169	0x3df007fc	0.11720273
170	0xbd068df1	-0.03285021
171	0xbdb2acb1	-0.087243445
172	0xbdb67763	-0.0890949
173	0xbdf893a0	-0.12137532
174	0x3d96f005	0.07369999
175	0xbdfcdc7e	-0.12346743
176	0xbdbf5c74	-0.09343806
177	0xbdf59946	-0.11992125
178	0xbbd4a46a	-0.0064893262
179	0x3e18c9e7	0.1492077
180	0xbdada83d	-0.084793545
181	0xbdfe9c24	-0.12432125
182	0x3d43ea80	0.04783106
183	0xbb54b3a2	-0.0032455702
184	0x3d26e536	0.040745936
185	0x3e0ba9ae	0.13638946
186	0x3b0a19f6	0.0021072603
187	0xbd619d4f	-0.05508166
188	0x3d2f7a35	0.042841155
189	0xbc5e1d54	-0.013556797
190	0x3cdf6fc2	0.02727497
191	0xbd6c50ea	-0.057694353
192	0xbd9a004d	-0.075195886
193	0xbd5f3b2e	-0.054499798
194	0xbc777d78	-0.015105598
195	0x3d66aba3	0.05631603
196	0xbd73fe16	-0.059568487
197	0x3d87fae2	0.06639649
198	0x3d88f5f8	0.0668754
199	0xbd02e7aa	-0.031959213
200	0x3bc4cff1	0.006006234
201	0x3dfc8f9c	0.12332079
202	0x3de9fa8f	0.114247434
203	0x3d5471cd	0.05186634
204	0x3d17fec3	0.037108194
205	0x3e064295	0.13111337
206	0x3c4ee7a4	0.01262847
207	0x3cf3bbca	0.02975263
208	0xbc8279e4	-0.015927263
209	0x3d5a6318	0.05331716
210	0x3d4d97b2	0.050193496
211	0x3d8a5a7b	0.06755539
212	0x3dbff726	0.09373312
213	0x3d5fb124	0.054612294
214	0x3d94fa2f	0.07274281
215	0x3d6d69fc	0.057962403
216	0x3d6baeac	0.057539627
217	0x3d401671	0.0468964
218	0x3daa4b95	0.083151974
219	0x3e049782	0.1294842
220	0x3d77f3dd	0.0605353
221	0x3db3a285	0.087712325
222	0x3e2048cc	0.1565277
223	0x3d62533c	0.05525516
224	0xbcf88f9e	-0.03034192
225	0xbe3f4b36	-0.18681034
226	0xbdd20500	-0.1025486
227	0x3df80ed7	0.121122055
228	0xbd9881b5	-0.07446615
229	0x3c93264c	0.017962597
230	0xbd4eb0f1	-0.050461713
231	0x3c818522	0.015810553
232	0xbe0bfc2b	-0.13670413
233	0x3cf7fc3d	0.030271644
234	0x3d854409	0.06507117
235	0xbd5e5c81	-0.054287437
236	0x3da75824	0.08171108
237	0x3d373b71	0.044734422
238	0x3b2a7aaf	0.0026013067
239	0xbdf5e8cf	-0.12007295
240	0x3d973a0f	0.07384121
241	0xbd6ececd	-0.05830269
242	0xbcced563	-0.025248235
243	0x3d9ec5fc	0.07752606
244	0xbd6ed4da	-0.05830846
245	0x3cc48600	0.023989677
246	0x3ca63567	0.020289136
247	0xbccbfcc9	-0.02490081
248	0x3cd7fc8e	0.026365545
249	0xbdae6fc0	-0.08517408
250	0xbcd83191	-0.026390823
251	0xbe0919b5	-0.13388713
252	0xbd68839f	-0.05676615
253	0x3caa4fcd	0.020790005
254	0xbc92960e	-0.017893817
255	0x3c8aae19	0.01692872

up2.bias f4 [4]
0	0xbed00401	-0.40628055
1	0xbe83d5a8	-0.25748944
2	0xbee20c15	-0.44149843
3	0x3d883af4	0.066518694
