python3/star_removal/saved/2021_12_06__16_01_23_NF_4_LR_0.001_EP_2/nf_4_LR_0.001_EP_2.pth (torch, 318977 bytes, 109 tensors)

inc.double_conv.0.weight f4 [4, 1, 3, 3]
00000000: c3b8 74bd 3718 2c3e 9399 49bd e653 b23b
00000010: 093a 153e 5a89 df3d c7c8 ba3d aa3f 99be
00000020: 0199 57bd 51fd c4bd 9b71 093d 8c14 d33c
00000030: 7422 703e 1ea2 d23d 9428 cfbc e72f 833d
00000040: 82fe e6be 8632 1d3e de5d 76bd 4461 d53d
00000050: 4873 883d 44e7 a9be 4924 b23e f996 243e
00000060: d49a 31bc 8e1f 10bd 29c5 2fbe ee04 ecbd
00000070: 4576 2dbe 8961 9fbd b761 b1bc 493f 9a3e
00000080: 0188 81bd 8022 033d bf18 193d e1cc 843c
-0.059746515 0.16806112 -0.049218725 0.0054421304 0.1457292 0.109148696 0.091203265 -0.29931384
-0.05263615 -0.09618629 0.03355561 0.025766633 0.23450643 0.10284828 -0.025287904 0.06405621
-0.4511605 0.15351304 -0.060148112 0.104189426 0.06662613 -0.33184254 0.34793308 0.16073216
-0.010840137 -0.035186343 -0.17165054 -0.11524378 -0.16939647 -0.07782275 -0.02165304 0.30126408
-0.06324769 0.032015324 0.037377115 0.016210975

inc.double_conv.0.bias f4 [4]
00000000: 0914 86be 102d 02be efe4 48be 7479 dabd
-0.2618716 -0.12712502 -0.19618581 -0.106676966

inc.double_conv.1.weight f4 [4]
00000000: 1600 653f c6a0 6a3f 0d91 7f3f 1fd4 803f
0.89453256 0.9165157 0.99830705 1.0064734

inc.double_conv.1.bias f4 [4]
00000000: 1018 0d3f 7031 ca3d 15ff 133f d111 5c3d
0.5511484 0.09872711 0.578111 0.05372793

inc.double_conv.1.running_mean f4 [4]
00000000: 53f8 ff41 476e 32c1 25ba a042 6802 84c1
31.996252 -11.151923 80.36356 -16.501175

inc.double_conv.1.running_var f4 [4]
00000000: b1cd f145 4352 8e46 bb30 2547 b259 0846
7737.7114 18217.13 42288.73 8726.424

inc.double_conv.3.weight f4 [4, 4, 3, 3]
00000000: 29a3 a93a e8ca 173d 032b 003e 064f ac3d
00000010: 62f8 c5bd 4ac0 563e 2a83 3abd d322 07bd
00000020: 2a6a 143e f1b7 923d 452d 573e fc4f a63d
00000030: aa6f 003c 04b0 b83c 22f7 5d3e 6468 573b
00000040: a189 153d 2565 29bd d53d a83b 4482 183e
00000050: 5520 39be a8fd c83d ded9 74bd 4ec5 15bd
00000060: 6eff a23c fc00 38bd 96a4 c4be c19d c4bd
00000070: 5dbb 2a3d a6d6 273d 2717 67bd a2e4 84bd
00000080: bdf4 8e3d 2d1e 8e3d 7934 2b3e 921e 753c
00000090: a813 8eba be27 373e c51f 30bd 8035 073e
000000a0: 15b7 29be 09af 96bc 45a1 063c dd75 213d
000000b0: e7d6 77bd 3671 b13d 8e5a 30be 592b 00be
000000c0: dc1b b23d 2fb1 643a e982 df3c 7392 20bd
000000d0: c1e8 14be 4ef7 bc3d 7009 98bb 28e2 ccbd
000000e0: d7dc dd3d 31ab 193e edec 633c 83a9 a03c
000000f0: 066b 4f3d 48e5 23be 36a4 263e 5abe 7abc
00000100: a967 08be 9bdd 62be c7b7 a9bd c75a 493d
00000110: 2b1d 49be e468 0dbe e5f8 843c 711d 74be
00000120: c917 13bd fdd2 46be 66fb 113d d9ab 1f3d
00000130: 0719 d93d f942 4f3d 19ae 49bd 5d8a f93d
00000140: 08ca 57bd 647c 303d dc61 57be 49f6 2a3d
00000150: 98d3 023e 0c4e 173e 2e97 c13d 7420 a93d
00000160: 3092 0dbc ec0e a43d 55e9 dbbd 4f07 17be
00000170: c67d 643c dce9 fe3d 5ba1 583e 32f6 40be
00000180: 655c 773d 4987 08bd 115b 203c 8fb8 da3d
00000190: b51a c93c 570a 423d 1898 7abd 37ac 543e
000001a0: 70a5 b03d e0bd c9bd f80a 3ebe 35f2 6ebc
000001b0: 8844 dcbc 37ee a2bc 38d2 8b3c 9dbb 223d
000001c0: eac5 0d3e 7bb6 283d 5a37 efbc c015 bb3d
000001d0: d47e b83c 6285 153d 03e5 b4bd 51a4 26bd
000001e0: c9df 4d3c 2c9e 083b 6f1f 59bb 89d9 ce3c
000001f0: ca9f c3bc 13e6 823d f53a 253e 4bcd 133e
00000200: a5fd 4dbd 79fd c63d 5a61 5f3e 27f1 1ebe
00000210: 800b 1a3c 4563 e03d d521 983c 77ea 85bd
00000220: 654a d73e ce81 903c 55e5 8c3c 585a ab3d
00000230: 6f21 17bd 459e 423d 3f7f a9bd 1f8d dbbc
0.0012942302 0.03705874 0.12516408 0.0841351 -0.09666516 0.2097179 -0.045535244 -0.032992195
0.14493623 0.0716399 0.21013363 0.081207246 0.007839123 0.022544868 0.21676305 0.0032868618
0.036508206 -0.041356225 0.005134324 0.14893442 -0.1807874 0.09814006 -0.059778087 -0.036565118
0.019897189 -0.044922814 -0.3840682 -0.09600402 0.04168259 0.04097619 -0.056418564 -0.06488921
0.06980274 0.06939349 0.16719235 0.014960902 -0.0010839598 0.17886254 -0.042999048 0.13204002
-0.16573747 -0.01839401 0.008217161 0.039419044 -0.06050768 0.086641714 -0.17222044 -0.12516536
0.0869672 0.0008723912 0.027284103 -0.039202165 -0.14541914 0.09226857 -0.004639797 -0.100040734
0.108331375 0.1500671 0.013911468 0.01961208 0.050639175 -0.16005433 0.16273579 -0.015304172
-0.13320793 -0.22154848 -0.08287006 0.049158838 -0.19640033 -0.13809544 0.016231963 -0.23839356
-0.035911355 -0.19416423 0.035640143 0.038982246 0.10600477 0.05060098 -0.049238298 0.12184594
-0.052682906 0.04308738 -0.21033424 0.041738782 0.12776029 0.14775866 0.09452663 0.08258143
-0.008640811 0.080106586 -0.10737864 -0.14748882 0.013946002 0.12446949 0.21155302 -0.18843916
0.06039085 -0.033332143 0.009787337 0.10679733 0.024548868 0.047373142 -0.061180204 0.2076882
0.08625305 -0.09850669 -0.18558872 -0.014584114 -0.026888147 -0.01988898 0.017068014 0.039729703
0.1384503 0.041189652 -0.029201198 0.09135008 0.022521414 0.036504157 -0.08832743 -0.040684048
0.012565562 0.002084623 -0.0033130308 0.025250213 -0.023879904 0.063915394 0.16135772 0.14433782
-0.050290722 0.09716315 0.2181448 -0.1552168 0.009402156 0.10956434 0.01857082 -0.06538861
0.42048946 0.01764002 0.017199198 0.08366841 -0.03689712 0.04751422 -0.082762234 -0.02680069

inc.double_conv.3.bias f4 [4]
00000000: fd29 473d f0f5 3c3d 48a3 c1be d63f 2e3e
0.048624028 0.04613298 -0.37819886 0.17016539

inc.double_conv.4.weight f4 [4]
00000000: 9436 5f3f 3aba 633f 78df 983f da40 863f
0.87192655 0.88956034 1.1943197 1.0488541

inc.double_conv.4.bias f4 [4]
00000000: a410 8c3e beed b6bd b8e9 353e 6eed cf3e
0.27356446 -0.089320645 0.17764938 0.40610832

inc.double_conv.4.running_mean f4 [4]
00000000: 0418 be3e 3238 ccbd 2b8d 64be 4323 4c3f
0.37127697 -0.09971656 -0.22319476 0.79741305

inc.double_conv.4.running_var f4 [4]
00000000: 5e7d 013e 0cac 753e dbbd 393e 8830 143f
0.1264548 0.23991412 0.1813883 0.5788655

down1.maxpool_conv.1.double_conv.0.weight f4 [8, 4, 3, 3]
00000000: a0e4 cf3d d7ab 43be 4954 b8bd 65b9 d3bc
00000010: cd71 0cbe 4b1f 913d 4813 d03d 9bb1 cb3d
00000020: e46e 643d 1df4 be3d 17eb 8bbd 1d0b e9bd
00000030: 069f a33d 8600 053d 6cd5 dabc 1fd1 e13c
00000040: cfb2 02ba 852e 27bd 2308 0abb c53e 0b3e
00000050: 87f7 78bc 51b6 09bd a9b3 03bd 7f25 653c
00000060: 3e1d 8ebd a99a 29bd 363b 24be a48d 103e
00000070: 857c bbbc 69ae 0c3e 4f60 913d 7701 c53c
00000080: 8740 983e e810 2e3e 98a6 873d ed77 973c
00000090: 74f8 a9bd c74b c03d 95e0 7abd 27a2 69bd
000000a0: 39fa 663e e24a 123d 432f 88be 6060 f9bd
000000b0: e326 e83d 1569 733d 3b79 0d3e 4870 183e
000000c0: 040f a73d 5cca 2fbd f371 803d 1c09 5abd
000000d0: 2a01 223e 1ae0 243e c812 113e 6973 893e
000000e0: f568 bc3c 4cd7 433c 986c 6fbd 07d1 11bc
000000f0: 32ff d5bd 3659 48bb 6a28 d53d 552d 3e3d
00000100: 8595 123d 7328 1d3e 15f7 97bd 81f5 2b3e
00000110: 6273 c0ba 7540 e9bd cbf9 49bd 2b5e 1dbe
00000120: 6483 5bbd 55e4 613d aaf8 1ebe a4df 813d
00000130: aaed 693d b10c be3d 14dc 84bc 165d ecba
00000140: 882f 81bc 1eea babc 69ae 03be 6a7c b93d
00000150: f00a f2bc 5505 abbd 1be4 123c 84ed 3bbd
00000160: b48e 12be 3d35 053d d513 e9bd 9cec fd3c
00000170: bcd6 f7bc 0f3d 27bd 419f a03e 6b64 083e
00000180: 5f35 11bd d2cc a6bd 173b 933d dd3f 483d
00000190: 4916 60bc 9365 80be d3b8 19be 90ae 07bc
000001a0: fcdc 71be 3f9f 403d 85e7 c7bd a886 083d
000001b0: 2b7e 383d 2f0d 6f3e 4343 9dbc 4107 a9bd
000001c0: 548a 303e 73e6 9c3d 6e9e e53b 4ca7 c93c
000001d0: 97f1 b73d 5a94 b63a 16a7 4bbd 99a9 2ebd
000001e0: 93cd 9d3c 5597 86bd c940 be3d 957d 8f3c
000001f0: 4778 943d 0639 df3a 2202 e93d 1ec2 373d
00000200: cf55 203e a466 fa3c 5deb 233d aeab 41bc
00000210: cdae ab3c 392c 4a3d 62d0 61bd d900 aebd
00000220: c551 8dbd 41a9 26be 5a53 33bd dfae 29be
00000230: bc2b 46be c04c 193e ace8 5e3e 392d 18be
00000240: 2d61 be3d 65f0 c4bd 77db bc3d 236a 00be
00000250: b796 38bd 6448 01be 9969 b33d 02c7 243d
00000260: 1158 093d 6e6c 2dbc 9a54 0f3e dd56 65bd
00000270: b2ee d23d c874 a2bd 17f8 9abc aadb 76bc
00000280: 4ac7 353d b9ba 843d 426b 123e e973 c1be
00000290: ae0c 0ebe 297e 583c 3d03 49bd 16dc 06be
000002a0: d676 21bd d9c9 9bbd 5ce6 023d 656c f7bd
000002b0: c7f9 debd 8d11 0bbd 4611 053e 4f22 1f3e
000002c0: 1473 823c cee8 883c 65db 703e aa92 fd3d
000002d0: e8e3 e23c db22 b73d 8b02 273e 48e7 e5bd
000002e0: f695 4abb b111 5fbc f4fc 873d b360 c73d
000002f0: c366 5d3d 5c79 d83d 0d5f e8bd a0dd 303e
00000300: b480 2ebd 9928 003e 1012 353e 40d9 483e
00000310: 85da f5bd 19b1 82be 8157 473d 153a 183e
00000320: 05d8 ffbc 38ad bf3d 09cc adbd 4a1c 693c
00000330: b2c3 3d3d 06d4 b3bd 5ff8 adbd 870e dabc
00000340: 2f99 fa3d 2afc e4bc 13f5 653d d67d 99bd
00000350: 96a7 97be 5e07 7fbd 3b2c 95be 464d c4bd
00000360: 49a4 d43d d248 a7bd 4571 973b 47fd f5bc
00000370: 7cf4 6e3d f1e1 d9bb f6c8 14be 15fc 93ba
00000380: 66b4 fd3c 0ca5 2b3d c19a 6e3d f829 91bd
00000390: 5c7d 5c3d 7ef9 c9bd b248 dcbd 18fb 433c
000003a0: c5c1 7a3c ac3a 0b3d 6d6e 8cbd de5f 173e
000003b0: 3cfc 283e ec14 00be e2d7 edbd 355f 13bd
000003c0: 6871 04be ee2c 453e dd14 043e 2e99 95bd
000003d0: 2ed1 23be 8450 ddbc 5973 21be 51c1 9bbd
000003e0: 5067 0e3c b6de 14be 434c 943e 9291 8c3d
000003f0: 7448 b6bd 03fa cb3c 47ba 1ebd bde4 13be
0.10151029 -0.1910852 -0.09000451 -0.025845239 -0.13715287 0.07086047 0.101599276 0.09945985
0.055769816 0.09323905 -0.06831949 -0.11379073 0.07989316 0.032471202 -0.026713096 0.027565537
-0.0004985751 -0.04081585 -0.0021061979 0.13598163 -0.015195734 -0.033621136 -0.03215376 0.013985991
-0.06939171 -0.04140726 -0.16038212 0.14116532 -0.022886524 0.13738407 0.070984475 0.02404855
0.2973673 0.16998637 0.06623572 0.018489802 -0.08299342 0.093894534 -0.061249334 -0.057039406
0.2255639 0.035715945 -0.26598558 -0.12176585 0.11335542 0.059426386 0.13815777 0.14886582
0.08157161 -0.042917594 0.06271734 -0.053231344 0.15820757 0.16101113 0.1416732 0.26845863
0.022999266 0.011953186 -0.058453172 -0.008899934 -0.10449065 -0.0030570752 0.10408099 0.04642995
0.035787124 0.15347461 -0.07420174 0.16792871 -0.0014682824 -0.11389247 -0.049310487 -0.15367953
-0.0535921 0.055149395 -0.15524545 0.06341484 0.05711142 0.092797644 -0.016218223 -0.0018033113
-0.015769735 -0.022816714 -0.12859501 0.09056933 -0.029546231 -0.083506264 0.008965517 -0.04588081
-0.1431225 0.032521475 -0.11380736 0.030996613 -0.03025376 -0.040829714 0.313715 0.13319556
-0.03545129 -0.08144535 0.07189005 0.04888903 -0.013677188 -0.25077495 -0.15011911 -0.008281365
-0.23619455 0.04702687 -0.09760956 0.033331543 0.0450422 0.23344873 -0.019197112 -0.08253337
0.17240268 0.07661142 0.0070074117 0.024615906 0.089816265 0.001392971 -0.049719892 -0.04264221
0.019263064 -0.06571833 0.092897005 0.017515937 0.072495036 0.0017030544 0.1137736 0.04486286
0.15657733 0.030566521 0.04001938 -0.011820717 0.020957375 0.04935858 -0.05513037 -0.084962554
-0.06900362 -0.16275503 -0.043780662 -0.16570614 -0.19352621 0.14970684 0.21768445 -0.14861001
0.092958786 -0.09616164 0.09221547 -0.12540488 -0.045065608 -0.12625271 0.087603755 0.04022885
0.033531252 -0.010584934 0.13997117 -0.055991042 0.10299434 -0.079324305 -0.018917127 -0.01506702
0.04437951 0.06480927 0.14298728 -0.37783745 -0.13872024 0.013213673 -0.049075354 -0.13169894
-0.03941997 -0.07606859 0.03195797 -0.120812215 -0.10887485 -0.033952285 0.1299487 0.15540431
0.015924014 0.016712572 0.23521192 0.123814896 0.027696565 0.08942195 0.16309564 -0.11225754
-0.0030912138 -0.013615058 0.06640044 0.09735241 0.05405308 0.105700225 -0.113462545 0.17272043
-0.04260321 0.12515487 0.17682672 0.19614124 -0.1200457 -0.2552574 0.048667435 0.14865907
-0.031230936 0.09359211 -0.08486182 0.014227936 0.046329208 -0.08780675 -0.08494639 -0.026618255
0.12236249 -0.027952272 0.056141924 -0.074947044 -0.29620045 -0.062262885 -0.29135308 -0.09585051
0.103828974 -0.08168186 0.004621657 -0.030027999 0.058338627 -0.006649249 -0.14529786 -0.0011290336
0.03096981 0.041905448 0.058253054 -0.07088083 0.05383049 -0.0986204 -0.10756053 0.011961721
0.015304987 0.0339915 -0.068569995 0.14782664 0.1650247 -0.12507981 -0.11613442 -0.03597947
-0.12933886 0.1925542 0.12898584 -0.07304607 -0.15997764 -0.027015932 -0.15766658 -0.076052316
0.008691624 -0.14538082 0.28964433 0.06863703 -0.08900538 0.024899488 -0.038751867 -0.14442725

down1.maxpool_conv.1.double_conv.0.bias f4 [8]
00000000: dcdf e43d d1ae d03d 274a c0bd f9d2 0abe
00000010: b6c1 5e3e 8727 fabc e1a5 44bc 7215 793b
0.1117551 0.101895936 -0.093891434 -0.13557042 0.21753582 -0.030536426 -0.012002439 0.0038007167

down1.maxpool_conv.1.double_conv.1.weight f4 [8]
00000000: e7c3 723f e0a2 843f 1240 843f de7b 683f
00000010: f3c1 823f 716f 7d3f 8cd2 8a3f 1c44 773f
0.94830173 1.0362206 1.0332053 0.90814006 1.0215439 0.9899817 1.0845504 0.965883

down1.maxpool_conv.1.double_conv.1.bias f4 [8]
00000000: f4a2 243e 0092 8f3e 9fa0 9bbd 69b0 443e
00000010: e5c4 bd3e 3e51 363e 1e3b 3a3d e8ae 533e
0.16077787 0.28041077 -0.075989954 0.1920792 0.3706428 0.17804429 0.045466535 0.2067219

down1.maxpool_conv.1.double_conv.1.running_mean f4 [8]
00000000: 3a4b b93e bb04 b43e 102b 81be 590f b03d
00000010: 0050 323e 4f1e a5bd 3adb f9bd 8d1a f9bd
0.36190206 0.3515986 -0.25228167 0.08596677 0.1741333 -0.080624215 -0.12200017 -0.12163267

down1.maxpool_conv.1.double_conv.1.running_var f4 [8]
00000000: df7f 8a3e 4c42 423f 9196 ea3e 3e22 a43e
00000010: f70c 1c3f 8ec2 043f e185 3b3f c9db ec3e
0.27050683 0.7588241 0.45817998 0.32057375 0.6095728 0.51859367 0.7325116 0.46261433

down1.maxpool_conv.1.double_conv.3.weight f4 [8, 8, 3, 3]
00000000: b4ca 8bbd 1ec7 b33b 3ce6 09bb 4df6 20bd
00000010: 6723 113d dc75 44bd 0d5f 5f3d f902 0b3e
00000020: 5852 f33d b18f a2bd 35f2 953d 4fcd aabc
00000030: 2a4b 633d a4b9 d0bc b0ad e9bd a405 85bd
00000040: def3 0e3e b547 bdbd 39da 4abc d57b 10be
00000050: 718a 033e 3a78 8ebc 88b4 8cbe 7d76 4abe
00000060: 8875 17bd 36fa f7bd f800 8bbe 8aed aabb
00000070: 96a4 a73d 4d82 d93b 5403 b23d 204d 81bd
00000080: d083 9cbb da63 a53d d12c 8dbd 11b2 5abb
00000090: 9888 8c3d 7d4e f6bd 053d 88bd 0489 1f3c
000000a0: 9c49 113e 57d6 073c ec97 03be b635 9cbe
000000b0: 1af0 a5bd c24d a33c 2553 e2bd 226b 12be
000000c0: 5dbe e7bd e04a 07be 638a e6bc 77df 633d
000000d0: b4cc 443d 6f78 bdbd f05c 3d3d 2128 0abe
000000e0: df65 1fbd 2956 b3bd 2271 063e a942 e8bd
000000f0: 76ca f63c 9aab af3d 690d 2b3d c0b7 2bbc
00000100: 0c7b cebd ace4 89bd cf5d d3bd c2dd 7ebd
00000110: 873a 5b3d 274b 8cbd 1b9d 6fbc 1146 393d
00000120: 594d c43d b16c 67bd 0548 38bb a977 253e
00000130: 2a2a 623c 78a0 27be 2a30 fa3d 06a1 9fbd
00000140: 760a e6bb 25e1 56bd a269 74be 1190 09be
00000150: 7c0f 01be a800 17be a966 143e d713 883d
00000160: fa97 b93d d818 5bbd 1764 0ebe 0855 783c
00000170: 9356 adbc 08fa 1c3c 0543 d73d fa45 f33d
00000180: 0753 3c3c 58c4 d03d 82e6 febb 73b9 0cbe
00000190: 1962 c93d 2ff9 e03d 4e97 0d3c 2024 f7bd
000001a0: 730d 0e3d 4996 8e3c 03d8 eb3c 5d7c 8fbd
000001b0: 3c1a 683d ddd4 51bd 40ff 98bd e1c7 06bd
000001c0: bd09 13bd 5b9f eebc 35c5 2dbd 22d3 333d
000001d0: ec29 b03d ccaf d2bd f048 3b3a d300 573d
000001e0: 33a1 72bd dfe4 5bbd 7f3f 81bd e679 c93d
000001f0: 3ad4 073d 6d7c 00be 3c8e ec3c d5f3 783d
00000200: 690a 3dbc 5ee8 ef3d 775a d63c 5013 c93c
00000210: 8ef3 74bd 6e35 363e cd39 40be b1bb b93c
00000220: 13af a2bd 235e 953d 0ed1 90bd b957 06be
00000230: 90b2 443d d64a ebbb 6333 c9bd 7a1f 9c3d
00000240: d139 b93d fe3f 7c3d 26dc 80bc b6c0 413a
00000250: f2a0 8cbd 6721 08be d88c 2f3d 1f5d 0c3b
00000260: ec27 0bbe 32e8 8c3c 93e5 043d 770f 1b3d
00000270: d0b3 a5bc e81b 223d 4e12 dc3d 3a04 b5bd
00000280: 8202 67be 59ac 90bd 538c a83d bdc2 a3bd
00000290: eb98 18bd 2153 1abe b801 12be 71ca 60bd
000002a0: 1fbc bcbc 9802 72bd 5cc6 6ebb 5a69 743c
000002b0: 8e2f 5fbd 1729 963d 2925 d23c 490c 09be
000002c0: 76fc 3bba 8d60 f1bc 3485 10bd 7f00 bebb
000002d0: 8fa4 1e3d aed6 3abd bb67 45be 8529 f8bd
000002e0: 8f14 d6bd b273 82bd 41c9 f1bc c2d7 76bd
000002f0: 781f dd3a 788f 0dbd 281e fc3c 3bbe 07b9
00000300: 8d90 f93c ac3c 223e 1307 023e 17a0 efbc
00000310: a40b ae3d 6472 09be 4f68 0bbe 6c53 88be
00000320: 4b43 9fbe 7f83 eabd 44cc 4fbe f7ef 91bd
00000330: 1461 97bd 23a4 2cbe f3d2 1a3e 19d6 c23c
00000340: 9b9c efbc 9919 6cbd 9049 b93d 81f4 81bd
00000350: 4803 37bd 88a9 be3d acc9 44bd c252 223d
00000360: 5106 f63c b7c3 633b 31e0 7d3b 8407 03bd
00000370: 1cd0 f43d 97d7 073e 73c4 243d 127e f73d
00000380: 3bb9 f03d 72ef 36bd 38c9 d43d c1cf 103e
00000390: be1e e03c bd66 6cbc e2cd e2bc c915 8f3d
000003a0: 8a02 bd3d a8de 3dbd f562 36be c934 7ebe
000003b0: 93cc 7dbd dd8e 69bd e726 3bbe 1694 e9bd
000003c0: 583c 09be 5d73 81bd 460c 9fbd 27fc 6bbd
000003d0: f003 0ebe 9674 8c3d 32c8 c53d 9365 933c
000003e0: 2a9d 113d fa36 b33d f32a eabd e66b bd3a
000003f0: 19f8 e1bc af45 45bd ee4c 303e d18b 30be
-0.06825772 0.005486383 -0.0021041771 -0.03929739 0.035434153 -0.047963962 0.054534007 0.13575353
0.1188094 -0.07937563 0.07321588 -0.020849852 0.055491604 -0.025479145 -0.114100814 -0.064952165
0.13960215 -0.09242193 -0.01238113 -0.14109738 0.1284578 -0.017391313 -0.27481484 -0.19771762
-0.03697732 -0.12108271 -0.27149177 -0.005216305 0.08185689 0.0066378475 0.08692041 -0.063135386
-0.0047764555 0.08075686 -0.06893314 -0.0033370296 0.06861991 -0.12026689 -0.066522636 0.009737257
0.14188236 0.008290849 -0.12850922 -0.30509728 -0.08102436 0.019934539 -0.11051015 -0.1429868
-0.11315606 -0.13212156 -0.02814216 0.055633035 0.048046783 -0.092514865 0.04623121 -0.1349187
-0.03891551 -0.08756668 0.13129094 -0.113408394 0.030125838 0.08577652 0.041760836 -0.010480821
-0.10082063 -0.06733069 -0.10320627 -0.062223203 0.053522613 -0.06850272 -0.014624859 0.045232836
0.095850654 -0.05650014 -0.00281191 0.16158928 0.013803998 -0.16369808 0.12216218 -0.07794385
-0.00702029 -0.05246081 -0.2386842 -0.13433863 -0.12603563 -0.14746344 0.14492287 0.06644409
0.0906219 -0.05349049 -0.13905369 0.015156992 -0.021159446 0.0095810965 0.1051083 0.11878581
0.011494405 0.101936996 -0.0077789435 -0.13742618 0.09833164 0.10985028 0.008642031 -0.12067437
0.034680795 0.017405646 0.028789526 -0.07006142 0.056665644 -0.051228393 -0.0747056 -0.032905463
-0.03589796 -0.029128721 -0.0424244 0.043902524 0.08601746 -0.10287437 0.00071443524 0.05249102
-0.059235763 -0.053685065 -0.06310939 0.098377034 0.03316138 -0.12547465 0.028876416 0.06077941
-0.0115381265 0.117142424 0.026166184 0.024545342 -0.059802584 0.1779382 -0.18772049 0.022672506
-0.07943549 0.07293346 -0.07071124 -0.13119401 0.048021853 -0.007180552 -0.09824254 0.07623191
0.09044231 0.061584465 -0.015729975 0.0007391082 -0.068666354 -0.13293992 0.04285893 0.002141781
-0.13589448 0.017200563 0.0324455 0.037856545 -0.020227343 0.039577395 0.10745679 -0.08838697
-0.2255955 -0.07064123 0.0822989 -0.07996128 -0.03725521 -0.15070774 -0.14258468 -0.054880563
-0.023038922 -0.059084505 -0.003643415 0.014917696 -0.05448871 0.07332056 0.025652485 -0.13383593
-0.00071711035 -0.029464984 -0.035283282 -0.005798399 0.038731154 -0.04561489 -0.19277851 -0.12117294
-0.1045314 -0.063697234 -0.02951491 -0.060264356 0.001687034 -0.03456065 0.030776098 -0.0001294547
0.030464435 0.15843457 0.12698011 -0.029251141 0.08498314 -0.13422543 -0.1361401 -0.26626146
-0.31106028 -0.11450862 -0.20292765 -0.07125848 -0.07391563 -0.16859488 0.15119533 0.02378373
-0.02924948 -0.0576416 0.09047234 -0.063454635 -0.044680864 0.09309679 -0.04804389 0.039629705
0.030032309 0.0034754106 0.0038738365 -0.03198959 0.11953756 0.13265835 0.04022641 0.12084593
0.1175408 -0.044661947 0.10389942 0.14141752 0.027358409 -0.014428792 -0.027686063 0.06986577
0.09229 -0.04635492 -0.17811187 -0.24824823 -0.061962675 -0.05702101 -0.18276559 -0.11405198
-0.13401926 -0.06320832 -0.07766013 -0.057613518 -0.1386869 0.068581745 0.09657325 0.01799277
0.035550274 0.0875072 -0.11433973 0.0014451712 -0.027584122 -0.04816216 0.17216846 -0.17240836

down1.maxpool_conv.1.double_conv.3.bias f4 [8]
00000000: 22f3 863e c011 d5bd 8cb7 2c3c 54c2 763d
00000010: ce22 b3bc 8eb7 c7bd 524a e73d 0a2c 89bd
0.2635737 -0.10403776 0.010541808 0.06024392 -0.021867182 -0.09751807 0.11293472 -0.06697853

down1.maxpool_conv.1.double_conv.4.weight f4 [8]
00000000: 5970 7a3f 3fc6 4c3f db84 883f 8ac3 7c3f
00000010: df96 863f c8a9 823f d0fe 603f f0e7 6b3f
0.9782768 0.7999 1.0665544 0.9873587 1.0514792 1.0208063 0.87888813 0.92150784

down1.maxpool_conv.1.double_conv.4.bias f4 [8]
00000000: 23ad 4b3e 5c87 683d c417 cf3d be2d 973e
00000010: 7e88 a23c f46a 2a3e 039f aa3d f884 47bd
0.19890265 0.056769714 0.10111955 0.29527086 0.019840475 0.16642362 0.0833111 -0.048710793

down1.maxpool_conv.1.double_conv.4.running_mean f4 [8]
00000000: 113a 7ebe b84d 91be f391 1abf 6e00 83be
00000010: 6d7f babe 481d 32bf 8534 50be b5da a5be
-0.24826838 -0.28379607 -0.6037895 -0.25586265 -0.36425343 -0.6957593 -0.20332535 -0.32393423

down1.maxpool_conv.1.double_conv.4.running_var f4 [8]
00000000: 8c60 a13e edf2 a83e 4991 a83f 03d2 c43e
00000010: 38f8 e83e c983 103f 692d 703e cd9c c53e
0.31518972 0.32997838 1.3169338 0.38441476 0.45501876 0.5645109 0.23454823 0.38596192

down2.maxpool_conv.1.double_conv.0.weight f4 [16, 8, 3, 3]
00000000: 2c19 f4bd e4bc 5bbd cede 913d 2b0a aabd
00000010: de55 223c 005e 833d 4303 2dbe e10c b0bc
00000020: 07f4 c33d fabe 803c 73dd 19bd 8461 35be
00000030: 2c14 a03d a5dc bf3c 1517 ac3d 9058 04bd
00000040: 25cb ff3d 00d1 bc3d f309 fb3c 7a7d afbd
00000050: 6510 2c3d 085e c03d 0012 d2bd 58e9 2abe
00000060: dade a23d 0ca6 b03d 3c1f 9bbb 82f4 f2bd
00000070: cbe0 dfbd f010 0b3e 34b5 f8bc 1d2c 8fbd
00000080: c17c bf3b 846f f53d a1c8 aa3d c72b 653d
00000090: 9947 6fbd 4c4d 23be 377f 5e3c 0bd6 07bc
000000a0: 0fbe a1bd b5f8 363e 30b6 003e ebe8 59bd
000000b0: 97d7 16bd e899 a7bd f20c 25bd 134f 8cbe
000000c0: a43f 063e 14c9 c9bd e2a1 8dbd 2421 f53d
000000d0: a117 1abe e1b7 603e 6832 e8bd 4c9c b9bd
000000e0: 4d0e fb3d 2e61 503b 51e5 303d 254e 333d
000000f0: f559 ae3d 8198 a83d 3d93 363d 50d3 113d
00000100: 7115 38bd 7369 e2bd 42b7 5a3d e82c e03d
00000110: 267a c4bd f671 ce3b 5268 863d 5bcc 8d3c
00000120: ce51 bdbd 33d4 a9bd d8bc b23d b0dc 23bd
00000130: e742 d93b f741 3fbd 2812 563d f948 323e
00000140: 66e9 acbd 3558 5cbe c430 27bd 564d ce3d
00000150: b15b 38be 99f2 1fbd 955e b43c 9735 e6bd
00000160: 6d76 05be b25c 6f3c cf01 83bd 4f82 203e
00000170: 9ad5 1dbe 7beb f0bc 298d 483e 7d8d 0dbd
00000180: 1d1a 8c3d fa73 583c ac9b cebd 8a6c 91bc
00000190: bd76 cdbd 7d9b 00bd b691 38be a1bb 9bbb
000001a0: 0585 30bd 5225 8bbd 3f25 983d e430 d83d
000001b0: cc77 e0bd d207 16be 9ff8 d53c cc42 a33d
000001c0: b40a debd 4c42 59bd fdad b33d 5538 d7bd
000001d0: 9f7b 103e 27bb 843d 3558 0b3d 5643 9cbd
000001e0: 244f 373d 184b b93c b1a1 3bbd 86c3 2abc
000001f0: 4713 113c 9d45 e1bc 61d1 c73d b64b 993d
00000200: 9891 de3a 913e 263e d00c 803c 94f9 6c3b
00000210: a1b6 87bd c79b 02bd 0a6a 9fbd 82ea f8bd
00000220: dd1e 1dbe fea3 1cbe 889a d3bd 92bd 31be
00000230: f0bd e73c e206 a6bd 6724 1d3d a9b7 83bb
00000240: 5559 3a3e c665 0bbe db3b 24be 34a4 24bb
00000250: 972c 55bc 7527 af3d 96ad 0abc 9ecf 32bc
00000260: c155 573d 50b4 ab3d 0a07 3abd 8777 ba3b
00000270: e760 65bd 569e 7dbd 729d 74bd 7979 50be
00000280: 48f3 adbd 81a5 0d3d 20ef 8cbd a8e8 233d
00000290: 796a 893c 9f3c 9ebd 3a9e 2bbe bf3d f6bd
000002a0: 1e72 1fbe 250c 85bd 586f db3d 81f6 9dbd
000002b0: 0c94 933b bee5 ffbc 3dee fbbc 94b2 083e
000002c0: 39a8 19be 467b 53bd 7394 a63d 8ca9 913b
000002d0: c944 8abd 0b72 1bb9 e143 00bd 7eb7 b63d
000002e0: 47f9 0a3e b8e9 933d 5afe b9bd a1f6 bf3d
000002f0: 3889 e6bd df44 96bc 4065 87bd 3c28 cb3d
00000300: 9161 5bbc 0c1e 3abe 75a6 02be 4a40 f73d
00000310: 6c18 d73d dcf2 67bd 6842 9e3c 1a6f 0bbe
00000320: 23a7 203c 1df8 cdbd aa20 393d 1503 303d
00000330: deec e1bd 9515 033e 16b2 ae3d a53a dd3d
00000340: f7ec b1bd 4bd9 193e 194a 803d 3b12 f9bd
00000350: d911 d53b 2824 6b3c 59cc 42be fce3 42be
00000360: 0e54 b5bc 4541 a23d b4ba 663d 3208 5c3d
00000370: b090 5cbc c451 843d 6ebc ffbd 12df 5cbe
00000380: bb36 8ebc c8c1 c7bc ecbb 82bd ba68 603d
00000390: 19b7 7b3a d0c3 77bd 28bf 283c e18a d7bc
000003a0: 3924 b83c cf06 41be 5cf9 f83d e778 003e
000003b0: bade c1bd f1f6 e13d a998 5a3e be47 3a3c
000003c0: 6003 7d3d dfca ef3d d883 5bbd 6d26 cebc
000003d0: b440 ee39 5746 203e ef0b f6bd 5e6e 0a3e
000003e0: e514 c13b 11ed 2ebe 2762 88be 976a 25be
000003f0: fb14 dd3d bb6d 25be 2209 a6bc 1d2b b4bd
-0.11918864 -0.053646937 0.07122575 -0.08302721 0.009908168 0.064144135 -0.16895775 -0.021490516
0.09568029 0.015716065 -0.037564706 -0.1771298 0.078163475 0.023420641 0.0840284 -0.032311022
0.124899186 0.09219551 0.030644393 -0.08568855 0.042007823 0.09392935 -0.102573395 -0.16690576
0.07952662 0.08625421 -0.004733948 -0.118630424 -0.10931548 0.1358068 -0.030359842 -0.06990836
0.0058437292 0.119841605 0.08339048 0.055949952 -0.05841789 -0.15947455 0.013580135 -0.008290778
-0.07897579 0.17868312 0.12569499 -0.053200644 -0.036826696 -0.08183652 -0.04029555 -0.2740408
0.13110214 -0.09852806 -0.06915642 0.11969212 -0.15048076 0.21945144 -0.11337739 -0.090630144
0.12258587 0.0031796205 0.043187443 0.043775696 0.08513252 0.08232213 0.04457401 0.035601914
-0.044942323 -0.11055269 0.053397425 0.10946065 -0.095936105 0.0063002063 0.06562866 0.017309358
-0.09244119 -0.08292427 0.08727425 -0.040005386 0.00663029 -0.04669377 0.05226341 0.1741065
-0.08442955 -0.21518023 -0.04081799 0.100733444 -0.18003727 -0.03904972 0.022017756 -0.1124069
-0.13033457 0.014609503 -0.06396829 0.15674709 -0.15413514 -0.02940916 0.19585098 -0.034558762
0.06840918 0.013211245 -0.10088286 -0.01775195 -0.10032413 -0.031398285 -0.18024334 -0.0047525917
-0.043095607 -0.06794228 0.07428979 0.105562 -0.109603494 -0.1465142 0.026119528 0.07971725
-0.10841885 -0.05304174 0.0877342 -0.10508791 0.14109658 0.06481009 0.034019668 -0.07630031
0.04475321 0.022618815 -0.045808498 -0.010422593 0.008854694 -0.027499015 0.09756733 0.07485144
0.0016980646 0.16234805 0.01563111 0.0036159502 -0.066266306 -0.031886842 -0.07783897 -0.12154104
-0.15343805 -0.15296933 -0.10332209 -0.17357472 0.028288811 -0.081067815 0.038364794 -0.0040196967
0.1819814 -0.13613042 -0.16038458 -0.0025122287 -0.013011119 0.08552448 -0.008464238 -0.010913758
0.052572016 0.08384001 -0.04541687 0.0056905183 -0.056000616 -0.06191858 -0.059720464 -0.20358838
-0.08493668 0.034581665 -0.06881547 0.0400168 0.016774403 -0.07726406 -0.16759577 -0.12023496
-0.15570876 -0.06496457 0.107145965 -0.077130325 0.0045037325 -0.03123748 -0.03075325 0.13349372
-0.15005578 -0.051631235 0.08133783 0.0044452604 -0.06751401 -0.00014824436 -0.031314734 0.08921717
0.13571654 0.07222313 -0.09081717 0.093732126 -0.11256641 -0.018343387 -0.06611109 0.099197835
-0.013389961 -0.18175524 -0.12758811 0.12072809 0.10502705 -0.056628093 0.019318774 -0.136166
0.0098054735 -0.100570895 0.045197167 0.04297169 -0.11031507 0.12801202 0.08530061 0.10802201
-0.086877756 0.15024297 0.06264133 -0.1216168 0.0065023717 0.014351882 -0.19023265 -0.19032282
-0.022134807 0.079226054 0.056330398 0.053718753 -0.013462231 0.06460908 -0.12487112 -0.2156947
-0.017360082 -0.024384394 -0.063834995 0.054787375 0.0009602174 -0.060489476 0.010299481 -0.02631134
0.02247821 -0.18850254 0.121569365 0.1254612 -0.0946631 0.110334285 0.21347298 0.011369644
0.061770797 0.117086165 -0.053592533 -0.025164807 0.00045443105 0.15651833 -0.12013995 0.13518664
0.0058923834 -0.17082621 -0.26637384 -0.16153942 0.10795017 -0.1615514 -0.020268027 -0.08797286

down2.maxpool_conv.1.double_conv.0.bias f4 [16]
00000000: a41b 17be ad12 34be 2fc9 d33d 18cf eb3d
00000010: aea9 97bd 0095 acbd ab98 533e 8a6e 083e
00000020: b86f 1abd f1fb 2cbd 34db 50bd 67e0 fa3d
00000030: af92 4c3c bb92 4bbe eae0 d5bc 18f5 c7bd
-0.14756638 -0.17585249 0.10341107 0.115141094 -0.07405411 -0.08426857 0.20663707 0.13323417
-0.0377042 -0.042232458 -0.0509903 0.122498326 0.012486144 -0.19880192 -0.026108224 -0.09763545

down2.maxpool_conv.1.double_conv.1.weight f4 [16]
00000000: bb46 753f 6cc0 7c3f 6aa5 853f 27a3 813f
00000010: be09 833f 673b 653f c507 723f 7843 4b3f
00000020: 3e43 893f b23c 903f b8a0 813f 791e 873f
00000030: ca75 873f 1ff8 5a3f ae05 923f e040 8a3f
0.9581105 0.9873111 1.0441105 1.0127915 1.0237348 0.89543766 0.94543105 0.79399824
1.0723646 1.1268523 1.0127172 1.0556175 1.0582821 0.8553485 1.1407983 1.0801048

down2.maxpool_conv.1.double_conv.1.bias f4 [16]
00000000: 28ca a43d 2e27 933c 6d98 653e 808b 503c
00000010: 1c1f 893e 6385 943d f213 013e c16f 92bd
00000020: 3367 293d 8ef7 c83b 9408 033e 0dd6 dfbc
00000030: 563a 0e3e 1e42 0ebd 93c2 103e 0c72 7c3d
0.08046371 0.017963018 0.22421427 0.012728572 0.26781547 0.07252004 0.12605265 -0.071502216
0.041358184 0.0061330264 0.12796241 -0.027323747 0.13889441 -0.034731023 0.14136724 0.0616322

down2.maxpool_conv.1.double_conv.1.running_mean f4 [16]
00000000: 96a5 6dbe 7b4a 0cbf 8947 79be 16ce f9bd
00000010: fdf7 0cbe 88e8 0ebe f51c 69bd 58d4 4bbc
00000020: 27a1 a8bd 9110 c1be ab42 ddbd aeb8 1ebd
00000030: 5161 d6be 62cc c3be c105 b4be f2de 25bf
-0.23207697 -0.5480115 -0.24343695 -0.12197511 -0.13766475 -0.13955891 -0.05691238 -0.012440763
-0.08233862 -0.37707952 -0.108037315 -0.038750343 -0.41871122 -0.3824187 -0.3516064 -0.6479331

down2.maxpool_conv.1.double_conv.1.running_var f4 [16]
00000000: 6fc7 0f3e bf24 193e 8b70 033e 0d7d 8d3e
00000010: 8f88 033e 28df 0e3e 4144 cf3d 81b5 cb3d
00000020: 8e57 053e 74f7 ba3d 0e13 e13d 574a 373e
00000030: 634d 113e 31f9 e93d e12a e13d cf45 e23d
0.14040922 0.14955424 0.128359 0.2763447 0.12845062 0.13952315 0.1012044 0.099467285
0.1302168 0.09129229 0.109899625 0.17899452 0.14189677 0.114244826 0.109945066 0.11048471

down2.maxpool_conv.1.double_conv.3.weight f4 [16, 16, 3, 3]
00000000: 5b11 813c b899 883c 3c36 27bd cbf2 cd3c
00000010: 5425 fabd 809a 28bd d0e4 943c 4405 92bd
00000020: 4d9b aabd c35c 9b3c b89b 0cbd 3f5a 503d
00000030: ed89 b93c adef 9a3d 35a4 f1bd 55af 80bd
00000040: 597a ca3d af83 c8bd 04dc 953d d282 b73d
00000050: b705 473d 7f34 94bd 4c4b 6a3d 2d1e 99bd
00000060: 28c2 85be de9c 97bd 0f61 993d 0b8a 82bc
00000070: a775 1bbe ec20 26bd 1b72 40bd 41c1 0f3e
00000080: fcdc 223d fadd 983d 40ec 463e a64c 51bd
00000090: aeab 3bbd cac4 ed3c 4372 373d 35b9 dfbd
000000a0: 3f8c f8bd 7780 bc3b 6c9b 09be b95c 64bd
000000b0: 7e95 c03c 6d3b 19bc 9f57 043e d001 753c
000000c0: 791c 1abd fed4 babd e526 333d ae11 ac3d
000000d0: da51 f03b 9b67 17bd 2be8 b73d e866 623d
000000e0: caee de3d f4b7 22be 40a7 0ebd f87d a43d
000000f0: 7072 2bbc 250d 4abd c016 82bd dba5 e3bc
00000100: 3fef 4ebc 5118 f4bc 0c2c b7bd 18da 42bd
00000110: 4b7e 103b 2913 11be fa13 d7bd 47cf 543b
00000120: 5400 e3bd 0760 34bc ccd3 08bc 3e7d 7dbd
00000130: a1c8 e43d 90f6 d3bc 3531 58bd 314b 7cbd
00000140: 41e6 bebc 8a83 0b3d 8622 4e3d 3f62 df3d
00000150: ea81 5cbd 04b2 93bd ed71 fd3d 1940 e53c
00000160: 8d1a cd3c 4e5d 5abd 636c 0fbd f06b 193e
00000170: ee67 ed3c 835a 023e 5094 1d3e c873 3a3d
00000180: 2b57 733d 18c9 95bd 9bb6 f3bd b55a 19bd
00000190: fb88 f73d eb0f 16bb c620 a23d 7ad1 223e
000001a0: de74 f53d 6135 94bc b509 523d 04bc 333a
000001b0: 3e50 c1bd ac8a c4bd 4af6 253d c677 c0bd
000001c0: 44c8 16bc e609 2e3c 9882 0a3c 73b9 213d
000001d0: b543 983d 1885 2fbd 4468 bd3d 543c 18bd
000001e0: bfc1 6c3d 5356 85bd c1dc fabd ccea 803d
000001f0: aff1 00be 7bc9 89bc 06b1 063e 17c0 30bb
00000200: 15d5 ac3c d268 7ebd 9c32 77bc 8048 1dbd
00000210: f8d2 c3bd 9850 13be 4488 d7bc ed33 2cbe
00000220: b304 2abd b9b4 503e f7ff a93d 17dd 3abe
00000230: efe2 fc3c 5e97 81bb 0dd8 2fbd 0234 8e3c
00000240: e639 1c3d 5b0c 99bd e0e7 c73d 07e4 d33c
00000250: ec63 1fbc 0c60 923d a5c0 c5bd 029e 9ebd
00000260: 21c5 b13c 2055 2cbd e24c fdba 6d8e 1d3c
00000270: d2b8 9abd 71ed 8c3d fd4a df3c 2171 3ebe
00000280: dd83 4f3c 0cfd 65bd 5231 393d d641 9bbd
00000290: 9151 063d 5a35 8dbc f944 843d eea4 9f3c
000002a0: a6fe 93bb ffa4 a7bd 4c3a d2bd 3a56 c0bc
000002b0: c707 9fbd defd c4bd bfb8 853c 112b 89bd
000002c0: 450d ddbd c946 23bd e8de 41bd 45aa 2bbe
000002d0: bfbb 4a3d e3b1 d53c d443 433d a247 993c
000002e0: e31a a4bc ac74 23bd 7065 48bd 6802 88bd
000002f0: 2a4b 203d 2a5f ecbd 08cd 083d 91bf d03d
00000300: 4c95 22be 49e1 293e 549b 7d3d 14d5 81bc
00000310: 3cfa 97bd e576 05bd c9e0 9d3c 908b 253d
00000320: 02ca c33c 53e8 b1bd 51d5 4b3b a65b 3b3c
00000330: 69fe e0bc 4a56 c3bb 608c df3b 6651 f43d
00000340: b759 adbd a05e e5bb bb16 54bd 78b0 67bd
00000350: a8b9 cabd 1ec7 73bd fc62 6c3d de54 f3bc
00000360: 6e35 873d d7ec 423d b2eb c7bc 910b 27be
00000370: fff5 123e b582 13be aeb2 c4bd 91e3 a1bc
00000380: 8286 01be 6209 883c d7f0 f5bd 0bba 343d
00000390: 038b 66bd f8f2 823d 3b1f b13c f02b a23d
000003a0: cc7c 0fbc 5db3 a63c 8bd6 88bd ae5c 2abe
000003b0: c52d e3bd 21dc f4bd 5233 b0bc 353e 253d
000003c0: c2d1 4b3d acd7 973d 0eac 24bd 871e ffbd
000003d0: 4714 6a3d e248 0b3e 40bc 2bbd 0f23 413d
000003e0: cbfa bd3d 2e6d 6b3c 6503 1dbd f2bf d13d
000003f0: 6b2b a23d aed0 84bd 2a47 5c3d 374a c3bd
0.015755346 0.016674861 -0.040823206 0.025140187 -0.12214151 -0.041162968 0.018175513 -0.071299106
-0.083304025 0.01896513 -0.034328192 0.050867315 0.022648776 0.07565246 -0.11798898 -0.06283442
0.09886617 -0.09790742 0.07317355 0.08960499 0.048589434 -0.07236575 0.057200715 -0.07476459
-0.26124692 -0.07402967 0.074892156 -0.015934965 -0.151816 -0.04055874 -0.04698382 0.14038564
0.03976153 0.07464214 0.1942606 -0.05109849 -0.045818023 0.0290245 0.044786703 -0.10923997
-0.12136125 0.005752619 -0.13438195 -0.05575249 0.023508783 -0.009352547 0.1292405 0.014954045
-0.03762481 -0.09122656 0.043738265 0.0840181 0.007333976 -0.03696404 0.089798294 0.05527392
0.10885389 -0.15890485 -0.03482747 0.08031839 -0.010464296 -0.04932894 -0.063519955 -0.027789047
-0.012630283 -0.029796751 -0.08943948 -0.04757127 0.0022047933 -0.14167465 -0.10501857 0.003247218
-0.11084047 -0.011009223 -0.008351278 -0.06188702 0.111710794 -0.025874406 -0.052781302 -0.061595146
-0.023303153 0.034060992 0.050325893 0.10907411 -0.053834833 -0.07211688 0.12375245 0.027984666
0.025037074 -0.05331164 -0.035015475 0.14982581 0.028980222 0.1272984 0.15388608 0.045520574
0.0594093 -0.07313746 -0.119000636 -0.03744002 0.12086674 -0.0022897671 0.07916407 0.15900221
0.11985181 -0.01809186 0.05127879 0.00068563246 -0.09439133 -0.09596762 0.040518083 -0.09397845
-0.0092030205 0.010622477 0.008453988 0.0394835 0.07434789 -0.042851537 0.09248403 -0.03716691
0.05780196 -0.06510606 -0.12249137 0.06294784 -0.12592195 -0.016819706 0.13153467 -0.0026969963
0.0210977 -0.062111683 -0.01508775 -0.03839922 -0.095617235 -0.14386213 -0.026310094 -0.16816683
-0.041508388 0.2038144 0.083007745 -0.18248402 0.03086993 -0.003954812 -0.04293065 0.017358784
0.038141154 -0.0747306 0.097610235 0.025865568 -0.009728413 0.07147226 -0.09655885 -0.07744981
0.021700444 -0.04207337 -0.0019325281 0.0096164765 -0.07554783 0.06881226 0.027257437 -0.18597843
0.012665716 -0.056149527 0.04521305 -0.075809166 0.03279263 -0.017237354 0.06458468 0.019487824
-0.0045164404 -0.081857674 -0.102650255 -0.023478616 -0.07765155 -0.09618734 0.016323445 -0.066976674
-0.107935466 -0.039862428 -0.04733172 -0.16764171 0.049495455 0.0260858 0.047672108 0.018710915
-0.020032352 -0.03990619 -0.048924863 -0.06641084 0.039134182 -0.115415886 0.033398658 0.101927884
-0.15877265 0.16589846 0.06191571 -0.015848674 -0.07420775 -0.03258409 0.019272225 0.0404163
0.023900036 -0.086868905 0.0031102488 0.011435425 -0.027465062 -0.005961214 0.006822154 0.11929588
-0.084643774 -0.0069998056 -0.05177949 -0.056564778 -0.09898692 -0.059516065 0.057711586 -0.029703554
0.06601988 0.04758915 -0.02440438 -0.16313006 0.14351653 -0.1440533 -0.09604393 -0.019761832
-0.12648967 0.016606037 -0.12008827 0.044122737 -0.056284916 0.06393999 0.021621337 0.07918537
-0.008757781 0.020349199 -0.06681546 -0.16636917 -0.11092714 -0.11956049 -0.021508846 0.04034253
0.049760588 0.07414183 -0.040203147 -0.124569945 0.057148244 0.13602021 -0.041927576 0.047152575
0.092763506 0.014369292 -0.038333315 0.10241689 0.079184376 -0.06485115 0.053778805 -0.0953564

down2.maxpool_conv.1.double_conv.3.bias f4 [16]
00000000: ea9a 0dbc 5c93 e53d 59b3 f63d 5604 083e
00000010: a119 6abd 36a5 55bd 1b75 843d 5078 dd3c
00000020: 3123 b1bd e36c 143b 1fd4 c8bb ccd5 f8bb
00000030: eb86 973d 62f6 c43d fdcd 11be a7c5 d0bb
-0.008642891 0.11209747 0.120459266 0.13282904 -0.057153348 -0.05215951 0.064676486 0.027034909
-0.0864929 0.002264791 -0.0061288024 -0.007593846 0.073987804 0.09617306 -0.14238735 -0.0063712182

down2.maxpool_conv.1.double_conv.4.weight f4 [16]
00000000: 277c 883f 4b2b 803f 1970 7b3f c386 573f
00000010: 56d9 883f 11ba 613f ed39 733f 62e5 6b3f
00000020: fa91 763f a2e3 793f 9a18 7f3f 5981 783f
00000030: a4c9 603f 099a 703f 5e64 853f 8b4a 893f
1.0662888 1.0013212 0.9821792 0.84190005 1.0691326 0.8817454 0.9501026 0.92146885
0.9631649 0.97612965 0.99646914 0.9707237 0.8780768 0.9398504 1.0421255 1.0725874

down2.maxpool_conv.1.double_conv.4.bias f4 [16]
00000000: 01fd ac3d c8e0 ed3b 17e1 c7bd b342 65bd
00000010: d6d3 90bd d769 3cbe 6cca 14be ae37 ecbd
00000020: cc70 f63c 11fc 39bd 5c56 1fbc a7f6 04be
00000030: 00cf 7bbe a2b6 1bbe 7d1b 30be f59e ecbd
0.08446694 0.007259462 -0.09759729 -0.055971812 -0.070716545 -0.1839975 -0.14530343 -0.115340576
0.030083083 -0.045406405 -0.0097251795 -0.12984715 -0.24590683 -0.15206388 -0.17197986 -0.11553756

down2.maxpool_conv.1.double_conv.4.running_mean f4 [16]
00000000: 7e68 97be da29 1cbf 3042 54bf a752 e63e
00000010: da91 12bf d824 7bbe 0347 e5be 6846 10bf
00000020: 5c1d 53bf b7cf 48bf 9105 cbbe 6270 19bf
00000030: 26cd d1be 63ce 073f 2790 c3be 89f5 45be
-0.2957191 -0.6100136 -0.82913494 0.44984934 -0.572538 -0.24525774 -0.4478074 -0.5635743
-0.82466674 -0.7844195 -0.39652684 -0.5993711 -0.40976828 0.53049296 -0.38195917 -0.19331945

down2.maxpool_conv.1.double_conv.4.running_var f4 [16]
00000000: 8d55 473f 3b7d b13e 63e7 163f e13e 153f
00000010: c521 483f 1c95 073f f900 e73e 99b0 f73e
00000020: ab98 1f3f abac 093f 8f68 0c3f 0522 3c3f
00000030: acf6 a93e 7e1d 7c3f 0b45 023f c302 c33e
0.77864915 0.34665856 0.5894682 0.5829907 0.7817653 0.529619 0.4511793 0.4837692
0.6234233 0.53779095 0.54847044 0.7348941 0.33196008 0.984825 0.508866 0.38088045

down3.maxpool_conv.1.double_conv.0.weight f4 [32, 16, 3, 3]
00000000: 62d0 fe3d 304f ce3d ec75 823d 6bd0 953c
00000010: 450e 753d 3046 033d 0d9c 87bd 714f a63c
00000020: b672 4f3d 6cc1 72bd 2315 d13d 2bba 9bbd
00000030: fa17 eabc 6903 203c 2e5a a4bd 6cd7 983c
00000040: 5d85 ebbd 721b 61bd 7719 ad3d a5ec e03b
00000050: 939e 45bd 018f fdbc b3f9 34bd 06c4 283d
00000060: 8b22 093d ca75 1cbd 9be8 dc3c 552a 09be
00000070: 3a48 bebd b35a e6bc 84be 54bc 103c 453d
00000080: 8f1b 763c 1517 c63d c664 cd3c c874 bb3b
00000090: 45ef b2bd 23e8 84be 1188 a33d 6dc6 70bd
000000a0: 6444 813c eafe 203e 1839 a13d aaab 943d
000000b0: c905 16be 2f9d 6dbd 9c41 71bd 0294 a13d
000000c0: 64fb aebc 3fd5 8e3d 0876 923d 23c5 883d
000000d0: 362a 0b3d 9f9c abbd 28b9 cdbb a56d acbc
000000e0: a2a0 bc3b 52a4 27bc 0ae1 8bbb ee4c ccbc
000000f0: 703a fcbc 44bb 313d 3a76 7f3d 427b 073d
00000100: 70d3 0cbc e2a0 9f3a 629e a3bd 50d7 9fbc
00000110: 3a3b 5cbd 45a3 023d 631f 7bbc a7d0 303c
00000120: 4da4 a73d 0180 cf3d 78c8 ac3d 801a 4c3d
00000130: 5d2d 1ebd 936f cb3d c3fa 803d fc2b e9bd
00000140: 8378 4f3d 5a3e bcbd 77d1 2bbe 839f 913d
00000150: 9ca6 e2bc 8a12 913c 76be 4c3e e850 203c
00000160: dfcf ba3d ea50 ee3c 5919 5b3d b9ed 21be
00000170: a400 9fbd f095 4dbb 4003 42bd a817 65bd
00000180: 4d66 e43c ee32 823a dc2b 07bd 1d51 f9bd
00000190: 3598 13bd e588 ba3d ed68 6cbc 0d4f 82bc
000001a0: 8017 093d 8e42 99bd 459f 66bd 9834 943d
000001b0: f635 2dbd 0ade 49bd 0824 71bc 9b27 edbc
000001c0: 0f9a f6bb e430 a23d 29a9 313d e524 403d
000001d0: 05fe d53b 5e56 2abc 4c5f 003e b4ef 3cbd
000001e0: 5a2a 743d 2851 4c3d 8786 c5bd 2f6e 903d
000001f0: 97cc 12be 66a2 febc 04eb de3d f73f 90bd
00000200: 8796 903d 1720 5ebd d1cf 333e 6db6 2a3e
00000210: cf77 2a3d ddd4 4dbd a988 393e 9eae 03bd
00000220: 4025 8f3d 5995 20be b1fb 4bbd 4862 1f3d
00000230: 9e61 0abe 9d32 08bc bee1 24bd e17a 103e
00000240: 78ed 29be fc55 2bbe 712a 06be e2e4 9f3d
00000250: 515b 0abe c6d2 8bbc ac6f 29bd 8fec 00be
00000260: 9f38 b9bc 3460 8fbc 10ea 11bd a6da 693a
00000270: b198 74bd 9ce9 a83d 3e38 0a3e 53df a63d
00000280: 7f23 633c eab8 2bbd 3d60 303c 9874 343d
00000290: 2e31 0f3a 0377 0e3e 140d e9bc c76d e2b9
000002a0: d745 ecbc 5b98 2f3d 47f9 09be f381 813d
000002b0: 79e1 14bb b7d4 77bd 9f3c 553d ee7d 9e3c
000002c0: fa4b d4bd 1b49 753d 1ab3 ef3c 12f8 13be
000002d0: b562 fb3b c2fa 7e3c 8188 813d f9a9 00be
000002e0: fb6d 94bd b494 533d 9609 c33d 166f e8bd
000002f0: fad5 6d3c 55cd 1e3d 2e5e bcbd 5850 e33c
00000300: 0971 d73d cf8f e4bd 086c 98bd a360 41bc
00000310: 6466 883d 59fc bfbd cb2e 50bd 25d9 a43b
00000320: 5452 fa3d c3b0 fabd 87f5 e43c 52b7 6dbd
00000330: aedf febd 4692 b03d 2835 ab3c c41b c3bc
00000340: 4f3f e13d fd54 d0bd cfe6 57bb 630d 01bd
00000350: 05f0 77bc 8df5 72bd f95b 5f3c afa4 c03c
00000360: ac4b 93bd 5016 7a3c d79b 173d a353 a739
00000370: 205b 23bd 8c02 8abc 512b d73c 59d9 71bc
00000380: abce 23be 9356 1c3c 7ed5 0c3e 89b3 40bd
00000390: ff5d f73d 9b50 85bd 43f9 edbd f2e1 a0bc
000003a0: d162 d8bc e496 45bd 99cb c8bc 7512 74bd
000003b0: ca5e 38bb 3702 95bc 402c afbd 57f4 febd
000003c0: d90f f3bd 67f5 0cbd 6716 7d3c 4b17 973d
000003d0: 0884 20bc 3604 13bb 2408 c63d a1c6 b53d
000003e0: 8ae4 9a3b ac47 c5bd 9a10 6abd 20db 95bd
000003f0: ed01 023e b922 49bd 23f4 17be 1657 b3bc
0.124420896 0.100736976 0.06370148 0.018287858 0.05982806 0.032049358 -0.06621561 0.020301552
0.050646506 -0.059266493 0.1020911 -0.07603868 -0.028575886 0.009766438 -0.08025013 0.018657409
-0.115000464 -0.054957815 0.08452123 0.0068641477 -0.04824693 -0.030951979 -0.044183444 0.041202568
0.03348021 -0.03819827 0.026966384 -0.13395055 -0.0929112 -0.02811942 -0.012984876 0.048152983
0.015021219 0.09672371 0.025072467 0.0057207085 -0.08737043 -0.25958356 0.07984937 -0.058782984
0.015779682 0.15722242 0.07872218 0.07259305 -0.14650644 -0.05801123 -0.05890046 0.078895584
-0.021360107 0.06974267 0.07151419 0.06678226 0.033975802 -0.083794825 -0.006278176 -0.021048376
0.0057564536 -0.010232048 -0.00426877 -0.024939027 -0.030789584 0.04339148 0.06236861 0.033076532
-0.0085953325 0.0012178684 -0.079891935 -0.019511849 -0.05376742 0.031893987 -0.015327307 0.010791934
0.08185635 0.10131837 0.08436674 0.04982996 -0.03861748 0.099333905 0.06297829 -0.113853425
0.05065204 -0.0919158 -0.16779123 0.071105026 -0.027667336 0.017709035 0.1999453 0.009784915
0.091216795 0.029091317 0.05349097 -0.1581334 -0.07763794 -0.0031369887 -0.04736638 -0.055930763
0.027880812 0.0009933391 -0.033000812 -0.12173674 -0.036033828 0.09108142 -0.014429313 -0.015906835
0.033469677 -0.074833974 -0.056304235 0.07236594 -0.04228779 -0.04928402 -0.014718063 -0.02894955
-0.0075256894 0.079194814 0.043374214 0.046910185 0.0065305256 -0.010396568 0.12536353 -0.046127036
0.059610702 0.049882084 -0.096448 0.07052266 -0.14335857 -0.031083297 0.108846694 -0.0704345
0.07059961 -0.054229822 0.17559744 0.16671152 0.041618165 -0.05025183 0.18118538 -0.03214895
0.06989527 -0.15681972 -0.04980058 0.038912088 -0.135138 -0.008312848 -0.040254347 0.14109375
-0.16594493 -0.16732019 -0.13102128 0.07807328 -0.13511397 -0.017068278 -0.041366264 -0.1259024
-0.022610007 -0.017501928 -0.03562361 0.0008920826 -0.05971593 0.082476825 0.13498017 0.081480645
0.013863443 -0.041924395 0.0107651325 0.044056505 0.00054623454 0.13912587 -0.028448619 -0.0004318787
-0.028841896 0.042869907 -0.13473998 0.06323614 -0.00227174 -0.060505595 0.052059766 0.019347157
-0.10366054 0.059884172 0.029260207 -0.144501 0.007671679 0.015562715 0.06324864 -0.1256484
-0.072475396 0.051655486 0.09523313 -0.11349313 0.014516348 0.03877004 -0.09197651 0.027748272
0.105196066 -0.11160242 -0.0744248 -0.011802825 0.066601545 -0.09374303 -0.050825875 0.0050307685
0.12222734 -0.12240746 0.027949108 -0.058036156 -0.12445007 0.086216494 0.02089937 -0.02381695
0.10998403 -0.1017246 -0.003294397 -0.031506907 -0.015132909 -0.059316207 0.013632768 0.023516027
-0.07192168 0.015264109 0.037013855 0.00031915036 -0.039881825 -0.016846918 0.026265772 -0.014761292
-0.15996806 0.009542125 0.13753316 -0.047046218 0.12078475 -0.06509515 -0.116198085 -0.01963899
-0.026414307 -0.048239604 -0.024511145 -0.059587914 -0.002813267 -0.018189533 -0.08553362 -0.12448948
-0.11868257 -0.03441372 0.015447236 0.0737749 -0.009797104 -0.002243293 0.096695215 0.08875776
0.004726951 -0.09632811 -0.05714474 -0.073171854 0.12696047 -0.04910538 -0.14839225 -0.021892112

down3.maxpool_conv.1.double_conv.0.bias f4 [32]
00000000: 2930 2e3d c5aa 57bd ca48 a53c 44cc 853c
00000010: 7397 363b 170a e5bd a54d ff3c 5caa 4b3d
00000020: 23a9 e7bc ff11 5abc e845 e1bd b8dc 023e
00000030: 21fc f4bd 6531 eebd 2e22 ef3c c8aa 913d
00000040: d2eb 8bbd 9a02 493d f932 47bd 0fc5 343c
00000050: 2a1e 43bc bfa4 9fbd d0c7 12bd 0f35 0bbc
00000060: f559 e2bc 75aa cebd 3977 8a3c bd1f cabd
00000070: 8e7b 01bd 74c6 6b3d 4742 03bd 71eb 43be
0.042526398 -0.052653093 0.02017631 0.016332753 0.0027861267 -0.11183565 0.031164953 0.049723014
-0.028278893 -0.013309955 -0.10999662 0.1277951 -0.11962152 -0.11630515 0.029191103 0.07112652
-0.068320885 0.049074747 -0.048632596 0.011033311 -0.011909047 -0.07795095 -0.035835087 -0.008496537
-0.027630785 -0.10091106 0.016902553 -0.09869335 -0.03161197 0.057562307 -0.03204563 -0.19132783

down3.maxpool_conv.1.double_conv.1.weight f4 [32]
00000000: a876 953f e5e4 793f 6cea 683f 40bf 6e3f
00000010: d288 843f f8ce 723f 43ce 933f 1a1d 7c3f
00000020: 47f5 903f 87eb 823f c23e 863f f5d7 843f
00000030: b2d3 6b3f e319 903f 5f4d 6b3f 9ade 693f
00000040: b1b7 743f ed4d 853f 6a86 853f f926 7b3f
00000050: 2f9b 7b3f 8f07 873f 2dbb 803f 89a6 7f3f
00000060: 5329 843f ebda 813f a069 8b3f 7218 733f
00000070: cc70 653f 7a01 803f c901 853f 4627 853f
1.1676836 0.9761489 0.909827 0.93260574 1.0354254 0.9484706 1.1547321 0.98481905
1.1324853 1.0228127 1.0487902 1.0378405 0.92119896 1.12579 0.91914934 0.9135529
0.9559279 1.0414406 1.0431645 0.9810634 0.98283666 1.0549182 1.0057122 0.9986349
1.0325111 1.0144933 1.0891609 0.94959176 0.8962524 1.0000451 1.039117 1.040261

down3.maxpool_conv.1.double_conv.1.bias f4 [32]
00000000: b255 3bbd fdc3 dabc c40b 3bbe 4ea3 dbbc
00000010: d8de 513d 3853 e9bd ccff 863d 2bfe 63bd
00000020: 4222 b93d 0c9b 2c3d d263 823d 4c63 55bc
00000030: 4b5c e4bd 5478 323e b007 3bbd 3ea7 a5bc
00000040: 1126 e6bd 5691 a9bc 1728 cc3d bb6f dc3c
00000050: 0f5c 91bc eaee 09bb 97c9 413e 167e 4e3c
00000060: 16d5 51bc 6973 97bc 7049 30bd a165 e3bd
00000070: cee1 0fbe 3bb2 3dbe 9395 103d e668 c33d
-0.045736022 -0.026704783 -0.18266207 -0.026811268 0.05123791 -0.11392826 0.06591758 -0.055662315
0.09039737 0.04214005 0.063666955 -0.0130241625 -0.11150416 0.17428714 -0.04566163 -0.020221349
-0.11237729 -0.020699184 0.09968584 0.026908746 -0.017744092 -0.0021046945 0.18924557 0.012603303
-0.012807151 -0.018487649 -0.043038785 -0.111033686 -0.14050981 -0.18525021 0.035298895 0.09541492

down3.maxpool_conv.1.double_conv.1.running_mean f4 [32]
00000000: 620c 82bd c952 9cbf 63b5 a2bf d90e ffbe
00000010: 3fbc 17bf 06ed 14bf ec29 a5be 4d4b 90be
00000020: a86f b4bf ef73 a5bd dc91 2fbf c2de 023e
00000030: 7bcf 2fbf 1488 ffbd 6d43 083d 95d9 c63d
00000040: 8ba6 163f b043 d9be fa15 053f a416 f6be
00000050: 847e a4bf fa98 573e 31ce ebbe a2e2 003f
00000060: 7fcf 85bf 81ac 993e 9b9f 8f3e 6c7e 383c
00000070: b315 c23e 0f41 0f3e a414 aebf 2439 17bf
-0.06350018 -1.2212764 -1.2711605 -0.49816015 -0.59271616 -0.5817417 -0.32258546 -0.2818245
-1.4096575 -0.08078753 -0.6858194 0.12780288 -0.68675965 -0.12477127 0.033267427 0.09709469
0.58847874 -0.42434454 0.5198666 -0.48064148 -1.285111 0.2105445 -0.4605575 0.50345814
-1.0453948 0.30014423 0.28051457 0.01126061 0.3790718 0.13989662 -1.3600049 -0.59071565

down3.maxpool_conv.1.double_conv.1.running_var f4 [32]
00000000: 31dc 9d3e 75ed 323f 0f44 323f 58cd ea3f
00000010: 25ea 793f 13bb 533f 1838 833f 04cc b83f
00000020: 7e22 0f40 fbf1 973f 6e22 b63f 8d4c 8c3f
00000030: d055 363f 9bdd 383f 35ff 083f 217a 293f
00000040: 6787 433f d631 803f 69d1 3a3f 9f6f 9c3f
00000050: 85c1 ad3f 308e 683f 240c 863f a2b7 aa3f
00000060: 58ce 3e3f 5b20 2a3f b3be 943f e03f 423f
00000070: 8bd3 9f3f 249b 343f 524d 843f 2587 c63e
0.30832055 0.6989358 0.696351 1.8343916 0.976229 0.8270733 1.0251493 1.4437261
2.2364802 1.1870722 1.4229257 1.0960861 0.7122469 0.72213143 0.53514415 0.6620198
0.7637848 1.0015209 0.72975785 1.2221564 1.3574682 0.9084196 1.0472455 1.333729
0.74533606 0.6645562 1.1620697 0.75878716 1.2486433 0.70549226 1.0336096 0.38774982
