python3/star_removal/saved/2021_12_06__16_17_18_NF_4_LR_0.001_EP_2/nf_4_LR_0.001_EP_2.pth (torch, 318977 bytes, 109 tensors)

inc.double_conv.0.weight f4 [4, 1, 3, 3]
000000 cb d0 6f 3c 13 33 97 be f4 3e 1d be 84 56 94 3d
       0.0146371825 -0.29531154 -0.15356046 0.07243064
000010 a9 49 ae 3e 9e d8 8c 3e 0f 33 17 3e 01 c5 45 bd
       0.34040573 0.27509016 0.14765571 -0.04828358
000020 a6 0a f8 3d 71 0f 8b 3e 6b 5f 60 3e a6 c7 96 be
       0.12111406 0.27160218 0.21911399 -0.29449195
000030 fe 2d 5b be 6c 77 af be 3f 17 a8 3e 0d 47 32 3e
       -0.21404263 -0.342708 0.32830235 0.17409916
000040 b7 96 74 be fb f0 28 3e b2 7f d5 3d ad f0 68 3e
       -0.23885618 0.16498177 0.104247466 0.2274806
000050 35 1c 76 3e fa ae a3 be 12 79 6e be ca fa de 3d
       0.24034198 -0.31969434 -0.23288372 0.10887678
000060 8b f4 3e 3e 1e 5d 8d be 64 13 98 3d 16 f1 82 bc
       0.18647973 -0.27610105 0.074255735 -0.0159841
000070 e3 7c 12 be 1f f6 b8 be 45 6c d0 3d 44 3a 26 be
       -0.14305453 -0.36125275 0.10176901 -0.16233164
000080 06 1e 76 3d c7 49 ef 3d 1d 67 ac be 60 12 ee 3d
       0.060087226 0.11683994 -0.3367242 0.116245985

inc.double_conv.0.bias f4 [4]
000000 61 59 ab be 03 79 72 3e 51 1a a7 be b0 0e a0 be
       -0.33466628 0.23678975 -0.32637265 -0.31261206

inc.double_conv.1.weight f4 [4]
000000 78 33 80 3f c4 2b 80 3f d8 3c 78 3f 38 f6 5c 3f
       1.0015707 1.0013356 0.9696784 0.863132

inc.double_conv.1.bias f4 [4]
000000 55 53 9e 3e 6a dd 9d 3c 15 e9 b8 3d 17 34 0b be
       0.30922952 0.019270618 0.09028832 -0.1359409

inc.double_conv.1.running_mean f4 [4]
000000 97 f6 7c 43 c7 ed 61 c0 8b a8 c2 41 f0 e1 c5 c3
       252.96324 -3.5301378 24.332296 -395.76514

inc.double_conv.1.running_var f4 [4]
000000 b8 17 af 47 6f 6c ef 46 6b ce 16 47 27 38 3b 48
       89647.44 30646.217 38606.418 191712.61

inc.double_conv.3.weight f4 [4, 4, 3, 3]
000000 b5 7f 4a 3d 0e 58 e9 3d 85 cc de bd c4 3e e3 bd
       0.049438197 0.11393748 -0.10878853 -0.11095956
000010 12 68 87 3d 00 aa 9f bd ce eb de 3d 90 93 0c be
       0.06611647 -0.07796097 0.1088482 -0.13728166
000020 48 80 0c be ba 98 fd bc 1e 4c 1c 3e cf 1f d2 bb
       -0.1372081 -0.030956615 0.15263411 -0.0064124833
000030 3f 77 89 be d7 c3 ef ba 08 e5 5c be 39 b6 28 bd
       -0.2684879 -0.0018292618 -0.21571743 -0.041189406
000040 0b e2 db 3d 00 50 e3 3c 87 c8 eb 3c e4 ed 35 be
       0.10736474 0.027748108 0.028782142 -0.1776653
000050 71 f7 ce 3c 4e 13 40 3e 97 27 85 3d eb 09 5d 3d
       0.025264474 0.18757364 0.06501692 0.053964537
000060 ac 8f b2 bc 9b 08 59 3d 72 fd d2 bd 04 d8 e7 3d
       -0.021797024 0.052986722 -0.10302247 0.113204986
000070 25 24 d7 bd cc 26 8f 3d 80 bb 81 3d 48 d2 71 3d
       -0.10504941 0.06989822 0.06334591 0.05903843
000080 6d cb 87 3b 77 97 6b bc 25 47 5a 3e b2 21 0b bd
       0.0041441233 -0.014379374 0.21316202 -0.03396768
000090 42 32 9a 3d 03 45 74 3c 04 e1 35 bd 6c 12 51 bc
       0.07529117 0.014909032 -0.044404045 -0.01276074
0000a0 06 0a 0e 3e f4 6f 35 be c6 d1 39 3e 7f 66 96 3d
       0.13871011 -0.17718488 0.18146428 0.07343768
0000b0 c9 af 0c bc 52 09 6a bd 09 f0 5a bd 2e f8 0b bd
       -0.008586832 -0.057137795 -0.05345157 -0.03417223
0000c0 c4 52 0d be 4d ff 1c bd 5c af bd 3c 1c 9e 74 be
       -0.13801104 -0.03832941 0.023154907 -0.23888439
0000d0 68 ef f5 3c 4d 9c 00 bd 31 9e 37 3c 7a 3f a0 3c
       0.030021384 -0.03139906 0.011207149 0.019561518
0000e0 74 45 3c bd b5 64 1d be 79 6f a1 3c 71 8e bb 3c
       -0.045964673 -0.15370448 0.019706475 0.02289507
0000f0 ef a8 3d bd 32 40 ef bd 85 64 0f 3e 10 d8 d7 3c
       -0.046303686 -0.11682166 0.14003189 0.026348144
000100 97 4d 96 bd 9e fc 1c be b9 2d 01 be 79 d4 15 be
       -0.07339018 -0.15330741 -0.12615098 -0.14631833
000110 ad cf 3c bc 9e 8e 89 3d 0f 84 ca 3b b3 80 ab bd
       -0.011524123 0.06716655 0.0061802934 -0.08374157
000120 fe 96 4a bd 73 0d f8 3d 70 41 b8 3d 80 f4 28 bd
       -0.049460404 0.1211194 0.08996856 -0.0412488
000130 44 4c 9d 3d af 23 a5 bd 3d 9d 79 3d 35 9f 08 be
       0.07680562 -0.08063447 0.06094097 -0.13341983
000140 39 32 95 bc fa 95 27 bd e9 eb 01 bd 88 c5 45 3d
       -0.018212425 -0.040914513 -0.031719122 0.048284084
000150 55 2c 6e bc b3 07 27 bc e8 32 76 3d 3f a2 29 bc
       -0.014536937 -0.010194707 0.06010714 -0.010353624
000160 a8 47 39 bd fb 30 22 3d a9 7d 9a 3d 35 f0 c3 bd
       -0.045234352 0.039597493 0.07543499 -0.095673
000170 a5 2b c7 3d f3 60 87 bd 50 76 cc bd 30 8c ea bd
       0.097251214 -0.066102885 -0.09983504 -0.1145252
000180 6d b4 7a 3b 91 22 15 3e 72 1e 2a bd ed 2b 2e 3d
       0.0038254515 0.14563967 -0.04153294 0.04252236
000190 30 a0 d3 bd 14 5c 0e 3d b7 0a 32 bd c1 02 5b 3c
       -0.10333288 0.03475578 -0.04346725 0.013367356
0001a0 49 b3 d8 3d 1b 32 f5 3c f2 e7 cc bd d1 56 c1 bb
       0.10581071 0.029931119 -0.100051776 -0.005900242
0001b0 e7 a9 39 bd e6 2a 02 be f1 6f 0e be c6 f6 2a 3e
       -0.045328047 -0.12711677 -0.1390989 0.16695699
0001c0 de cd 0c 3e 0d d9 72 bd 53 76 42 3e 01 93 ea bc
       0.13750407 -0.059289027 0.1899045 -0.02863455
0001d0 8d 51 89 3b f8 9a 80 3d 03 07 3e 3c 3b 72 32 3d
       0.00419063 0.06279558 0.011598351 0.04356597
0001e0 54 38 e1 3d 24 dc 1b 3d d0 c8 5e bd 90 1c 41 be
       0.10997072 0.03805174 -0.05439073 -0.18858552
0001f0 d9 84 28 3d e3 23 ad bc 5d 7e bb bd ae 1b f2 bc
       0.04114232 -0.021135276 -0.09154961 -0.029554214
000200 6c 66 cc bd f1 5c 0e be 3e 79 bf bd c5 fd a8 3d
       -0.09980473 -0.13902642 -0.09349297 0.08251528
000210 ff f9 46 3e 4a b9 4b bd a3 b0 d5 3d 43 31 f8 bd
       0.19431303 -0.049737252 0.104340814 -0.12118771
000220 fc eb e5 3d 15 70 a4 3d 5e ce c5 bd de 49 28 bc
       0.11226651 0.080291905 -0.09658502 -0.010271518
000230 58 58 03 3d f9 cb 67 3d ee 9d 73 3d 35 0d bb bd
       0.032066673 0.056591008 0.059476785 -0.091333784

inc.double_conv.3.bias f4 [4]
000000 9f e0 22 bd b1 d7 0b be d1 de 13 3e 1b cf d1 bd
       -0.039764997 -0.13656498 0.14440466 -0.1024458

inc.double_conv.4.weight f4 [4]
000000 ae 1b 7e 3f 65 5a 87 3f a7 4b 6d 3f 5e 71 8c 3f
       0.99260986 1.0574461 0.9269356 1.0972097

inc.double_conv.4.bias f4 [4]
000000 c1 75 ac 3c 1d 7e 7f 3d 10 35 e0 bd f4 ac 62 3e
       0.021052243 0.06237613 -0.10947621 0.22136289

inc.double_conv.4.running_mean f4 [4]
000000 19 a7 cc bd e3 06 95 be ca 98 f2 3d 89 cc 93 bd
       -0.09992809 -0.29106817 0.118455485 -0.07216746

inc.double_conv.4.running_var f4 [4]
000000 45 ed 16 3e fb 26 a7 3d 31 53 2b 3c 65 9a 9c 3d
       0.14738949 0.08161732 0.010456846 0.07646636

down1.maxpool_conv.1.double_conv.0.weight f4 [8, 4, 3, 3]
000000 3e a0 79 3d 9b ca b0 3b 11 cd 8e be e3 1d 5d 3d
       0.060943834 0.005395246 -0.27890828 0.05398358
000010 0a 4e 10 3e 58 ce c3 3d b5 af 04 3e 3b 22 bc bb
       0.1409227 0.09560841 0.12957652 -0.0057413853
000020 33 19 24 3e 03 9d c8 3c c5 b5 fb bc 0e de e7 bb
       0.16025238 0.024488932 -0.030726323 -0.0070760315
000030 03 81 aa bd 62 92 2f 3d 4b 2b 1a 3e c4 d1 92 bd
       -0.08325388 0.04286421 0.15055577 -0.07168916
000040 a9 10 8f bd 63 4c 92 bd ab b5 f9 bd 68 51 b5 bd
       -0.069855995 -0.07143476 -0.121928535 -0.08853418
000050 66 76 42 be 28 ff aa bd 6c 74 13 bc 8b 89 9c bd
       -0.18990478 -0.083494484 -0.008999925 -0.07643422
000060 57 fe ec bd c6 14 5a 3d db 56 f2 3c a9 16 da bd
       -0.11571949 0.053242467 0.029582432 -0.10648853
000070 f6 1c bc 3d 18 ff 4e 3e cc d2 c4 3d 54 fe a1 bd
       0.09185211 0.20214498 0.09610519 -0.07909837
000080 9a 81 44 3e 1a 56 17 bc a9 6f 73 3b 40 3c 0d be
       0.19190064 -0.009236837 0.0037145412 -0.13792515
000090 f4 17 95 bc 51 b3 95 bd 9b 90 86 be a9 45 ba bc
       -0.018199898 -0.073095925 -0.262822 -0.022738295
0000a0 0e ec 34 3e e2 41 8a be ae 76 90 bd c3 de 00 bc
       0.17668173 -0.2700339 -0.07053886 -0.0078656105
0000b0 dc 5a 04 3d 71 fe d1 bc 05 e3 ac bc 20 9a f4 bd
       0.032313213 -0.025634022 -0.021104345 -0.119434595
0000c0 9b 36 a0 bc 6c 4c b8 bd 74 d7 63 3d 19 38 18 be
       -0.019557288 -0.08998951 0.055625394 -0.1486515
0000d0 c5 ae ce 3c 43 af 92 bc fd 27 d2 3c 00 4c 54 be
       0.025229821 -0.017905837 0.025653834 -0.20732117
0000e0 4f 7c 52 bb 42 a7 27 3e bb 8f 46 be c5 47 bd 3d
       -0.003211755 0.16372398 -0.19390766 0.092422046
0000f0 4f 4b 56 3d 40 cd 97 ba 4e f1 d0 bc 6a 0d 67 bd
       0.052317914 -0.0011581555 -0.025505688 -0.056409277
000100 96 ec af 3d aa a9 cd bd 12 e2 15 be a0 59 43 3e
       0.08590047 -0.100421265 -0.1463702 0.19077158
000110 ce 78 ae bd 49 1b 49 3c 4d 4c 57 be 62 92 1c be
       -0.085191354 0.012274572 -0.210252 -0.15290216
000120 df f0 d9 3b 50 2b 97 bd be d0 14 be a2 31 e7 bd
       0.0066510285 -0.07381308 -0.14532754 -0.112887636
000130 24 44 fd bc 17 5d f5 bd 12 1e 8c bc d3 08 f7 bd
       -0.030916281 -0.11980646 -0.017104182 -0.1206223
000140 61 15 5b 3d 20 e9 fb 3c 4c 93 45 bd 9c b0 8e 3d
       0.053487185 0.030750811 -0.048236176 0.06967279
000150 43 27 22 ba b3 f3 01 be 97 29 2b 3e 26 fd ba bd
       -0.000618566 -0.1269062 0.16715084 -0.091303155
000160 f8 52 91 bd ac 37 0b 3e 54 88 09 3d f9 3a aa 3d
       -0.07095903 0.13595456 0.03357728 0.083120294
000170 d1 a9 1d 3c 03 56 08 3d ae 8a 83 bd 33 da f7 bc
       0.009623007 0.033285152 -0.064229354 -0.030255413
000180 5a 9e e8 3d 33 b5 78 3c f4 f6 04 3e c2 ba f4 3b
       0.11358328 0.01517992 0.1298483 0.0074685523
000190 39 67 51 be 18 7f 21 3e 2e c1 37 bd 63 a6 c2 3b
       -0.20449533 0.15771139 -0.044861965 0.005940245
0001a0 41 27 9d bc 29 e5 e7 bd 52 e5 10 be 84 e3 2f bd
       -0.019183757 -0.11323006 -0.14149979 -0.042941585
0001b0 b6 e0 8f 3d d0 10 1e 3e b5 69 c8 bd 44 67 60 3c
       0.07025282 0.15436101 -0.09785787 0.013696495
0001c0 e2 46 40 3d 08 ae e8 3c e1 91 a4 bd a6 6c a6 3d
       0.0469426 0.028403297 -0.08035637 0.08126192
0001d0 1f 81 82 3d b8 d4 87 bc e0 87 89 3e 5e db 07 3e
       0.06372284 -0.016580924 0.26861477 0.13267276
0001e0 be 04 4b be 0a b5 4c bd 6e 83 ba bd 59 1c 21 3c
       -0.19826028 -0.04997734 -0.091070995 0.009833419
0001f0 e7 2b 17 bd 15 0c 48 3d d1 c8 bc 3d 72 1b 17 3d
       -0.036907103 0.048839647 0.0921799 0.03689141
000200 16 79 9f 3d 2a 5a f2 3d 12 7e 06 bc 15 84 be bd
       0.07786767 0.11833604 -0.008208768 -0.093025364
000210 84 02 1d 3d 13 35 e8 3c 7e e2 2a bd f6 f2 18 3d
       0.038332477 0.02834562 -0.041719906 0.03734108
000220 bf 8e 13 3e 32 a7 11 3d 9b 34 f2 bc da 4e 09 bd
       0.14409922 0.03555984 -0.0295661 -0.033522464
000230 a9 c2 67 bc 6f 77 d3 bd 13 b1 b7 bd e4 ad 1a bd
       -0.014145532 -0.103255145 -0.08969321 -0.03776349
000240 d9 fb 1a 3e 7c bf 28 3e 76 26 bd bd aa 15 8d 3e
       0.15135135 0.16479295 -0.092358515 0.2755559
000250 7a 23 58 3e a8 90 93 bd f5 64 bd 3d ca a7 2f 3e
       0.21107283 -0.07205325 0.09247772 0.1715385
000260 b3 c9 fc 3d 17 59 23 bd 87 64 0e be e2 69 e0 bd
       0.123431586 -0.039879885 -0.13905536 -0.109576955
000270 d8 44 74 3b 01 af 72 3b 8e 1d ca 3b e5 88 b3 3d
       0.003727248 0.003703058 0.006168074 0.08766345
000280 e1 81 09 be 92 84 49 3d 8f 83 51 3d 5d 62 9f bc
       -0.13428451 0.049198695 0.051150855 -0.019456083
000290 30 a2 95 3a e8 fe 1b 3d de ed dc 3c 21 02 87 bc
       0.0011416133 0.038084894 0.026968893 -0.016480507
0002a0 ec ed b1 bc 96 45 19 bd 25 ff a2 bc 9a ef 29 3d
       -0.021719895 -0.037419878 -0.019897053 0.041488267
0002b0 d4 61 3c 3e 46 4f 59 3d 8a f2 57 3e 46 b3 f4 3c
       0.18396693 0.053054117 0.21088615 0.02987064
0002c0 12 47 69 3e 00 32 0d 3d 4c 22 7b bd d0 11 dc 3c
       0.22781017 0.03447151 -0.061312005 0.026863962
0002d0 30 7e 54 be 6d 49 d3 bc 6c 8d 23 bd 2d f1 4e be
       -0.20751262 -0.025791848 -0.039929792 -0.20209189
0002e0 c2 28 17 3e 60 66 2e 3d 1d b1 65 bd 91 37 e9 bd
       0.14761642 0.0425781 -0.05607711 -0.113875516
0002f0 49 55 a4 bc 8c d3 da bd 21 66 02 be 21 50 19 3d
       -0.020060198 -0.106848806 -0.12734272 0.037429933
000300 90 3a 54 bd d7 ae 34 be 6b be 84 bd 36 03 07 bc
       -0.051813662 -0.17644821 -0.06481632 -0.008240512
000310 93 2c e5 3c b6 70 53 3e 71 67 f9 3c 02 54 e5 bd
       0.027975356 0.20648465 0.030444833 -0.11197664
000320 23 15 e9 bd cb 22 1e be ef 61 91 bc bb b2 b1 3d
       -0.11380985 -0.1544296 -0.017746894 0.08676668
000330 2e d4 f4 bc 38 33 6c bd 2a a5 1b be 46 bc da bd
       -0.029886331 -0.057666034 -0.15199724 -0.106804416
000340 c3 df b7 3c 13 31 22 3d 3d 4c 35 bb 3c 44 e2 3c
       0.022445565 0.039597582 -0.002766385 0.027620427
000350 a3 f9 fb 3d c8 ef 18 be bf f9 51 3c 24 0e 53 3c
       0.12303474 -0.1493522 0.012815892 0.012881789
000360 3d fd 33 bd 59 58 87 3a 3a 17 04 bd 93 66 f6 3d
       -0.04394268 0.0010326012 -0.032248713 0.12031283
000370 fe cb f0 bb 33 74 8e bd 91 60 20 3c fa 84 24 3c
       -0.0073485365 -0.06955757 0.009788648 0.01004147
000380 ca 31 23 3e 99 e1 0a 3c d1 b8 be 3b 37 a5 cb 3c
       0.15936962 0.008476638 0.0058203717 0.024859054
000390 83 c9 05 3e 01 ef 06 3d 0c 44 c3 be a4 a7 18 3e
       0.13065152 0.032942776 -0.38137853 0.149077
0003a0 04 4d 19 3e 68 c6 61 be e8 0c 27 3d 0d 34 d3 3d
       0.14970785 -0.22048342 0.040783793 0.10312662
0003b0 dd f8 9c bd 56 c6 cb 3d 7e 86 d7 3d ce 75 a7 3d
       -0.076646544 0.09949939 0.10523699 0.08176766
0003c0 0a 77 73 bd f1 0b 70 ba 9d c3 e6 3c fe 7c 93 bd
       -0.059439696 -0.0009157053 0.028169448 -0.07201575
0003d0 20 cb 0a 3e fb 31 5d bd 41 8b 80 3d c5 62 40 bd
       0.13554049 -0.054002743 0.062765606 -0.046969194
0003e0 16 4b 93 3d 89 ae 3f 3d fd bf ca 3d 57 9d 8a bd
       0.07192056 0.04679731 0.098999 -0.067682914
0003f0 f5 12 41 bd b0 c1 b1 3d a1 87 ce bd 52 11 0e 3e
       -0.04713722 0.08679521 -0.10084463 0.13873795

down1.maxpool_conv.1.double_conv.0.bias f4 [8]
000000 a1 7a e8 3d a1 9d 22 3d 41 f3 80 be f0 99 56 be
       0.113515146 0.039701108 -0.25185588 -0.2095716
000010 a6 19 78 be 82 5f 8c bb 29 20 0a be 8f 9e 07 bc
       -0.24228534 -0.0042838464 -0.1348883 -0.008277549

down1.maxpool_conv.1.double_conv.1.weight f4 [8]
000000 ff 8b 72 3f 3d e4 88 3f b5 91 89 3f f6 cd 6a 3f
       0.9474487 1.0694653 1.0747591 0.9172052
000010 8b 69 7a 3f be 20 82 3f 2a 27 83 3f 33 ce 7c 3f
       0.97817296 1.0166242 1.0246327 0.98752135

down1.maxpool_conv.1.double_conv.1.bias f4 [8]
000000 0d 58 77 3d fb 89 7e 3d 42 d8 10 3e 30 09 6b 3d
       0.060386706 0.062143307 0.14144996 0.05738181
000010 74 49 68 bd fb 31 92 3d 92 b6 c4 3c 1c 1f 0a 3e
       -0.056710675 0.07138439 0.024012838 0.1348843

down1.maxpool_conv.1.double_conv.1.running_mean f4 [8]
000000 50 00 5c 3e a9 86 ef be c2 36 0a bf 27 6b f5 bc
       0.21484494 -0.46782425 -0.53989804 -0.02995832
000010 3f e2 9c 3e 26 e2 9a be 78 a8 d2 bb 40 9e 71 bd
       0.30641362 -0.30250663 -0.0064287744 -0.05898881

down1.maxpool_conv.1.double_conv.1.running_var f4 [8]
000000 ad d9 e9 3d 8e 0b a5 3e 01 9e 84 3e 7e 77 0c 3e
       0.114184715 0.32235378 0.25901797 0.13717458
000010 0a 1e a8 3e f5 da 18 3e a6 a6 4a 3e ec df dd 3d
       0.32835418 0.14927275 0.19790134 0.10833725

down1.maxpool_conv.1.double_conv.3.weight f4 [8, 8, 3, 3]
000000 c9 a8 39 bb 6c b4 8e 3d 74 86 0e 3c fb ef 18 bd
       -0.0028329364 0.069680065 0.008699048 -0.03733824
000010 a5 3c 81 3d fa 3a d8 3d e8 b8 bf bd ad 8a e2 3c
       0.06310395 0.10558124 -0.0936144 0.027654016
000020 3b 0b 0a 3d 7f db 29 be 03 9d 3d 3d 0c 5f 63 3a
       0.033702116 -0.16587637 0.046292316 0.0008673526
000030 ff f0 22 bd 15 4c 90 bc 39 0b 73 3d 81 87 62 bd
       -0.039780613 -0.017614404 0.059336875 -0.055305008
000040 6f 47 d0 3d ab c1 b4 bd 00 53 97 bd 08 3b 99 3d
       0.10169875 -0.08826002 -0.07388878 0.074819624
000050 53 ae 4e 3d 25 91 e5 3d 31 b0 26 3e a6 c3 67 3c
       0.050459217 0.11209325 0.16278149 0.014145767
000060 9a 1a 73 3d e5 73 8e 3d 8a 22 d6 3d fe b9 ba 3c
       0.05935154 0.06955699 0.104558066 0.022793766
000070 50 a9 98 bc dd 4c 48 3c 67 b6 9c 3d 24 fa d6 3d
       -0.018635422 0.012225357 0.07651978 0.10496929
000080 7f 70 0d be b8 68 2e 3d 8a 74 bf bc 05 57 66 3d
       -0.13812445 0.042580336 -0.023371 0.056235332
000090 49 07 93 bd 8c 4e c0 3c 06 d5 a2 3d eb 2e 57 3d
       -0.07179124 0.023474954 0.07950787 0.05253498
0000a0 a9 91 84 bd fe ac 1a 3c 10 03 8d 3d e9 30 94 3a
       -0.06473095 0.009440659 0.0688535 0.001130608
0000b0 3b 29 4b 3c a9 12 b2 bd 99 87 b2 bc 14 7c 0a bd
       0.012399967 -0.086949654 -0.021793174 -0.033809736
0000c0 fd c3 41 bd 6b 60 a9 bd 4f 75 f8 3b 88 61 fe 3c
       -0.04730605 -0.082703434 0.0075823436 0.031052366
0000d0 fc fd 03 3d ba 29 02 3d b9 08 d0 bd 8a 02 f8 bd
       0.03222464 0.031778075 -0.10157914 -0.12109859
0000e0 75 eb 3f be 7c 8a 5a bd 7f 36 cc bd 73 06 1d be
       -0.18742163 -0.053354725 -0.09971332 -0.15334491
0000f0 1b d6 c5 3c 3d e3 4a bd 7e 52 6c bd d8 b7 15 be
       0.024149945 -0.049533118 -0.05769586 -0.14620912
000100 8f 2e df bc 77 b4 2c be 1a f4 ee bd ff c4 a4 bd
       -0.02724388 -0.16865717 -0.116676524 -0.080453865
000110 4d 72 54 be 2f 90 05 3b ee d3 10 3d 4a 21 4a be
       -0.20746727 0.002038013 0.035358362 -0.19739261
000120 a0 b8 ce 3b 88 02 ae bd 5a f4 b3 bd fd 2d 09 3d
       0.00630863 -0.084965765 -0.08786841 0.033491123
000130 b1 d8 2f 3e 57 72 21 3c 73 a4 9f 3d 4b 68 3a bd
       0.17172505 0.009853921 0.07795038 -0.045509618
000140 98 03 18 be b0 b9 2d bc c4 d2 f0 3d 79 3a 58 bc
       -0.14845121 -0.010603353 0.1175895 -0.013197535
000150 c7 67 67 3d e1 94 91 3d 0a 7e 1d 3c e4 7a ba 3d
       0.056495454 0.071084745 0.00961257 0.09105471
000160 6d ae 42 3e 6f 5c 4d 3d 61 4a a4 3d d5 cb 38 bd
       0.1901185 0.05013698 0.08021999 -0.045116264
000170 2a e4 6a 3d ee 26 ac bc c4 f0 88 3c 30 ce a0 bc
       0.0573465 -0.021014657 0.016716368 -0.019629568
000180 5b 4a f1 3d 02 b4 c7 bd 79 e1 27 3e 9f b1 6b bb
       0.1178176 -0.09751131 0.16394605 -0.0035964025
000190 de d0 cf bd 6a 0d f3 bd b1 42 1f bc be 24 86 bc
       -0.1014726 -0.11867793 -0.00972049 -0.016374942
0001a0 ba 56 34 bc e6 88 7d bb ee 4c d8 3d 66 33 7d 3d
       -0.011007005 -0.0038686334 0.10561548 0.061816595
0001b0 a0 1e 41 bd 21 a6 bc bd 61 2d e2 bd dd 33 21 ba
       -0.047148347 -0.09211374 -0.110438116 -0.0006149391
0001c0 70 f1 29 3d 8e 9f 7a bd dc 45 b0 3d f3 60 60 3e
       0.04149002 -0.06118732 0.086070746 0.21911983
0001d0 ea 8d 9b bc 0e 60 df 3d 00 28 6f 3d 25 29 86 3d
       -0.018988568 0.10906993 0.058387756 0.065508164
0001e0 ec ce 46 3e 72 16 e4 bc 4b a9 b2 bd 92 e7 0f 3e
       0.19414872 -0.027842734 -0.08723696 0.14053181
0001f0 4c 2a de bb a2 82 77 3d 36 58 55 3d 87 23 0c bd
       -0.0067799445 0.060427316 0.052086078 -0.03421357
000200 e6 40 30 bd e7 8c f0 3d 07 0c 00 bd dd 0f 3f 3d
       -0.043030642 0.11745625 -0.03126147 0.046645988
000210 d0 b9 b4 3d f5 69 b3 bd 7a 63 4e 3d ae ae 1c 3d
       0.088245034 -0.08760444 0.050387837 0.038252525
000220 58 51 87 bc 7f d7 1b 3e f0 c9 b2 3d 44 d0 90 bd
       -0.01651828 0.15218924 0.08729923 -0.070709735
000230 93 9f 09 3d f5 f0 9e 3d 1b cb f8 bd 5b 30 82 bd
       0.033599447 0.07760803 -0.12148114 -0.06356879
000240 a1 86 da 3c 62 c8 97 bd 2c ca 67 bd 23 be e0 3c
       0.026675524 -0.07411267 -0.05658929 0.027434414
000250 0c ec b1 3d bc 54 25 be 77 31 a3 b9 19 84 a5 bd
       0.086876005 -0.16145605 -0.00031126637 -0.08081836
000260 f1 25 11 be 6e b8 83 3d 61 a2 47 3e 27 18 c7 bc
       -0.1417463 0.064316615 0.19495536 -0.024303509
000270 01 7a 61 bd 7c ba 6c 3d d5 0a 12 be 11 bc 81 bd
       -0.055047993 0.057795033 -0.14261945 -0.06334699
000280 6a 23 cb bc 5a 70 04 be f3 1b 27 be 75 63 6a 3d
       -0.02479716 -0.12933484 -0.16319256 0.057223756
000290 6a f3 9d 3d 7a 09 1e be df 38 c3 3d bc 12 31 3e
       0.07712443 -0.15433303 0.09532332 0.17292303
0002a0 0c d4 00 be 99 f4 81 3c 13 1c 89 3d 7c 2b c8 bb
       -0.1258089 0.015863704 0.06694808 -0.0061086994
0002b0 1e b7 3a 3d 3c 69 97 bd d7 52 c4 bc bd 61 9d bd
       0.04558479 -0.07393119 -0.023965282 -0.07684658
0002c0 68 4a 02 be 7c b5 00 3e ea 2e 59 3d 84 30 8f bd
       -0.12723696 0.12569231 0.053023256 -0.069916755
0002d0 d3 18 7a 3d 05 c3 ba 3d 49 b8 3c 3d 1d 1a 5f 3d
       0.06105883 0.09119228 0.046074186 0.054468263
0002e0 48 4b 46 3c ca 09 a7 bd f7 64 2b bc 79 4f 47 3d
       0.012102909 -0.08156164 -0.010461084 0.048659775
0002f0 7b b2 05 be aa 4a e7 bd df 44 a6 bd b1 ad 1f 3e
       -0.13056366 -0.11293538 -0.08118605 0.15593602
000300 48 81 2c bd ff 3b 89 bd 45 5e f9 3d 7c a0 85 bd
       -0.04211548 -0.067008965 0.121761836 -0.065247506
000310 30 b5 ac 3c 33 7e 5b bd 11 69 03 be 5d 39 f9 bd
       0.02108249 -0.05358715 -0.12833048 -0.12169144
000320 1b 93 1a 3c 72 d6 8d 3b 50 3d e3 bd f0 0e de 3d
       0.009434487 0.0043285424 -0.11095679 0.10842693
000330 7d 37 4a 3c 2b 5b 1c be f3 ee ff 3d 5b 54 20 3d
       0.012342331 -0.15269153 0.12496748 0.039142948
000340 aa ec 7e bc fe ae ab bd ba 06 60 bd c0 52 f2 bc
       -0.015559355 -0.083829865 -0.054693915 -0.029580474
000350 c0 a2 51 3d 08 54 9f 3c 63 85 d0 bc 22 d8 82 bd
       0.0511806 0.019449249 -0.025454229 -0.0638888
000360 25 4b 44 3d 28 5b 90 bd 69 87 ad 3c ee 6c 1d be
       0.047923226 -0.07048637 0.021182733 -0.15373585
000370 13 f0 9a 3d 6a 6c f1 3d 9b 73 3a 3c 6b a6 d8 bc
       0.07565322 0.117882565 0.011380102 -0.026446542
000380 4a 60 12 3c f2 f3 07 3d c1 77 83 bd 5e f9 fc bc
       0.00893409 0.03319163 -0.064193256 -0.030880626
000390 e1 14 cc bc 7e b1 4f be a2 70 d5 bd fa f3 a3 ba
       -0.0249123 -0.20282552 -0.10421874 -0.0012508624
0003a0 a7 6f b6 bd e6 39 44 bd 6a f2 37 be b4 bc 50 bd
       -0.08908015 -0.04790678 -0.17963567 -0.05096121
0003b0 76 e6 73 3b 3c c4 3d be 1e e5 d5 3c 62 75 2f bc
       0.0037216223 -0.18531889 0.026110228 -0.010709139
0003c0 99 8b 23 be 55 5e da 3c 88 ec b3 bd f7 c2 8f 3c
       -0.15971221 0.02665631 -0.08785349 0.017549021
0003d0 6a ba e4 bd d0 68 ea 3c 52 47 80 3d 3a 6e 7a be
       -0.11168368 0.028614432 0.06263603 -0.2445611
0003e0 6c 53 78 bb cb 5c 63 bd 66 f0 08 3c cd bc e6 3d
       -0.003789152 -0.055508416 0.008358097 0.1126648
0003f0 55 12 98 bd 00 2e 8d 3c 17 24 6b 3d 67 4f 7d 3c
       -0.074253716 0.017233849 0.057407465 0.0154608255

down1.maxpool_conv.1.double_conv.3.bias f4 [8]
000000 31 a2 1d bd e8 ac 28 bd 0e af 77 bd aa 69 2f bd
       -0.038484756 -0.04118052 -0.06046968 -0.04282538
000010 48 d6 12 3d 41 74 51 bd a9 e0 0c be 6f 9d a2 3d
       0.035848886 -0.05113626 -0.13757576 0.07940184

down1.maxpool_conv.1.double_conv.4.weight f4 [8]
000000 ed e9 86 3f ff f3 6c 3f 7c a2 85 3f 70 df 6c 3f
       1.0540138 0.9255981 1.0440211 0.9252844
000010 7a 20 6e 3f 37 24 78 3f 1d 1d 89 3f da b0 6c 3f
       0.93018305 0.9693026 1.071201 0.92457354

down1.maxpool_conv.1.double_conv.4.bias f4 [8]
000000 47 dc 18 3e 03 03 0e bd fd a1 18 3e 40 82 ad 3d
       0.14927779 -0.03467084 0.14905544 0.08472109
000010 3a 55 e7 bc 80 8b 14 3d 2e 1c e5 3b 55 00 ca 3d
       -0.028238881 0.03626585 0.0069918847 0.098633446

down1.maxpool_conv.1.double_conv.4.running_mean f4 [8]
000000 67 17 44 be 00 2e aa 3e 9e 1c be be 95 c6 fa be
       -0.19149552 0.3323822 -0.37131208 -0.4897963
000010 63 22 49 bc 0c 1d e3 3d 41 e8 82 be b6 7e 85 be
       -0.012276265 0.110895246 -0.2556782 -0.26073235

down1.maxpool_conv.1.double_conv.4.running_var f4 [8]
000000 c1 9e cc 3e 67 af b0 3e ff f4 ad 3e 81 c6 c0 3e
       0.3996487 0.3450882 0.3397598 0.37651446
000010 d3 41 8e 3e a3 83 7a 3e 1f df a9 3e 1c 24 44 3e
       0.27784595 0.24464278 0.3317804 0.191544

down2.maxpool_conv.1.double_conv.0.weight f4 [16, 8, 3, 3]
000000 98 c5 9a 3d 8f b9 08 3e 2f 3a 97 bd 4b a1 f6 3d
       0.07557219 0.13352035 -0.073841445 0.12042483
000010 b6 b3 93 3d 6b 9c 46 3d ee ef 14 be 6b 34 ef 3d
       0.072120115 0.048489016 -0.14544651 0.1167992
000020 2b eb 0b be cf 69 af bd 03 c5 ce bd ba 85 be 3d
       -0.13663928 -0.08565103 -0.10096171 0.0930285
000030 28 42 91 bb 3c c9 6f bd ff ca 91 3d 0d 3f 2c 3d
       -0.0044329353 -0.05854152 0.071187966 0.042052317
000040 4a 32 f6 3c a8 21 01 3d 86 36 22 3d e0 55 e6 3d
       0.030053277 0.031526238 0.03960278 0.11246848
000050 da dd 86 3c e6 cb a2 3d 10 75 77 bd b9 1e 36 3c
       0.016463209 0.07949047 -0.060414374 0.011115723
000060 d5 d1 16 3d 97 64 4f 3d 8e 53 f9 bd 8d a1 04 bc
       0.036821205 0.05063304 -0.1217414 -0.008095157
000070 92 ed 2a be d0 9e 16 be 39 93 1d 3d 7e b5 9a bc
       -0.16692188 -0.1470902 0.03847048 -0.01888537
000080 f6 43 3b be df 27 46 3d 96 c1 77 bd 87 23 81 3d
       -0.18287644 0.048377868 -0.060487352 0.063056044
000090 f7 76 fa bc df 1b cf 3d 1d 79 05 3a de 29 06 be
       -0.030574305 0.10112738 0.00050915946 -0.13101909
0000a0 2d d3 38 bd c9 b3 c5 3c 19 90 b1 3c 84 2e 28 bc
       -0.045123268 0.02413358 0.021675156 -0.010264996
0000b0 3e bc ff bc 6c 1e bc bc 2b 3c 33 bd 49 7e 04 be
       -0.03121769 -0.022963725 -0.043758553 -0.12938799
0000c0 d7 ff d0 3d 4f 1a ff bd e8 8c 64 3d d6 52 54 3d
       0.102050476 -0.1245619 0.05579844 0.05183681
0000d0 8c 63 47 3d 9f 2a 0b 3e 06 88 dd bc 66 a4 17 3c
       0.04867892 0.13590477 -0.0270424 0.009255504
0000e0 06 ad a6 39 40 ae ae 3d 53 09 65 3d e6 db 6a ba
       0.000317909 0.08529329 0.055917095 -0.0008959159
0000f0 e1 72 06 3d 80 34 80 3b ca 78 d7 bb 3b d9 a7 3d
       0.0328244 0.0039125085 -0.0065756785 0.0819573
000100 dc d7 cf bb 18 2e 54 3d 39 5f 0a 3d 5d f3 f5 3c
       -0.006342871 0.05180177 0.033782218 0.030023271
000110 1a 3a 08 3d e9 d5 76 bd 56 d7 08 bd c6 ac 1a 3d
       0.033258535 -0.060262594 -0.033408485 0.037762426
000120 80 86 af 3d 7a e1 69 bd 52 70 63 3d b4 13 5d bd
       0.08570576 -0.057099797 0.05552704 -0.05397387
000130 10 77 3e 3d 64 be 47 3d 48 81 f8 bd 72 5a 2b bd
       0.046500266 0.048765555 -0.121340334 -0.041834302
000140 21 70 f6 bc 8e 30 0d be 2d 99 5d 3d 89 3b 88 3c
       -0.030082764 -0.13788053 0.054101158 0.016629951
000150 a5 35 8f bc e7 63 3e bd 08 f4 04 3d de 67 e7 b9
       -0.017481634 -0.046481993 0.03245929 -0.0004413714
000160 ca e7 6f 3d 21 6e 1e bd 85 64 51 3a 0b 80 15 3e
       0.05857066 -0.038679246 0.0007987696 0.14599626
000170 c9 26 c1 3d ef ae 59 bd e7 c3 1f 3e e4 a4 09 3e
       0.09431226 -0.053145345 0.15602075 0.13441807
000180 f4 10 90 3b 79 47 33 3e c3 01 37 3c b3 bf 19 bd
       0.004396552 0.17507733 0.011169854 -0.037536334
000190 86 81 a4 3d 65 0d 4d be 65 4f a2 3d 00 c7 55 3d
       0.08032517 -0.20024641 0.079252996 0.052191734
0001a0 88 bc 9e bd fa 41 67 bd 45 b1 98 bd cb c4 3e 3d
       -0.07750803 -0.056459405 -0.074556865 0.046574395
0001b0 68 67 cf bd 0c e3 dd bd 1d 60 52 3d e9 e6 d4 bd
       -0.10127145 -0.108343214 0.051361192 -0.10395605
0001c0 70 4c dc bd 6b ce 8e 3d f0 04 67 3d 88 25 5a 3d
       -0.10756767 0.06972965 0.056401193 0.05325845
0001d0 cc f6 07 bd 91 4a de 3d ba 22 e5 3b d5 2f 55 be
       -0.03319435 0.10854066 0.006992665 -0.20819028
0001e0 87 d8 20 3d 67 aa 24 bd de a4 be bc b7 29 41 bd
       0.039268997 -0.04020157 -0.023271974 -0.047158923
0001f0 e5 6a 0d bd e4 ce f9 bc 7c 91 88 39 49 a5 01 bd
       -0.03452577 -0.030494161 0.00026048336 -0.03165177
000200 b4 e4 fe bd 0f 8d 05 3d 51 ed 8d bd a0 00 ad 3c
       -0.124459654 0.032605227 -0.0693003 0.021118462
000210 46 7d 0f be c1 0b df bc 62 4b a0 3d 0b 60 22 3d
       -0.14012632 -0.027227284 0.07826878 0.039642375
000220 ed c2 05 3e 98 70 1c be 0d 2b 86 39 8f 27 2c bc
       0.1306264 -0.15277326 0.00025590547 -0.010507478
000230 40 9c 25 be 9e 71 a2 3d 58 08 2d 3d 1c 73 3c be
       -0.16172886 0.07931827 0.042244285 -0.18403286
000240 d4 f4 02 3d cb dc ea bc d7 cb e2 bd 47 fd 5c bd
       0.031971768 -0.028669735 -0.110740356 -0.05395248
000250 27 92 90 bd 21 e0 39 3c 18 d5 a1 3d ca 54 19 3c
       -0.07059126 0.01134494 0.079019725 0.009358594
000260 1e 49 0c 3e 02 04 59 3b 76 9a b8 bc 03 fd 37 bd
       0.13699767 0.003311396 -0.02253459 -0.044919025
000270 71 a3 65 3d 16 d4 c5 bd cd 49 33 3c 1b 7c f2 3d
       0.056064073 -0.09659593 0.010942888 0.118400775
000280 1d ba ab bd 49 75 48 3d df 17 9e 3d 90 a7 04 be
       -0.08385108 0.048939977 0.07719397 -0.12954545
000290 d1 28 31 3d 11 7a 1e 3d f5 e5 90 bd 27 c6 a0 b9
       0.043251816 0.03869063 -0.07075111 -0.00030665213
0002a0 7a 4a 48 bd 28 97 a8 bc 7a eb 20 3e 99 1d 11 bd
       -0.04889915 -0.02057989 0.15714827 -0.035428617
0002b0 76 5e 43 bd 42 d9 fa bc db 02 9d 3d 6a 9a 52 bb
       -0.047697507 -0.030621175 0.0766656 -0.0032135495
0002c0 c0 41 72 3c a7 db cb bd 38 51 ec 3d dc d3 35 3d
       0.014786184 -0.09954005 0.11538929 0.044391498
0002d0 cd 4e b2 3d 1b b6 0d be 40 9b 30 bd 5e a3 4e bd
       0.08706436 -0.13838999 -0.043116808 -0.050448768
0002e0 69 bb e9 3c 4e 4c 67 3d 4c a4 0c bd 4e 21 0b 3d
       0.028531747 0.056469254 -0.034336373 0.03396731
0002f0 f1 15 ab ba 30 69 28 3d 08 fe c7 3d 8e 97 32 bd
       -0.0013052804 0.04111594 0.097652495 -0.043601565
000300 b1 a6 0d bd 76 a7 9e bd ca ab 84 be bc 06 c7 3d
       -0.034582797 -0.077467844 -0.25912315 0.09718081
000310 fa a4 45 3d 29 52 4a 3d 68 a5 27 3e a9 34 cf 3d
       0.048253037 0.04939476 0.16371691 0.10117466
000320 94 58 66 3d a0 e2 06 3e cb 4e 0c 3e 8a 4f 6b be
       0.05623682 0.13172388 0.13701932 -0.2297956
000330 af f2 b8 bc 03 35 5d bd 95 88 e4 bd b6 9e 47 bd
       -0.022576658 -0.054005634 -0.111588635 -0.048735343
000340 f7 a0 02 bd 88 68 d6 3d da 39 de bd f8 d6 9c 3d
       -0.03189179 0.104691565 -0.10850878 0.076581895
000350 c3 e1 d7 3d d0 8b 80 bd 70 3a c7 bd c6 13 ec bc
       0.105411075 -0.06276667 -0.09727943 -0.028818022
000360 41 18 cd 3d d5 38 35 3e 60 7d a7 bb 75 db ac bb
       0.10014392 0.17697461 -0.0051113814 -0.0052751848
000370 7f 68 b6 bc 23 f7 cd bd 52 86 2c bc 79 06 87 3d
       -0.022266624 -0.10056903 -0.010530071 0.065930314
000380 7d 31 e7 bd 6a 3d 3c be 48 1c bc bd 46 c6 4e bb
       -0.11288736 -0.18382803 -0.09185082 -0.0031551286
000390 76 94 46 3c 15 fb fa bd 61 2e bd 3c 2e 1b 12 be
       0.012120357 -0.12254921 0.023093404 -0.1426818
0003a0 91 26 e7 3d 25 58 a8 bd 63 2b 88 3d 77 43 da 3d
       0.11286653 -0.08219937 0.066489 0.10657399
0003b0 38 b7 32 bc 49 d2 97 3d 61 36 bf 3d 45 33 c1 3c
       -0.010907941 0.074131556 0.09336544 0.023584018
0003c0 d3 3d 2b 3e b2 90 44 3d 95 8a d4 39 40 c4 92 bd
       0.16722803 0.047989555 0.00040539043 -0.07166338
0003d0 f4 73 41 bd 2c f0 93 3c fa 3c a3 3d f7 cd 0f bd
       -0.047229722 0.018058859 0.07970615 -0.035108533
0003e0 f2 6a 36 3d 06 6d 1d bd 58 28 61 bd 2d 5b 0b 3d
       0.044535585 -0.03843405 -0.054970115 0.0340225
0003f0 ac 59 9f bc 58 65 89 bc a2 88 4c 3a ea 29 bc bd
       -0.019451939 -0.016771957 0.00078023423 -0.09187682

down2.maxpool_conv.1.double_conv.0.bias f4 [16]
000000 b9 1b 25 3d dd ef 72 bd 46 a2 f9 bd 2e a8 37 3d
       0.04030964 -0.059310783 -0.12189154 0.044838123
000010 59 04 90 bd 25 d7 e7 bd 23 c1 84 3a 4e 83 46 bc
       -0.07032079 -0.113203324 0.001012836 -0.012116266
000020 0e 48 d0 3b 3d 6b 54 bd 19 d7 ff bb df 64 d7 3d
       0.006356246 -0.051860083 -0.007807624 0.105172865
000030 5c 13 05 3d f5 6b d9 bd 19 5e b7 bd ab 27 f8 bc
       0.032489166 -0.10616294 -0.089534946 -0.030292353

down2.maxpool_conv.1.double_conv.1.weight f4 [16]
000000 7c f6 7d 3f a9 d4 88 3f 52 25 75 3f 6e 87 7f 3f
       0.9920423 1.0689899 0.9576007 0.99816024
000010 c8 87 7a 3f a6 af 81 3f 89 e7 87 3f fe ea 74 3f
       0.97863436 1.0131729 1.0617534 0.9567107
000020 1d f9 81 3f 8c d9 7e 3f 93 40 80 3f 50 75 84 3f
       1.0154148 0.995507 1.0019706 1.0348301
000030 e0 f9 83 3f 57 0d 82 3f 97 7e 84 3f 59 c2 76 3f
       1.0310631 1.0160321 1.0351132 0.963903

down2.maxpool_conv.1.double_conv.1.bias f4 [16]
000000 28 51 bc 3b 35 03 ab 3d 4b 61 de bd 31 1f 83 ba
       0.0057469793 0.08350221 -0.10858401 -0.0010003803
000010 09 a6 70 bd 59 02 4b ba 28 33 04 3d 4b 17 bf 3c
       -0.058752093 -0.0007744185 0.03227535 0.023326537
000020 bb f5 4c 3d 4c d1 96 3d 5b 66 1c 3c 6e 7f 08 3d
       0.050039034 0.07364139 0.009545888 0.03332465
000030 24 41 bc bc b0 e1 ea 3c 68 65 a8 3d dc db 81 bd
       -0.02298028 0.02867207 0.08222467 -0.06340763

down2.maxpool_conv.1.double_conv.1.running_mean f4 [16]
000000 15 77 1f 3e f8 7e 80 be 6a da 17 be fc a6 09 3e
       0.1557277 -0.2509687 -0.14829412 0.13442606
000010 bb 17 ff be 91 08 30 be 51 50 84 be 70 eb 83 3e
       -0.49822792 -0.17190768 -0.25842527 0.25765562
000020 af a2 40 be 4e 7e e1 be 49 f0 1e 3e fe 57 10 bd
       -0.18812059 -0.44041675 0.15521349 -0.035240166
000030 ad e2 07 bf 73 22 8c be cb c3 8f be 52 20 06 bd
       -0.53080255 -0.27370033 -0.28079066 -0.032745667

down2.maxpool_conv.1.double_conv.1.running_var f4 [16]
000000 4c 86 50 3e 23 0d 7c 3e fd f1 53 3e 93 ee 2a 3e
       0.2036373 0.24614386 0.2069778 0.16692571
000010 2c bf e2 3e e3 a6 04 3e e9 91 61 3e 0c 04 2c 3e
       0.44286478 0.12954287 0.22028317 0.16798419
000020 6c 2c 51 3e fd 9d 25 3e e6 2a 28 3e 35 bc 95 3e
       0.20427102 0.16173549 0.16422614 0.29245153
000030 15 ad 59 3e 64 f3 56 3e 5b 47 6f 3e 5e 30 93 3e
       0.21257432 0.20991284 0.23367064 0.2874784

down2.maxpool_conv.1.double_conv.3.weight f4 [16, 16, 3, 3]
000000 89 7e d9 bd 4b 9a a7 3b 58 19 16 be d3 3e c6 3d
       -0.10619838 0.0051148287 -0.14658105 0.096799515
000010 a8 80 6e 3c 45 c4 44 bd 29 e6 c4 3d e4 41 53 3d
       0.014557041 -0.04803874 0.09614212 0.05157651
000020 55 32 6e 3c 81 ce 75 bd cb c7 a0 3c 18 3d a8 3d
       0.014538367 -0.06001139 0.019626519 0.08214778
000030 bc 15 18 3d 8e ad ee 3c 12 d8 f4 3d f0 d1 09 be
       0.037130103 0.029135492 0.11955275 -0.13458991
000040 92 bc cf bc 0b ea 6a bc c3 91 e3 bd 1c 0e 80 bc
       -0.025358472 -0.014338027 -0.11111786 -0.015631728
000050 76 4d 7a bd 2e a6 8a 3c 55 7d 3d 3d ef 84 fb 3d
       -0.06110903 0.016924944 0.046262104 0.122812144
000060 b6 88 b7 3d 43 b1 d7 bb 95 fc f5 bc 85 5a ea 3d
       0.089616224 -0.0065824105 -0.030027667 0.114430465
000070 3a 68 c7 3d f5 78 e4 3d af 41 11 bc 21 f8 9b bc
       0.097366765 0.11155883 -0.008865758 -0.019039216
000080 ef dc df 3d c4 99 fc bd 9a e9 65 bd 41 eb 4b bd
       0.109308116 -0.12334016 -0.056130983 -0.049784902
000090 a1 a5 d9 3c b3 e5 ab bd b1 32 c6 bd e6 c3 fb 3d
       0.026568236 -0.08393421 -0.09677637 0.12293224
0000a0 13 d0 2e bd 34 15 03 bc f7 07 fb 3c e7 85 7a 3d
       -0.042678904 -0.008000661 0.030643446 0.061162855
0000b0 e3 8d 9f bb b6 a8 b5 bd 86 f0 f8 bb 1c be 90 ba
       -0.004869209 -0.0887007 -0.007597032 -0.0011042985
0000c0 6d 7a 77 bd 6c db 54 bd 2f f1 b6 3a 00 cc 89 bd
       -0.06041949 -0.05196707 0.0013957376 -0.06728363
0000d0 ac 99 a6 bc 37 1c b0 3c 41 3c 4e 3d f3 dd 31 3e
       -0.020336948 0.021497829 0.05035043 0.17369823
0000e0 6a 0c 58 3d 01 fb 87 3c bf 67 54 bc 6a e4 a2 bd
       0.052746214 0.01659918 -0.012964188 -0.07953723
0000f0 bb a9 a8 bd b3 e4 ba bc 81 57 bd bd 72 61 cd 3c
       -0.082354985 -0.02281413 -0.09245206 0.02507088
000100 28 44 77 bd 6d 51 85 bd 49 4a 20 bd ae e7 1e 3d
       -0.060367733 -0.06509671 -0.039133344 0.038795166
000110 f2 e6 55 bd 99 45 07 bd df f2 95 3d 41 42 5f 3d
       -0.0522222 -0.033025358 0.073217146 0.054506544
000120 e1 25 5b bd 9f 3a 11 3d 9d 64 d5 bd 5c f2 c1 bc
       -0.05350292 0.035456296 -0.10419581 -0.023675136
000130 60 00 ef bd b6 37 88 bd 42 b1 de bc 53 dc 2d bd
       -0.116699934 -0.06651251 -0.027184132 -0.042446446
000140 93 5f eb bd bc 5e c2 bd 9e 11 dc bd 06 4e a2 bc
       -0.11492839 -0.094907254 -0.10745548 -0.019812595
000150 2d 68 b0 bd 86 1e d8 bd 1a f1 90 bd 78 6f a2 bd
       -0.0861362 -0.10552697 -0.070772365 -0.07931417
000160 b3 1b b3 3d cb c1 7a 3d 91 31 0f bd f4 06 36 bd
       0.087455176 0.06121997 -0.03495938 -0.044440225
000170 0f ee 9e 3b bb 00 ca 3d 51 69 d8 3c ac 49 33 3d
       0.004850156 0.098634206 0.026417406 0.04377143
000180 42 a0 ae bc ad 75 8b bc ce 24 3c bd 6a 1f 72 bd
       -0.021316651 -0.017023886 -0.045933537 -0.05911199
000190 a6 54 06 3d 7d f2 ec 3c fd 54 28 bd b3 ec 95 3d
       0.03279557 0.028924221 -0.041096676 0.073205374
0001a0 a3 6c a9 bd a2 c8 01 3c 9a 4e 9f bd c1 e2 8f bd
       -0.08272674 0.00792137 -0.07778664 -0.07025672
0001b0 22 d3 fe 3c 0d bd 7d bb f9 db 1c be f5 1f ac bd
       0.031106535 -0.003871742 -0.15318288 -0.08404533
0001c0 70 7e bf 3d 48 54 88 3c 93 9d 1f 3c 06 42 aa 3d
       0.09350288 0.016641751 0.009742158 0.08313374
0001d0 b2 85 9f bd 8a 6e 59 bd b8 a2 f9 bc 29 7b 16 be
       -0.07789172 -0.053083934 -0.030473098 -0.1469542
0001e0 8b 6d 24 bd 42 59 d1 bd 5b 67 b7 3b ef 9d 93 3d
       -0.04014353 -0.10222103 0.0055970377 0.07207858
0001f0 c4 7e 3c bc f2 12 3d 3d 3c 99 ec bc b0 3b 99 bb
       -0.011504833 0.046160646 -0.028881662 -0.0046763048
000200 fe 1d f2 3d 6c cb dd bc da 02 b7 bd 37 ee 90 ba
       0.11822127 -0.027074538 -0.08936091 -0.0011057322
000210 1e 5e 79 bd 61 0d 0c 3d c0 46 ff 39 6b 66 bc 3c
       -0.060880773 0.034192447 0.00048690103 0.022998055
000220 2d 1d 83 3c 2b 51 eb bd 06 05 5c bd db b4 2f bd
       0.016005123 -0.11490091 -0.05371573 -0.042897087
000230 bb 47 0d be b5 f5 b8 3c 57 76 4b 3d ee e9 da 3c
       -0.13796894 0.0225781 0.049673405 0.026722874
000240 33 58 80 bc e0 d6 e7 bd 88 fc 29 bd 20 e8 6a 3d
       -0.015667057 -0.11320281 -0.0415006 0.057350278
000250 76 03 3e bd 5e ed 38 3d 1f df 80 3d 31 44 cc bd
       -0.04639002 0.045148246 0.06292557 -0.09973944
000260 ac 9f 65 bd d9 ca 53 bd a1 f5 a7 bd 4e 0d b2 3d
       -0.056060478 -0.051707122 -0.08201147 0.08693944
000270 0d 92 e7 3b 3c 10 20 be ce 85 5e bd 33 05 f4 3d
       0.007066971 -0.15631193 -0.054326825 0.11915054
000280 54 51 d7 bd 8f cc c1 bb 7f 68 a0 ba 10 c3 cd bd
       -0.10513559 -0.005914278 -0.0012238174 -0.10046971
000290 61 00 b5 3d 48 9f 2f 3d 94 b6 2c b9 84 45 36 3d
       0.08837963 0.04287651 -0.00016471214 0.04449989
0002a0 cd cd 32 bd 3a f1 fa 3b a7 69 16 3d 94 34 5d 3d
       -0.0436533 0.007658151 0.03672185 0.05400522
0002b0 63 0b af bd 47 69 13 bd 83 5f 52 bd 4e 78 5b 3d
       -0.08547094 -0.035989072 -0.05136062 0.05358153
0002c0 7a 2f 0a 3b fa af 81 3d fa a9 a3 bd 9e bd 93 bc
       0.0021085427 0.06332393 -0.07991405 -0.018034752
0002d0 92 db b3 3c 9c 31 a0 3c a2 4c b9 bd d2 a0 89 bd
       0.021955285 0.019554906 -0.0904782 -0.06720127
0002e0 3f 50 b6 3c 62 8e 9c 3d d1 5d 44 3c 5f 9a 88 3c
       0.022255061 0.07644345 0.011985258 0.016675172
0002f0 62 1d 0a 3c 5c fe ae bd 54 bd 8c 3d 86 b3 95 bc
       0.008429857 -0.08544609 0.06872049 -0.01827408
000300 2a 84 81 bd 77 81 12 3d fd ed db 3c 29 0a 88 bc
       -0.063240364 0.035768 0.02684688 -0.016606407
000310 f4 aa 9f 3d cd b0 c3 bd 9b e3 b0 3d c2 fd 28 3d
       0.077962786 -0.095552064 0.08637162 0.041257627
000320 19 7e df bd 31 ef de bc 3a de 8a bd 73 42 f7 bc
       -0.10912723 -0.027213665 -0.067806676 -0.030183053
000330 75 d9 0d bd 5c f2 87 bd bb 45 ec bc f3 ed 15 be
       -0.03463121 -0.06638023 -0.028841844 -0.14641552
000340 a2 c7 59 3d 19 05 8d bd 09 df ba bd fb f8 06 3c
       0.0531689 -0.06885738 -0.09124572 0.0082380725
000350 a3 a5 65 3c 38 00 e5 bd 9f da 96 3c c2 3e c3 3d
       0.014016542 -0.11181682 0.018414794 0.095334545
000360 f8 51 a3 bd e2 c1 5b 3d 12 7b 9e 3c c2 80 1a bd
       -0.07974619 0.053651698 0.019345794 -0.03772045
000370 c5 e8 24 bc b3 ce 88 3d 85 25 af bd 79 ea 9b 3d
       -0.010065262 0.0668005 -0.08552078 0.076130815
000380 a9 79 02 3c 08 4f c8 bb 16 6a 1c bd eb 27 0c 3e
       0.007963576 -0.006112937 -0.03818711 0.13687102
000390 23 8d 64 3c b6 d5 fe 3c 52 78 6e 3b 61 5f b7 3d
       0.013949665 0.031107765 0.0036387634 0.08953739
0003a0 c6 e8 9a 3c aa 41 82 3c 74 5f 60 bc 27 d2 89 bc
       0.018909823 0.015900452 -0.013694633 -0.016823841
0003b0 d2 5f f9 3d a8 59 62 3d 2a 1a 73 bd 6a 97 d8 3d
       0.121764794 0.055261284 -0.059351124 0.10575755
0003c0 f8 cd 25 bc 9f ed c2 bd e4 d2 7d 3c 86 cf 15 bc
       -0.010119908 -0.09517979 0.015492175 -0.009143716
0003d0 4d 6b f6 3d 35 5e bf 3b 6d 41 15 3c d9 bd c2 3d
       0.12032185 0.005840088 0.009109837 0.09508867
0003e0 ba 3c ad bb 8a 4f 1e bd ac 3c b1 3d 8f 27 c2 3d
       -0.00528678 -0.038650073 0.0865415 0.094802015
0003f0 1c 17 f1 3d f0 9b 36 3d fe 86 3a bd e0 29 ef 3c
       0.11771986 0.044582307 -0.045538895 0.029194772

down2.maxpool_conv.1.double_conv.3.bias f4 [16]
000000 b8 92 39 bb dd 93 a6 3c 12 9f 0d 3c 47 1a d9 3a
       -0.002831621 0.020334179 0.008643882 0.0016563617
000010 57 7d 42 3d 7d 8f db bd 9d bb 34 3d 5d 66 67 3c
       0.047482815 -0.107207276 0.044124234 0.014123526
000020 b1 c7 76 bd e0 f6 e4 bc f3 09 49 bc f8 65 a6 3d
       -0.060249034 -0.02794975 -0.0122704385 0.08124918
000030 2c bf 48 3c f8 f4 cd 3c 34 4f c5 bd 96 c4 13 3e
       0.01225261 0.025141224 -0.096342474 0.1443046

down2.maxpool_conv.1.double_conv.4.weight f4 [16]
000000 44 3f 80 3f 3d 5c 6b 3f db 6f 6a 3f 85 e9 71 3f
       1.0019307 0.9193762 0.9157693 0.9449695
000010 ac ea 7a 3f 75 92 84 3f bc 7e 65 3f 4c c7 77 3f
       0.9801433 1.0357195 0.89646506 0.9678848
000020 6e 31 78 3f c7 4f 77 3f c8 7f 7b 3f 74 8d 83 3f
       0.96950424 0.96606106 0.98241854 1.0277543
000030 e2 69 6e 3f 60 6c 76 3f 02 8f 84 3f 80 bc 79 3f
       0.93130314 0.9625912 1.0356143 0.97553253

down2.maxpool_conv.1.double_conv.4.bias f4 [16]
000000 68 b0 63 3c 3d 3e 0b be 82 12 a2 bd 58 50 ec bd
       0.013897039 -0.13597961 -0.07913686 -0.11538762
000010 00 1a 02 3c bd 63 0c bd 7b 47 11 be d6 ea 8f bd
       0.007940769 -0.034274805 -0.14187424 -0.07027213
000020 3f c8 dc bd 0a 89 51 bd e4 ae a7 bd 61 f4 17 3d
       -0.107803814 -0.05115608 -0.081876546 0.037098292
000030 32 f7 a1 bd 93 f4 7e bd 55 b6 cb 3c c3 6d 1e be
       -0.07908477 -0.062244963 0.024867216 -0.15471558

down2.maxpool_conv.1.double_conv.4.running_mean f4 [16]
000000 e5 ae 1b bf d8 de 69 3c 64 de 55 be 63 ac c4 3e
       -0.6081374 0.0142743215 -0.20885617 0.3841277
000010 ad 35 2e bf 69 ec 0e bf 38 c9 e6 be fe 48 c6 be
       -0.6805065 -0.55829483 -0.45075393 -0.38727564
000020 f8 62 c3 be 11 bb b6 be 51 6c 71 be 9b d4 ae be
       -0.38161445 -0.35689595 -0.23576476 -0.3414658
000030 a1 8f d6 be 97 be 15 be db ec 15 bf 35 01 cc 3e
       -0.41906455 -0.14623486 -0.5856454 0.3984467

down2.maxpool_conv.1.double_conv.4.running_var f4 [16]
000000 34 ba 78 3e c6 4c e1 3e a1 04 99 3e 69 94 ca 3e
       0.24289781 0.44003886 0.29886344 0.39566353
000010 b9 46 51 3e bb 31 60 3e a9 e6 34 3e 5b b8 61 3e
       0.20437135 0.2189397 0.17666115 0.22042982
000020 99 dd 93 3e 07 d9 78 3e f9 fa 39 3f 49 bc 86 3e
       0.28880003 0.2430154 0.7264858 0.26315525
000030 2a 7b 85 3e 2c 5e 86 3e 7d d1 4c 3e 60 76 80 3e
       0.2607053 0.26243722 0.20001788 0.25090313

down3.maxpool_conv.1.double_conv.0.weight f4 [32, 16, 3, 3]
000000 d5 5c 6f 3c 9f 44 ef bd 40 2f 68 bd c5 b4 c0 bc
       0.014609535 -0.1168301 -0.056685686 -0.023523698
000010 68 38 8b bd 5a 41 77 3c 5d 4c 99 bc 64 87 21 3d
       -0.06797868 0.015091265 -0.01871317 0.03943576
000020 30 9b e5 bc 1e 42 88 bd 78 f9 21 bc 0e 96 8f 3d
       -0.0280281 -0.06653236 -0.009886138 0.070110425
000030 39 f6 8b 3b 47 81 62 3d 8c 72 68 3d 7c 37 46 bc
       0.0042712954 0.05529907 0.056749865 -0.012098189
000040 9c 08 93 3b da d9 d9 3d de ab ba bd 67 b4 4e bd
       0.0044871103 0.10637255 -0.09114812 -0.050465014
000050 a2 f1 98 bb 1f 8b 68 bc 71 42 8f 3d c4 dd d3 bd
       -0.0046674768 -0.014193325 0.069950946 -0.10345033
000060 6a 36 cb ba 4f 97 48 bd cf 0b 0b 3d 15 75 b2 bd
       -0.0015503888 -0.048972424 0.03394681 -0.08713738
000070 74 3b 1b 3c bb a9 42 bd f4 04 c3 bd 25 16 54 3d
       0.009474624 -0.04752515 -0.09522429 0.05177893
000080 d1 20 1c bd 71 c7 ae bb 5b 4c 62 3b c0 52 8c 3c
       -0.038117234 -0.005333834 0.0034530375 0.017129302
000090 6e 3f 06 bd bf 5b 97 3d 18 b3 83 3d 09 c7 33 bd
       -0.032775335 0.07390546 0.06430644 -0.043890987
0000a0 bd 2d 6c 3d d1 f4 96 3d fc b9 5b bd 6d 40 05 bd
       0.057660807 0.07370914 -0.053644165 -0.032532144
0000b0 b8 d9 18 3d 8d 9c cb bd 3a 53 31 bc 26 16 8f bc
       0.037317008 -0.09941969 -0.010823065 -0.017466616
0000c0 20 ff 26 bd 00 04 a7 3b 74 45 ac bb 43 bb fd bd
       -0.04077065 0.0050969124 -0.005257303 -0.12389233
0000d0 54 bb cb bc 43 99 ae bc 1e 8e 52 bd 7e 09 80 bd
       -0.024869598 -0.021313315 -0.051405065 -0.062518105
0000e0 c5 bd b3 3d 97 24 2a bd e7 15 94 3d 59 50 b2 3c
       0.0877643 -0.0415388 0.0723074 0.021766828
0000f0 88 ef 7c 3d 1d b0 b7 3c 40 49 cc 3b 1b 3d a7 3d
       0.061751872 0.022422845 0.006234318 0.08165952
000100 5b cf 01 3d bf 1c 78 bc bb a4 f1 bc b6 35 14 bd
       0.03169189 -0.015143572 -0.029497495 -0.036184035
000110 2c e3 3b bc 44 8f 5a 3d 5e 6b 5b bd c6 65 91 3d
       -0.011467736 0.053359285 -0.05356919 0.0709949
000120 c8 b3 b4 3c 36 2e 29 3e ba 36 97 bb 80 4c ca 3d
       0.022058383 0.16521534 -0.004614678 0.098778725
000130 4b 05 dc 3d 52 6b 34 3d 1b b7 1f bc 40 72 08 bd
       0.10743197 0.04404766 -0.009748246 -0.033312082
000140 54 9c c1 bd 91 8a 8a bd 48 c0 29 bd 99 d8 b7 3c
       -0.09453645 -0.06764711 -0.04144314 0.022442149
000150 4a 67 22 be ad 36 0c bd 22 8d dc 3c 55 64 a5 bd
       -0.15859714 -0.03423183 0.026922766 -0.080757774
000160 41 9b 81 bd d1 5f 31 3d a6 96 c2 bd 87 9d f3 bc
       -0.063284405 0.04330427 -0.0950139 -0.0297382
000170 2e 93 98 bd 51 17 d3 bd 69 67 e2 3d 31 61 78 3d
       -0.07449947 -0.103071816 0.1105488 0.060639564
000180 2b 5a be 3d 03 4e d4 3d ab bc 32 3c db 60 5d be
       0.09294542 0.10366442 0.01090924 -0.21618979
000190 e7 d2 85 3d 35 96 c3 3d 8f ec 0d bd 53 45 bd bd
       0.06534367 0.09550134 -0.034649428 -0.09241738
0001a0 80 0b 16 be 43 0e d2 bd a2 4e 6f bd 49 e0 8a 3d
       -0.14652824 -0.102566265 -0.0584246 0.0678106
0001b0 41 49 b5 bc 6f 5f 8b bd 21 4c bb 3c a3 74 6e bd
       -0.022129657 -0.06805312 0.02286345 -0.058216702
0001c0 2b 7b c8 3d e4 1b 6f 3d 2a 5c 43 bd fa 5e 0b 3d
       0.097891174 0.058376208 -0.047695316 0.034026124
0001d0 d3 75 a5 3d d4 90 95 3d fc cd ff bb ad af 95 3d
       0.08079114 0.073030144 -0.0078065377 0.07308898
0001e0 1f 38 b0 3d 5d cd 12 bd b6 88 b4 3c 95 e0 f4 3d
       0.08604454 -0.03584038 0.022037845 0.11956898
0001f0 92 10 8c 3d 0f 46 8d bd b5 1c 27 3d b1 79 32 bd
       0.06839098 -0.06898128 0.04079886 -0.043573085
000200 a9 63 c2 bd 34 c8 b0 bc ab 4a 98 bd 72 67 22 bd
       -0.09491665 -0.02157984 -0.07436117 -0.039649434
000210 cf 3a c6 3c 5c 5c 84 3b b2 70 c2 bd 07 ff f1 bb
       0.024197964 0.0040393304 -0.09494151 -0.007385138
000220 10 62 75 3d 05 41 95 bd 94 44 67 3c 83 3b c4 3c
       0.059907973 -0.07287792 0.014115471 0.023954159
000230 53 1e 47 ba 8f 53 ea 3d ba bf ea 3c 23 c4 34 bd
       -0.0007595766 0.11441719 0.028655875 -0.044132363
000240 35 2d 2b 3d ab b5 cd ba 5a 4f be 3a fa ed d1 3d
       0.04179116 -0.00156944 0.0014519498 0.102504686
000250 88 1c 1a 3d b8 ed 47 bd 0e a4 ec bb 73 69 84 bd
       0.037624866 -0.04881069 -0.0072217053 -0.06465425
000260 06 47 95 bc fd f6 27 bc 25 e7 d8 3c 29 9b 50 3d
       -0.018222343 -0.010251758 0.026477406 0.050929222
000270 0d d0 48 bc d6 27 cd bc 2c 7b f7 bc d0 6a 8c 3c
       -0.012256634 -0.02504341 -0.0302101 0.017140776
000280 d0 52 a2 bd ce 3c 9d bc a4 37 50 bb 3c d9 31 bd
       -0.079259515 -0.019194033 -0.0031771446 -0.04342006
000290 72 41 94 bd 4a e8 e7 bc e7 87 84 3d 44 b5 b4 3a
       -0.07239045 -0.028309006 0.06471234 0.0013786932
0002a0 c0 21 82 bc 95 bb b5 bd 0c 27 de bd 45 ca b6 3d
       -0.015885234 -0.08873669 -0.10847291 0.089252986
0002b0 07 55 cb bc 37 45 b2 bd cf ea 0d bb e8 fd 00 be
       -0.024820818 -0.08704608 -0.002165485 -0.12596858
0002c0 97 69 ae bd 41 0b 29 3c 15 2b 8c bd ca a0 62 bd
       -0.085162334 0.010317625 -0.06844155 -0.05532912
0002d0 fa e5 3c 3d 6c 99 3f 3c 2e 3d cf bd c3 ae d5 bb
       0.04611776 0.0116942935 -0.10119091 -0.0065210774
0002e0 96 bf 19 3d 00 8a de 3c 05 9b 4d bb 2c 41 e6 bd
       0.037536226 0.027165413 -0.0031372916 -0.11242899
0002f0 9d 55 06 3d f2 ab 4e bd 67 88 26 bb 30 45 d9 3d
       0.03279649 -0.05045695 -0.0025410892 0.106088996
000300 3a c6 e9 3d 30 1f bf bc ef 8a 86 bd 99 52 95 3d
       0.11414762 -0.023330301 -0.06569468 0.07291145
000310 24 df d3 bd 6a b7 a3 3c f5 b2 2c bd f7 32 c1 bb
       -0.10345295 0.01998492 -0.042162854 -0.005895968
000320 8b d3 5d 3d 0b 09 91 bb 12 b7 08 bd 7f e9 f0 bd
       0.05415682 -0.004426127 -0.033377714 -0.11763286
000330 6a e3 bd 3d 5d 2f b6 bd 00 4f 25 bd c1 72 39 3c
       0.092718914 -0.088957526 -0.040358543 0.011318863
000340 f4 d9 55 3c 76 50 7c bd 75 eb dd 3c 6c 68 1d 3d
       0.013052452 -0.06160017 0.027089814 0.038429663
000350 b8 a8 f6 3c a5 f7 47 3e 49 a0 df bd 3d 3d 86 bc
       0.030109748 0.19528063 -0.10919244 -0.016386623
000360 f9 94 90 bd d4 55 2b bd 88 86 6d bd 37 53 17 3d
       -0.07059664 -0.0418299 -0.057989627 0.036944594
000370 0e 36 29 3e a3 9a aa bc 4e e2 d5 bd 43 77 16 3e
       0.16524526 -0.02082569 -0.10443555 0.14693932
000380 12 c0 4f bd 9c 6a a2 bd 6a 88 ce bd 08 fc fd bb
       -0.050720282 -0.079304904 -0.10084613 -0.0077509917
000390 9f 77 05 3c fe f2 d0 bd 66 0c a9 bd 71 58 96 bc
       0.008146196 -0.10202597 -0.08254318 -0.018352719
0003a0 08 82 bf bd f5 43 0f bd 30 54 4c 3d 74 7a 19 bd
       -0.09350973 -0.03497692 0.049884975 -0.037470296
0003b0 14 a7 d7 bc 2e 17 1f be 1a af 5d bd a7 a2 07 bd
       -0.026324786 -0.15536186 -0.054122068 -0.0331141
0003c0 9a 5a ca bd 3d fa 0e 3d d5 31 47 bd da 03 d7 bd
       -0.09880562 0.034906615 -0.048631508 -0.104987815
0003d0 f3 7c b4 bd b1 4b 8f bc 23 a1 b6 bd d6 7f 1b bc
       -0.08812895 -0.017492147 -0.08917453 -0.009490928
0003e0 d2 59 b5 bd 81 dc 14 3d af 41 0c bc 19 82 e1 3c
       -0.088550225 0.0363431 -0.008560582 0.027527856
0003f0 d5 fb 46 bd f2 db 5b 3d e7 b3 0f bc 4e 78 ac 3c
       -0.04858001 0.053676553 -0.008770919 0.02105346

down3.maxpool_conv.1.double_conv.0.bias f4 [32]
000000 2d 8d e7 bc 60 42 1f bd 8a c2 71 bd a1 78 de 3b
       -0.02826556 -0.03888166 -0.059023418 0.0067892824
000010 6d f5 d5 bd 15 59 e0 3d 58 17 b8 3c 17 cf b8 bc
       -0.10447202 0.10954491 0.022472069 -0.022559686
000020 95 46 c5 bb 7a 11 70 bd 48 34 28 bc c4 2f 62 bc
       -0.006020377 -0.058610417 -0.010266371 -0.0138053335
000030 40 04 dc bb 52 18 42 3d 06 34 b1 3d 81 9e 47 bb
       -0.006714374 0.047386475 0.08652501 -0.0030459466
000040 66 5b a6 bd 03 87 85 3c 3f 52 90 3c 6f 68 02 3c
       -0.081229016 0.01629973 0.017617343 0.007959469
000050 f3 bb 1d 3d 09 fc af 3c 97 9a 61 bc 46 d2 ad bd
       0.03850932 0.021482484 -0.013769767 -0.08487372
000060 fb a0 14 be 6a 7a 47 3d ac 0d 58 bd 57 0a c2 bd
       -0.14514534 0.048700728 -0.052747414 -0.094746284
000070 e4 49 85 bd 68 6b d0 3d e5 50 8e bc 7f 45 07 3e
       -0.06508234 0.10176736 -0.017372558 0.13210104

down3.maxpool_conv.1.double_conv.1.weight f4 [32]
000000 3e a4 6e 3f b9 8a 8d 3f 87 43 7a 3f 6f 1d 71 3f
       0.93219364 1.105796 0.9775929 0.9418554
000010 3b e6 73 3f 6b 39 78 3f 8a 32 7a 3f 05 3f 7c 3f
       0.9527318 0.9696261 0.97733366 0.9853366
000020 93 17 80 3f be 08 7c 3f 7c bf 85 3f 58 fd 7f 3f
       1.0007194 0.9845084 1.0449061 0.99995947
000030 47 95 76 3f 57 5f 89 3f 08 f6 85 3f 1a c5 87 3f
       0.9632153 1.073222 1.0465708 1.0607026
000040 fb b9 7b 3f 74 d9 72 3f 32 fe 81 3f 3a 3a 84 3f
       0.9833066 0.9486306 1.0155699 1.0330269
000050 c5 ba 84 3f 91 47 6d 3f 7d 9f 7f 3f a2 b5 7d 3f
       1.0369498 0.92687327 0.99852735 0.99105275
000060 bd 9c 81 3f 9e 3d 77 3f 5b 20 88 3f 69 1c 6f 3f
       1.0125958 0.96578395 1.0634874 0.93402725
000070 c4 01 8a 3f 82 bf 73 3f 4b b3 70 3f a8 f5 7f 3f
       1.0781789 0.9521409 0.9402358 0.99984217
