python3/star_removal/saved/2021_12_06__12_16_16_NF_4_LR_0.001_EP_2/nf_4_LR_0.001_EP_2.pth (torch, 318977 bytes, 109 tensors)

inc.double_conv.0.weight f4 [4, 1, 3, 3]
0.46210346 -0.16714977 -0.105346836 0.42009857 0.017037094 0.32380083 0.28022295 0.18435614
-0.2050025 0.21136716 -0.117299035 -0.22549187 0.33354625 0.0021698268 -0.0012101036 -0.06886777
-0.32182476 0.11386877 0.04372189 -0.4927027 0.10143641 -0.24246368 -0.11923245 -0.12525548
0.0066598123 -0.3515206 0.104975514 -0.19416071 0.089213476 -0.22692415 -0.01985871 -0.38250494
-0.28225234 0.16222109 -0.3725943 0.041335024
00000000: d398 ec3e 4f29 2bbe 15c0 d7bd 2917 d73e
00000010: 6091 8b3c 39c9 a53e 6279 8f3e dbc7 3c3e
00000020: 2dec 51be a270 583e 7a3a f0bd 57e7 66be
00000030: 93c6 aa3e a733 0e3b 579c 9eba 8c0a 8dbd
00000040: 37c6 a4be 0834 e93d b915 333d 8743 fcbe
00000050: e4bd cf3d 6648 78be 2530 f4bd f942 00be
00000060: 8e3a da3b 82fa b3be 67fd d63d 11d2 46be
00000070: 8eb5 b63d ce5e 68be bcae a2bc b0d7 c3be
00000080: 6183 90be 491d 263e aec4 bebe ea4e 293d

inc.double_conv.0.bias f4 [4]
0.04445733 -0.04439376 0.036261074 0.27055958
00000000: e418 363d 3bd6 35bd 7e86 143d c986 8a3e

inc.double_conv.1.weight f4 [4]
0.9942215 0.8660913 1.0078218 1.0910863
00000000: 4d85 7e3f 29b8 5d3f 4e00 813f b7a8 8b3f

inc.double_conv.1.bias f4 [4]
-0.037745852 -0.26650804 -0.1225646 -0.3004674
00000000: 659b 1abd be73 88be 2603 fbbd ddd6 99be

inc.double_conv.1.running_mean f4 [4]
634.5385 -78.5412 -657.868 -685.3779
00000000: 77a2 1e44 1815 9dc2 8d77 24c4 3058 2bc4

inc.double_conv.1.running_var f4 [4]
603862.9 51795.977 488721.94 545881.2
00000000: 6e6d 1349 fa53 4a47 3ea2 ee48 9345 0549

inc.double_conv.3.weight f4 [4, 4, 3, 3]
0.043652218 0.028967956 0.17737779 0.09904308 0.0065249586 0.19205101 -0.03951804 -0.018570121
0.09805967 -0.054484714 0.00918232 -0.13685568 -0.034108758 -0.021685291 -0.09048534 -0.014403465
-0.008449059 -0.14371789 0.07704346 -0.12745301 -0.030920653 -0.020111637 -0.16234404 -0.13640402
-0.112687275 -0.07471144 -0.16085581 0.0051078647 0.046093814 -0.080599464 0.06478525 0.055956878
0.0022620223 -0.18859258 -0.12099494 -0.14990668 -0.059225038 0.017568797 -0.03385301 -0.19693008
-0.16746323 -0.17181015 -0.042681187 -0.17050341 -0.049566 0.044879213 -0.0031221868 0.09565055
0.09250806 0.1548197 0.0021537906 0.066453695 0.0067068175 -0.027271654 -0.11586096 0.040665954
0.081537105 0.20926759 -0.047492 0.022560993 -0.012458408 0.19337994 -0.045848176 0.060078338
-0.05389046 -0.05726365 0.077588394 0.113957636 -0.04377425 0.12022612 0.15774336 0.1147693
0.07565187 0.09152401 -0.15904438 -0.086703844 0.18858472 0.07854929 0.016464781 -0.11381844
-0.06432472 -0.05243912 -0.08461333 -0.19728836 -0.012167169 -0.10166273 0.063924156 0.0058568763
-0.04044594 -0.025965795 -0.14127243 0.018326292 0.04451594 -0.046820436 -0.15853755 0.019351896
0.017768422 0.0777335 0.079145454 0.05170162 0.05594943 -0.05342988 -0.08910992 -0.012691345
0.09259319 -0.15122612 -0.03477839 0.028707078 0.020285737 -0.026178543 -0.16929942 0.19372243
-0.17417234 -0.08845675 0.004798204 -0.026971254 0.035090506 -0.0013120461 0.023140622 -0.026750488
-0.16778612 0.10239629 0.014569423 -0.075108126 -0.024707578 -0.17619295 -0.030899474 0.034959905
0.0045053796 0.038887486 0.038209107 0.030640129 -0.1382004 0.15660197 -0.11623143 -0.16348179
0.11555286 -0.012355209 0.09789292 0.28500327 -0.16131498 -0.02820856 0.13668406 -0.013855989
00000000: abcc 323d 354e ed3c 86a2 353e 19d7 ca3d
00000010: 52cf d53b 05a9 443e abdd 21bd 5e20 98bc
00000020: 82d3 c83d 5d2b 5fbd 7171 163c e523 0cbe
00000030: a0b5 0bbd 5aa5 b1bc 6150 b9bd 83fc 6bbc
00000040: ec6d 0abc c82a 13be f6c8 9d3d 0b83 02be
00000050: 4f4d fdbc 29c1 a4bc 843d 26be 7fad 0bbe
00000060: 96c8 e6bd 5002 99bd 63b7 24be e05f a73b
00000070: decc 3c3d 5511 a5bd 21ae 843d 0a33 653d
00000080: 703e 143b 6a1e 41be 32cc f7bd 2381 19be
00000090: f495 72bd 70ec 8f3c 74a9 0abd 0aa8 49be
000000a0: 7b7b 2bbe 00ef 2fbe 78d2 2ebd 7298 2ebe
000000b0: b805 4bbd 44d3 373d 9a9d 4cbb 70e4 c33d
000000c0: de74 bd3d 0e89 1e3e 9c26 0d3b e018 883d
000000d0: ddc4 db3b ce68 dfbc 8348 edbd 5891 263d
000000e0: edfc a63d 3e4a 563e f986 42bd d5d1 b83c
000000f0: 5a1e 4cbc 6405 463e 4ccb 3bbd b414 763d
00000100: 3ebc 5cbd 4a8d 6abd aae6 9e3d 9f62 e93d
00000110: a14c 33bd 1d39 f63d 7a87 213e 2b0c eb3d
00000120: 5eef 9a3d f170 bb3d 88dc 22be c991 b1bd
00000130: 5a1c 413e 73de a03d 26e1 863c a419 e9bd
00000140: aebc 83bd 67ca 56bd c149 adbd f605 4abe
00000150: ce58 47bc 8d34 d0bd abea 823d 0aeb bf3b
00000160: a4aa 25bd 38b6 d4bc b8a9 10be 0521 963c
00000170: 5956 363d c9c6 3fbd ab57 22be de87 9e3c
00000180: 158f 913c be32 9f3d 0317 a23d 14c5 533d
00000190: 3b2b 653d 4ad9 5abd 437f b6bd 5cef 4fbc
000001a0: 80a1 bd3d 05db 1abe c973 0ebd 1b2b eb3c
000001b0: 462e a63c 6274 d6bc d45c 2dbe 2c5f 463e
000001c0: 3c5a 32be d028 b5bd 413a 9d3b d2f2 dcbc
000001d0: 10bb 0f3d f6f8 abba 6791 bd3c d723 dbbc
000001e0: 20d0 2bbe 25b5 d13d 97b4 6e3c 4ad2 99bd
000001f0: 8c67 cabc ed6b 34be e520 fdbc 1e32 0f3d
00000200: dda1 933b 7c48 1f3d 2781 1c3d 0201 fb3c
00000210: 6884 0dbe 445c 203e be0a eebd c567 27be
00000220: faa6 ec3d 816d 4abc 157c c83d f3eb 913e
00000230: c12f 25be a315 e7bc e8f6 0b3e 3b04 63bc

inc.double_conv.3.bias f4 [4]
0.19583413 -0.21826653 0.057508435 0.13181214
00000000: be88 483e 4381 5fbe f78d 6b3d c3f9 063e

inc.double_conv.4.weight f4 [4]
1.0112269 0.9218937 0.9778566 0.9594181
00000000: e26f 813f 3a01 6c3f cf54 7a3f 6d9c 753f

inc.double_conv.4.bias f4 [4]
0.019534437 -0.18997392 -0.07681338 -0.06481733
00000000: af06 a03c 8688 42be 5550 9dbd f3be 84bd

inc.double_conv.4.running_mean f4 [4]
0.08102593 -0.29704085 -0.008472772 0.1194197
00000000: ecf0 a53d bd15 98be 62d1 0abc 5192 f43d

inc.double_conv.4.running_var f4 [4]
0.38549328 0.48279017 0.021675255 0.09276328
00000000: 605f c53e 4630 f73e 4e90 b13c adfa bd3d

down1.maxpool_conv.1.double_conv.0.weight f4 [8, 4, 3, 3]
-0.020932723 0.18214989 -0.08579574 -0.1316841 0.10780308 0.00751368 -0.07037452 -0.10279998
0.0006087128 0.067757234 -0.015166955 -0.07925453 -0.023484167 0.25265917 0.14996101 0.13906765
0.18228264 0.03016439 -0.007950153 0.0075851176 0.17189786 0.07449593 0.098475546 -0.045235954
-0.085309535 0.12062064 -0.08874745 0.024821406 0.0113539295 -0.0046166983 -0.10656467 -0.077485956
0.0015571269 0.024092104 0.16112779 0.056024548 0.05795628 -0.0061117653 0.0069844984 -0.048639856
0.10646083 0.050029587 -0.15941574 -0.053507295 0.08098655 -0.03324065 -0.029509617 -0.1755233
-0.08296144 -0.15857282 0.07904259 0.019749254 0.010422328 -0.15274484 -0.064961545 0.10979995
0.039533027 0.023136541 -0.0468756 0.21912554 0.08672894 0.04744207 0.12501806 0.11572167
-0.1578653 -0.10633541 -0.14686674 0.038667217 0.012247424 0.06526875 0.06665194 0.007822755
-0.08389595 0.066710345 -0.05737925 -0.013655947 -0.10077237 -0.08279506 0.020986984 -0.11297276
0.18442667 0.19689111 0.05751032 0.17516729 -0.031630836 -0.10392272 0.19731267 -0.023779033
-0.08509231 -0.11690275 -0.20718677 -0.15767244 -0.16103669 -0.09562461 0.050369002 0.08551313
-0.028016575 0.1415087 -0.14301132 0.20764285 -0.057638835 0.049335975 0.15174475 0.074552715
0.05159202 0.084462225 -0.055592846 0.14639622 0.060368452 -0.07221911 0.07264102 -0.16158208
-0.14901967 0.012615338 -0.026871642 -0.014001724 -0.049195 -0.073927835 -0.08427657 -0.07691007
-0.11980947 -0.005761766 0.14350635 0.03129867 -0.16721289 -0.014942001 0.10355554 0.0054797004
-0.0586483 0.010187662 0.00019812564 -0.02935659 -0.029227218 0.02345658 -0.062054854 -0.057270955
0.17071974 0.032205284 0.08201492 0.17206582 -0.018487217 -0.1492662 0.09566699 0.19987331
-0.046942603 -0.14554861 -0.17109138 0.040206227 -0.02661954 0.17330928 0.081000485 -0.032825258
0.16222261 0.08810987 -0.15951738 0.04674172 -0.02199419 -0.16246237 0.117509045 -0.22529785
-0.117749505 0.13845459 -0.056256842 -0.15871583 0.10454528 -0.17970468 0.08046081 -0.031410694
-0.13625453 0.1823657 0.016092602 -0.0069587626 -0.10174953 -0.108738534 -0.11932725 -0.19481364
-0.00060793216 -0.07852042 0.062027425 -0.05329598 0.019921552 0.1783025 0.14959031 0.14834183
-0.033843398 0.03902218 -0.17251462 0.057448585 -0.122515604 0.12608041 -0.0119357975 0.03126441
0.07451527 -0.042075284 -0.1417958 -0.061623145 -0.011785822 -0.014575135 0.1258505 -0.11524286
0.051318787 0.008879461 -0.050034456 0.02236205 -0.15485111 -0.21234411 0.024317615 -0.025472134
-0.069389604 -0.043349616 0.042327266 -0.078217655 -0.116199605 0.12755828 -0.08444663 0.09449811
0.07516879 -0.20098774 0.10827081 -0.08642466 0.02551355 0.17505051 0.16488671 0.068983294
-0.01910104 -0.18516994 -0.1516884 -0.13742742 -0.00082324963 0.114861 -0.138471 -0.15247837
-0.115243286 0.09560232 -0.041264452 0.009215778 -0.121077344 0.05500213 0.11349024 -0.033821087
0.15046224 -0.059130806 0.05636007 0.06747987 0.07612274 -0.043998256 0.123304114 0.025788046
-0.19825795 -0.06621472 0.12561597 -0.05965982 0.10182318 0.10890789 -0.013986193 0.102777556
00000000: 1a7b abbc 8085 3a3e adb5 afbd 32d8 06be
00000010: dcc7 dc3d 5135 f63b 8420 90bd cc88 d2bd
00000020: 0692 1f3a 4ec4 8a3d d27e 78bc 3350 a2bd
00000030: de61 c0bc 8b5c 813e 618f 193e c067 0e3e
00000040: 4da8 3a3e 501b f73c 5c41 02bc 948c f83b
00000050: fe05 303e 5291 983d 8cad c93d 5649 39bd
00000060: c4b6 aebd f407 f73d 39c1 b5bd 4356 cb3c
00000070: d505 3a3c ac47 97bb 943e dabd f5b0 9ebd
00000080: 8218 cc3a ce5c c53c affe 243e ff79 653d
00000090: 9063 6d3d 3445 c8bb 38de e43b 963a 47bd
000000a0: 2308 da3d d3eb 4c3d e13d 23be 772a 5bbd
000000b0: 47dc a53d 5927 08bd 27be f1bc 61bc 33be
000000c0: b0e7 a9bd ea60 22be 15e1 a13d 30c9 a13c
000000d0: 69c2 2a3c 2569 1cbe 8f0a 85bd ccde e03d
000000e0: 62ed 213d d888 bd3c a100 40bd 7262 603e
000000f0: f19e b13d 9e52 423d bc04 003e 7cff ec3d
00000100: 71a7 21be 61c6 d9bd 3c64 16be 8461 1e3d
00000110: 6ba9 483c 9fab 853d d080 883d 032b 003c
00000120: a4d1 abbd 6f9f 883d 8106 6bbd 31bd 5fbc
00000130: bf61 cebd 7590 a9bd e5ec ab3c 435e e7bd
00000140: 58da 3c3e d39d 493e f18f 6b3d 0e5f 333e
00000150: 568f 01bd 6fd5 d4bd 550c 4a3e 3fcc c2bc
00000160: e144 aebd b66a efbd c528 54be e274 21be
00000170: cde6 24be d6d6 c3bd ba4f 4e3d 8221 af3d
00000180: 0483 e5bc a8e7 103e 8f71 12be 54a0 543e
00000190: b316 6cbd 8514 4a3d fa62 1b3e 18af 983d
000001a0: 2752 533d 88fa ac3d 53b5 63bd e4e8 153e
000001b0: e944 773d 9de7 93bd d1c4 943d c675 25be
000001c0: 9d98 18be 90b0 4e3c eb21 dcbc 7d67 65bc
000001d0: b280 49bd 7a67 97bd 3299 acbd 0783 9dbd
000001e0: ab5e f5bd 32cd bcbb 54f3 123e 0933 003d
000001f0: db39 2bbe 4bcf 74bc ed14 d43d 0f8f b33b
00000200: 3339 70bd 27ea 263c f2bf 4f39 3b7d f0bc
00000210: eb6d efbc 0328 c03c 3b2d 7ebd f394 6abd
00000220: 28d1 2e3e b0e9 033d 70f7 a73d 0632 303e
00000230: 8172 97bc 3dd9 18be 0eed c33d 97ab 4c3e
00000240: e346 40bd b20a 15be 9432 2fbe 49af 243d
00000250: 3911 dabc fd77 313e 95e3 a53d c773 06bd
00000260: af1d 263e f372 b43d 8658 23be 3f74 3f3d
00000270: 292d b4bc 895c 26be 95a8 f03d 7bb4 66be
00000280: a726 f1bd 0ac7 0d3e 936d 66bd 6786 22be
00000290: d61b d63d 8104 38be a3c8 a43d 80a8 00bd
000002a0: 4f86 0bbe 13be 3a3e a2d4 833c 5506 e4bb
000002b0: 0f62 d0bd 4fb2 debd d861 f4bd 3a7d 47be
000002c0: a35d 1fba 50cf a0bd 7810 7e3d e34c 5abd
000002d0: 8632 a33c ee94 363e 342e 193e ece6 173e
000002e0: 609f 0abd b9d5 1f3d aca7 30be 354f 6b3d
000002f0: 76e9 fabd 391b 013e 5d8e 43bc 1c0f 003d
00000300: 769b 983d 2257 2cbd eb32 11be 8d68 7cbd
00000310: 5219 41bc 8ccc 6ebc f4de 003e 7304 ecbd
00000320: a633 523d 297b 113c eef0 4cbd 9e30 b73c
00000330: 4a91 1ebe bc70 59be bc35 c73c f0aa d0bc
00000340: 231c 8ebd 5e8f 31bd 5b5f 2d3d 9430 a0bd
00000350: 0ffa edbd a39e 023e 5bf2 acbd 3a88 c13d
00000360: 18f2 993d bbcf 4dbe 16bd dd3d 6aff b0bd
00000370: cb01 d13c 7140 333e 10d8 283e 1d47 8d3d
00000380: c979 9cbc 309d 3dbe 3454 1bbe c6b9 0cbe
00000390: 59cf 57ba 3e3c eb3d 58cb 0dbe 4a23 1cbe
000003a0: ac04 ecbd 26cb c33d ea04 29bd c6fd 163c
000003b0: 66f7 f7bd ea49 613d 926d e83d fb87 0abd
000003c0: c612 1a3e 2533 72bd d1d9 663d e332 8a3d
000003d0: 3de6 9b3d 8437 34bd de86 fc3d 7441 d33c
000003e0: 2204 4bbe 959b 87bd 79a1 003e db5d 74bd
000003f0: ac88 d03d 1a0b df3d 5826 65bc 0a7d d23d

down1.maxpool_conv.1.double_conv.0.bias f4 [8]
0.08433788 -0.2410459 0.07167208 0.06094183 -0.046052784 0.102788806 -0.16437316 0.0032867582
00000000: 57b9 ac3d bdd4 76be d0c8 923d 249e 793d
00000010: d8a1 3cbd f082 d23d 7051 28be a766 573b

down1.maxpool_conv.1.double_conv.1.weight f4 [8]
1.0473808 0.9478075 1.0005571 0.9753159 0.9982558 1.0163139 0.97314566 1.0040824
00000000: 9310 863f 83a3 723f 4112 803f 4eae 793f
00000010: b18d 7f3f 9316 823f 1320 793f c685 803f

down1.maxpool_conv.1.double_conv.1.bias f4 [8]
-0.06539721 -0.046418775 -0.08075154 -0.139556 0.1273133 0.04147229 0.04165356 0.13229357
00000000: f9ee 85bd 9d21 3ebd 1061 a5bd c5e7 0ebe
00000010: 6b5e 023e d9de 293d ec9c 2a3d f777 073e

down1.maxpool_conv.1.double_conv.1.running_mean f4 [8]
0.3275134 -0.23863645 0.06956558 -0.011303123 -0.31210488 0.034712344 -0.1412859 -0.22423247
00000000: d6af a73e 1d5d 74be 6678 8e3d bc30 39bc
00000010: 36cc 9fbe 882e 0e3d 40ad 10be 329d 65be

down1.maxpool_conv.1.double_conv.1.running_var f4 [8]
0.053614415 0.11066087 0.17229123 0.10565853 0.10700969 0.088309795 0.10921983 0.082933195
00000000: ca9a 5b3d 2ba2 e23d 1d6d 303e 8063 d83d
00000010: e527 db3d c4db b43d a5ae df3d e1d8 a93d

down1.maxpool_conv.1.double_conv.3.weight f4 [8, 8, 3, 3]
0.043190565 0.082588226 0.10045244 0.10935418 0.006319834 0.12946057 0.064482756 0.09256103
0.08501707 -0.06256111 -0.082972184 0.075444214 0.0740177 0.1178556 0.06726994 0.0041059353
0.12757924 -0.06432789 0.05246709 -0.022829272 -0.058394745 0.07307764 -0.0039379084 -0.014537555
0.08441288 0.026519584 0.07035 -0.015709918 0.11589471 -0.075819336 -0.040262606 0.08295783
0.07207156 -0.043057956 0.0076065385 0.047520116 0.17081787 0.068196446 -0.036928758 0.046825778
-0.12310618 -0.020319622 0.021088995 -0.030798797 -0.011291192 -0.0039151628 -0.106803924 0.058092754
0.030774923 0.06252609 -0.096837424 0.059554834 0.071620174 -0.09595359 0.13377354 -0.03442014
-0.047349066 -0.082071096 0.03422908 0.031675287 0.08423792 0.06533665 -0.104749806 0.075359315
0.15915108 0.11248306 0.118645355 0.044435818 -0.026418764 0.042504963 0.039926 0.026982393
0.10704859 0.1276961 -0.015532025 -0.006946315 0.1482824 0.06644706 0.010399572 -0.03932891
0.050284345 0.012650963 -0.07635734 -0.07198664 -0.09231902 0.07322525 -0.029845977 -0.111775175
0.035233818 0.006759367 -0.025772573 0.04448477 -0.0909882 0.078204095 0.040190987 0.00336365
0.05523314 0.08104012 0.03972561 -0.05939303 0.04795562 0.034639243 0.11558887 -0.0030136574
-0.09879705 0.09933186 0.14550644 -0.11090467 -0.090538435 0.06570219 -0.061969966 -0.12702575
-0.0969738 0.085518144 -0.17680445 0.02985446 -0.018088913 0.047476284 0.07916296 0.009178332
-0.112135306 0.013579441 -0.068956286 0.0643527 0.09125501 -0.015590211 -0.09802449 -0.001030762
0.026561135 -0.080480725 -0.0511365 0.060585395 0.002363201 -0.015634019 -0.10385412 0.09945711
-0.09947651 0.13478124 -0.13908225 -0.124959275 0.017982055 0.09330455 -0.079162784 0.04603416
-0.07484857 -0.0014764478 -0.1580775 0.03646642 -0.09301081 -0.11077744 0.13209853 0.01796518
0.05283289 -0.026736679 0.039091993 -0.09859048 0.14000234 0.08126305 -0.037416954 0.10409049
-0.02545537 -0.06374308 0.10001195 0.12162038 0.052170902 0.07119738 0.101908594 -0.07767971
-0.09049778 0.0434613 0.020352852 0.006353486 -0.057437677 0.01951279 -0.0130003905 -0.054375544
0.02966426 -0.077519394 -0.03536623 0.00024898085 0.03028305 0.044820715 0.076836064 0.03579192
0.019255878 -0.046369314 0.011570578 -0.09066435 -0.046860475 -0.035478987 -0.0768452 -0.0885152
0.027859068 -0.07382515 0.007393584 0.12024362 -0.0034945004 0.005412272 0.08537814 -0.06914403
-0.064397044 0.06514575 -0.0865774 -0.04363089 0.00064610515 -0.05964148 -0.025911978 -0.11441724
0.04567379 0.14964445 -0.05635485 0.20351271 0.09165878 0.043177277 0.025457367 -0.036191896
-0.14788562 0.029769974 -0.104025446 -0.15394776 -0.0950506 0.0912084 0.013473599 0.11610053
-0.052946053 -0.14201044 -0.09280595 0.08720647 -0.02704514 -0.10082633 -0.08356812 0.037704963
0.05940471 -0.017926414 0.0117027555 0.07446168 -0.068961784 -0.027297271 -0.020610394 0.05296765
-0.13485304 -0.06849982 -0.03369008 -0.14410052 0.08890209 0.13657264 0.005159971 -0.09460172
0.04220906 0.08009011 -0.08544494 0.08622105 -0.012848346 0.008671873 -0.027090652 0.023198728
00000000: 97e8 303d 0424 a93d 02ba cd3d 16f5 df3d
00000010: 9c16 cf3b 5091 043e 890f 843d a390 bd3d
00000020: 6e1d ae3d 0a20 80bd 52ed a9bd 7f82 9a3d
00000030: 9896 973d 475e f13d d3c4 893d 158b 863b
00000040: 22a4 023e 57be 83bd bbe7 563d 7404 bbbc
00000050: 542f 6fbd bba9 953d 9209 81bb ed2e 6ebc
00000060: a9e0 ac3d 993f d93c a913 903d 16b2 80bc
00000070: 355a ed3d 2b47 9bbd 67ea 24bd cbe5 a93d
00000080: 419a 933d 8a5d 30bd 4540 f93b 74a4 423d
00000090: e1ea 2e3e 94aa 8b3d 9c42 17bd 63cc 3f3d
000000a0: 181f fcbd 5675 a6bc d4c2 ac3c c24d fcbc
000000b0: b1fe 38bc c44a 80bb 04bc dabd abf2 6d3d
000000c0: b11b fc3c ae0d 803d b352 c6bd c5ef 733d
000000d0: 99ad 923d 5183 c4bd eefb 083e 22fc 0cbd
000000e0: 18f1 41bd e414 a8bd cb33 0c3d f2bd 013d
000000f0: ee84 ac3d 39cf 853d 1187 d6bd fc55 9a3d
00000100: 80f8 223e 855d e63d 56fc f23d 5502 363d
00000110: 2a6c d8bc af19 2e3d 7289 233d 2e0a dd3c
00000120: 4b3c db3d c4c2 023e 097a 7ebc ea9d e3bb
00000130: 57d7 173e 6515 883d f762 2a3c 5a17 21bd
00000140: f5f6 4d3d fc45 4f3c 3d61 9cbd bb6d 93bd
00000150: c111 bdbd 1ff7 953d 8d7f f4bc 62ea e4bd
00000160: 5651 103d ae7d dd3b 0121 d3bc aa35 363d
00000170: 0558 babd 7829 a03d 4e9f 243d af70 5c3b
00000180: 253c 623d 5df8 a53d 52b7 223d 1b46 73bd
00000190: 1d6d 443d e1e1 0d3d dcb9 ec3d c880 45bb
000001a0: 1c56 cabd 816e cb3d a4ff 143e fd21 e3bd
000001b0: 376c b9bd df8e 863d 38d4 7dbd 0a13 02be
000001c0: 339a c6bd 2324 af3d 3a0c 35be 5791 f43c
000001d0: 332f 94bc 7e76 423d 3120 a23d b760 163c
000001e0: 32a7 e5bd 4e7c 5e3c f438 8dbd 59cb 833d
000001f0: e8e3 ba3d 166e 7fbc 10c1 c8bd a21a 87ba
00000200: bd96 d93c 14d3 a4bd 8274 51bd 6428 783d
00000210: efdf 1a3b ea12 80bc 78b1 d4bd 2bb0 cb3d
00000220: 57ba cbbd 1804 0a3e 946b 0ebe a6ea ffbd
00000230: 1a4f 933c 7516 bf3d 1920 a2bd 518e 3c3d
00000240: 354a 99bd 5e85 c1ba 11df 21be d05d 153d
00000250: 747c bebd 48df e2bd d644 073e b72b 933c
00000260: 4d67 583d e106 dbbc ed1e 203d cee9 c9bd
00000270: c65c 0f3e 3e6d a63d 8542 19bd 652d d53d
00000280: c887 d0bc bb8b 82bd 11d3 cc3d 1b14 f93d
00000290: 28b1 553d efcf 913d 74b5 d03d 8a16 9fbd
000002a0: e656 b9bd 7a04 323d 06bb a63c e730 d03b
000002b0: c543 6bbd 49d9 9f3c 97ff 54bc e4b8 5ebd
000002c0: 7602 f33c 7dc2 9ebd 2edc 10bd a589 8239
000002d0: 2914 f83c ed95 373d 3a5c 9d3d 8c9a 123d
000002e0: 81be 9d3c c0ed 3dbd 8692 3d3c 3bae b9bd
000002f0: c5f0 3fbd 6a52 11bd 0461 9dbd 7547 b5bd
00000300: b338 e43c a431 97bd e145 f23b 4942 f63d
00000310: fd03 65bb 6e59 b13b bcda ae3d 639b 8dbd
00000320: 99e2 83bd 236b 853d 7e4f b1bd 4eb6 32bd
00000330: 625f 293a a04a 74bd 5b45 d4bc 9653 eabd
00000340: 7114 3b3d 653c 193e 58d4 66bd a365 503e
00000350: 99b7 bb3d a8da 303d f88b d03c f43d 14bd
00000360: 546f 17be 29e0 f33c 4b0b d5bd 7ba4 1dbe
00000370: e4a9 c2bd 78cb ba3d 5fc0 5c3c 1dc6 ed3d
00000380: f6dd 58bd 2f6b 11be 0c11 bebd 4e99 b23d
00000390: c58d ddbc 097e cebd c325 abbd 8570 1a3d
000003a0: 5a52 733d 6ada 92bc eabc 3f3c 5e7f 983d
000003b0: d63b 8dbd 879e dfbc 21d7 a8bc 9bf4 583d
000003c0: ea16 0abe a249 8cbd 9cfe 09bd 168f 13be
000003d0: 4d12 b63d b3d9 0b3e f914 a93b 8cbe c1bd
000003e0: 68e3 2c3d 4906 a43d c2fd aebd a994 b03d
000003f0: de81 52bc 7914 0e3c 37ed ddbc 420b be3c

down1.maxpool_conv.1.double_conv.3.bias f4 [8]
-0.024875231 0.036751032 -0.11873878 0.017717939 -0.031796873 -0.078871384 0.011580398 0.0020712463
00000000: 24c7 cbbc 4088 163d 512d f3bd 3625 913c
00000010: 703d 02bd 5287 a1bd b6bb 3d3c bfbd 073b

down1.maxpool_conv.1.double_conv.4.weight f4 [8]
0.935169 0.983728 0.96805894 0.95016974 0.9808696 1.0181422 0.94946486 0.9988788
00000000: 3c67 6f3f 99d5 7b3f b6d2 773f 533e 733f
00000010: 451a 7b3f 7c52 823f 2110 733f 85b6 7f3f

down1.maxpool_conv.1.double_conv.4.bias f4 [8]
-0.018207394 -0.08594775 -0.019283433 0.03537168 -0.11982457 0.057929512 -0.08859033 0.067647465
00000000: ac27 95bc 6005 b0bd 4af8 9dbc e5e1 103d
00000010: 9666 f5bd 7f47 6d3d d96e b5bd c18a 8a3d

down1.maxpool_conv.1.double_conv.4.running_mean f4 [8]
0.7826284 0.029660663 0.025218816 -0.12615016 0.19419655 -0.0006400589 0.5539379 -0.5341179
00000000: 565a 483f ebfa f23c b197 ce3c 822d 01be
00000010: 76db 463e a0c9 27ba e0ce 0d3f f3bb 08bf

down1.maxpool_conv.1.double_conv.4.running_var f4 [8]
0.20529653 0.5518931 0.11658594 0.13217044 0.31047174 0.5085306 0.23223469 0.19691803
00000000: 4139 523e de48 0d3f 9cc4 ee3d b057 073e
00000010: 27f6 9e3e 102f 023f eece 6d3e e1a4 493e

down2.maxpool_conv.1.double_conv.0.weight f4 [16, 8, 3, 3]
-0.032642372 0.07410835 0.011620276 -0.07697633 -0.049428478 0.030529449 -0.06524098 0.039094876
0.014220992 0.10744446 0.14390025 -0.09297901 -0.0015612592 0.030477531 -0.05422419 0.13642265
0.09215008 0.014437401 0.118027695 -0.05985218 -0.1127753 0.035050612 -0.08223608 0.098816775
0.089331254 0.04333895 -0.08755431 -0.10473559 -0.012399321 -0.084466 -0.041776024 0.033432696
-0.12319439 -0.060336936 0.007640687 0.08241176 0.12623864 0.11675298 0.0283485 0.095711626
0.0016751175 0.14822714 0.047457542 0.02611469 0.032071907 0.053678226 -0.051357634 -0.061291307
0.049873997 0.02133367 0.09401112 -0.013424549 0.12907715 0.0076870634 -0.06347284 -0.122667894
-0.00854185 -0.08807761 0.06941262 -0.13760772 0.017501164 -0.053248245 0.052220266 0.11740616
-0.08302485 -0.06836181 0.10412741 0.04861105 0.0759355 0.12720814 0.09096008 -0.047885332
0.045715734 -0.0033175757 0.06922791 0.027821843 -0.012585654 -0.12333474 0.09385049 0.027370276
0.04493859 0.07823267 -0.06992645 0.026906919 0.058552857 0.115453206 0.11467485 0.036194377
0.09539008 0.16827916 -0.029205479 -0.014234679 0.09640199 0.029054046 -0.08911966 0.06161251
0.018320862 -0.020965269 -0.10483603 -0.09397491 0.046853732 0.03872147 -0.09335504 -0.078328766
0.09981395 -0.0888581 0.030418904 -0.022146687 0.03095078 -0.018286373 -0.043368943 0.11425875
0.10636655 0.08009237 0.06050678 0.13167945 0.008965184 -0.014682193 0.1303263 0.061328672
0.05495992 0.085512646 0.011386542 0.0030714548 -0.07757363 0.13051838 -0.19455531 -0.0425602
-0.06420789 -0.033523753 -0.13111663 -0.101276666 -0.13661161 -0.049253274 -0.026846737 -0.06947617
-0.040214345 0.031164525 0.026922133 0.03442619 -0.08054358 -0.07290583 -0.08248905 -0.03202934
0.06561826 -0.12778434 -0.006614849 0.0034262387 0.08262751 -0.0043970505 -0.031591553 -0.08633601
0.0045147887 0.019104514 0.05854182 -0.013595564 0.023155319 -0.07883427 0.04148605 0.046934072
-0.111611016 -0.008323683 -0.045790903 0.11961453 0.055695508 -0.190039 -0.016359176 0.14564131
0.03270799 0.10852982 0.0976429 -0.043418504 -0.013460375 -0.09325516 0.07815549 0.0989308
0.017852306 0.036997087 0.07604296 -0.026530592 0.063314706 0.005001422 0.06265438 -0.14614694
-0.1213818 0.08158816 -0.03296164 -0.07417221 -0.020478148 -0.051512096 0.07080148 0.08559977
0.0003202101 -0.0240583 0.059116233 -0.034887247 0.07416124 0.12189858 -0.15239874 -0.20226839
-0.014668343 0.01870707 0.08094033 -0.044202298 0.05423145 -0.05000709 0.097621374 0.12385568
0.043434862 0.0047422643 -0.02047991 0.018151766 0.011078053 -0.08724997 0.033491068 0.058574617
-0.0055892644 -0.12174058 -0.05911378 -0.15138476 -0.15478435 -0.0055561867 -0.03178809 -0.0540824
0.07514911 -0.032662265 -0.10763031 -0.13545728 0.038839668 -0.06573361 0.061385456 -0.07430441
-0.11451479 -0.056016702 0.05842526 0.009184229 0.0017006227 -0.11737692 -0.00073911465 -0.011796304
-0.10161659 0.09815404 -0.083987646 -0.0687953 -0.0051116627 0.06790898 0.029508742 0.060502093
0.10523352 0.012643939 0.11378033 -0.02754981 0.01648653 -0.094168946 -0.027546695 -0.14008828
00000000: 02b4 05bd 1ec6 973d f862 3e3c c4a5 9dbd
00000010: 8475 4abd e518 fa3c 109d 85bd f321 203d
00000020: 2aff 683c d70b dc3d 965a 133e c76b bebd
00000030: 2aa3 ccba 04ac f93c 2f1a 5ebd 61b2 0b3e
00000040: 2eb9 bc3d d98a 6c3c 81b8 f13d 8f27 75bd
00000050: bdf6 e6bd 3b91 0f3d 646b a8bd 7360 ca3d
00000060: 4ef3 b63d 2f84 313d ad4f b3bd 9d7f d6bd
00000070: 8626 4bbc 83fc acbd 561d 2bbd b9f0 083d
00000080: 574d fcbd dd23 77bd ba5e fa3b 7fc7 a83d
00000090: b444 013e 301c ef3d 1d3b e83c 7504 c43d
000000a0: 9e8f db3a dbc8 173e d762 423d 79ee d53c
000000b0: d55d 033d b3dd 5b3d 625c 52bd 980c 7bbd
000000c0: ad48 4c3d f3c3 ae3c e788 c03d a4f2 5bbc
000000d0: cd2c 043e c3e3 fb3b 0cfe 81bd 4e39 fbbd
000000e0: 1ef3 0bbc 0962 b4bd 3428 8e3d 0ae9 0cbe
000000f0: 9a5e 8f3c d51a 5abd ebe4 553d a472 f03d
00000100: ef08 aabd 4701 8cbd c040 d53d 611c 473d
00000110: 1284 9b3d da42 023e 4749 ba3d 6923 44bd
00000120: 6c40 3b3d af6b 59bb 5dc7 8d3d a2ea e33c
00000130: 0f34 4ebc ed96 fcbd b034 c03d a137 e03c
00000140: 8711 383d 7338 a03d 9935 8fbd e66b dc3c
00000150: 1fd5 6f3d bb72 ec3d a6da ea3d 8e40 143d
00000160: e05b c33d 5f51 2c3e 5440 efbc 9238 69bc
00000170: 686e c53d c002 ee3c 5e84 b6bd 665d 7c3d
00000180: a215 963c 5bbf abbc 46b4 d6bd eb75 c0bd
00000190: b3e9 3f3d 679a 1e3d ed30 bfbd d56a a0bd
000001a0: 426b cc3d 3cfb b5bd 1131 f93c f86c b5bc
000001b0: 7d8c fd3c 4ecd 95bc a2a3 31bd 7e00 ea3d
000001c0: b5d6 d93d 7807 a43d f5d5 773d fad6 063e
000001d0: b5e2 123c 958d 70bc 4274 053e c633 7b3d
000001e0: a71d 613d 4121 af3d 9e8e 3a3c 764a 493b
000001f0: ecde 9ebd 9ca6 053e 8239 47be 9b53 2ebd
00000200: 6d7f 83bd 3450 09bd 7043 06be 246a cfbd
00000210: eae3 0bbe cdbd 49bd b0ed dbbc 8649 8ebd
00000220: ccb7 24bd bf4c ff3c ce8b dc3c 7a02 0d3d
00000230: 08f4 a4bd a74f 95bd 05f0 a8bd 3231 03bd
00000240: de62 863d e6d9 02be 60c1 d8bb bf8a 603b
00000250: 9d38 a93d 2215 90bb 2566 01bd efd0 b0bd
00000260: cbf0 933b 1281 9c3c 8cc9 6f3d eebf 5ebc
00000270: 39b0 bd3c dd73 a1bd 47ed 293d f13d 403d
00000280: 5194 e4bd 0f60 08bc 3e8f 3bbd 76f8 f43d
00000290: f920 643d 9599 42be ae03 86bc ff22 153e
000002a0: d0f8 053d e244 de3d 00f9 c73d 9ad7 31bd
000002b0: e888 5cbc 90fc bebd fc0f a03d 3b9c ca3d
000002c0: 003f 923c 428a 173d 69bc 9b3d af56 d9bc
000002d0: 24ab 813d f8e2 a33b f150 803d 8ba7 15be
000002e0: 0597 f8bd b117 a73d c902 07bd 9ae7 97bd
000002f0: cac1 a7bc 59fe 52bd 5e00 913d ef4e af3d
00000300: dfe1 a739 e915 c5bc dd23 723d eee5 0ebd
00000310: d9e1 973d f6a5 f93d 6a0e 1cbe 721f 4fbe
00000320: 7d53 70bc 923f 993c 0bc4 a53d 780d 35bd
00000330: cc21 5e3d 3cd4 4cbd b7ed c73d 0ca8 fd3d
00000340: c1e8 313d ff64 9b3b 7cc5 a7bc 03b3 943c
00000350: b980 353c 1db0 b2bd ee2d 093d f0eb 6f3d
00000360: 2626 b7bb 2053 f9bd 4a21 72bd 9b04 1bbe
00000370: ca7f 1ebe ac10 b6bb 3a34 02bd 8285 5dbd
00000380: c7e7 993d dec8 05bd 486d dcbd 50b5 0abe
00000390: 5816 1f3d 589f 86bd 516f 7b3d e92c 98bd
000003a0: bb86 eabd c571 65bd 534f 6f3d 7379 163c
000003b0: 6ee7 de3a 5063 f0bd 25c1 41ba 4945 41bc
000003c0: 5c1c d0bd fc04 c93d b701 acbd 8de4 8cbd
000003d0: bc7f a7bb dd13 8b3d 51bc f13c 0bd1 773d
000003e0: ac84 d73d 8628 4f3c a905 e93d 24b0 e1bc
000003f0: c20e 873c a6db c0bd 9ba9 e1bc 4d73 0fbe

down2.maxpool_conv.1.double_conv.0.bias f4 [16]
-0.011285476 0.02625567 0.09455567 0.099644974 0.010527163 -0.08631464 0.08023224 0.004004986
0.09346868 0.21980202 -0.03058715 0.09479123 -0.13310054 0.03349956 -0.052468307 -0.10388402
00000000: b8e6 38bc 2116 d73c 67a6 c13d aa12 cc3d
00000010: 1f7a 2c3c bbc5 b0bd cd50 a43d 423c 833b
00000020: 826c bf3d c813 613e e791 fabc e821 c23d
00000030: 824b 08be d636 093d 02e9 56bd 25c1 d4bd

down2.maxpool_conv.1.double_conv.1.weight f4 [16]
0.96745384 0.9897928 0.9649094 1.0197759 0.96939856 0.9492163 1.0276499 1.0062805
0.97161317 0.9990689 1.0110208 1.0168521 1.0119932 1.0138175 0.99665475 1.0209769
00000000: 0eab 773f 1063 7d3f 4d04 773f 0488 823f
00000010: 812a 783f d7ff 723f 088a 833f cdcd 803f
00000020: a4bb 783f fbc2 7f3f 2169 813f 3628 823f
00000030: fe88 813f c6c4 813f c424 7f3f 5faf 823f

down2.maxpool_conv.1.double_conv.1.bias f4 [16]
-0.12122744 -0.10377431 -0.0032207042 0.06362959 0.004498453 -0.10767748 0.03535768 0.032217078
-0.054171436 -0.094205745 0.025829865 0.12012992 -0.025825351 0.014109841 0.0448273 -0.036115352
00000000: 1846 f8bd a087 d4bd 7312 53bb 3b50 823d
00000010: c267 933b 0386 dcbd 37d3 103d 0ef6 033d
00000020: dee2 5dbd f1ee c0bd 2799 d33c ad06 f63d
00000030: b08f d3bc f62c 673c d59c 373d b1ed 13bd

down2.maxpool_conv.1.double_conv.1.running_mean f4 [16]
0.35114124 0.12910134 0.29483768 -0.55123836 -0.006935287 -0.06377259 0.15265125 -0.18884397
0.3735445 0.102052614 0.01040232 0.056956224 -0.9522167 -0.42041266 -0.23757827 -0.27078027
00000000: c9c8 b33e 2433 043e f7f4 963e f51d 0dbf
00000010: 6741 e3bb 349b 82bd 9c50 1c3e 5060 41be
00000020: 3a41 bf3e f600 d13d 7e6e 2a3c ee4a 693d
00000030: 79c4 73bf 5440 d7be b847 73be b6a3 8abe

down2.maxpool_conv.1.double_conv.1.running_var f4 [16]
0.17117658 0.52523726 0.23310745 0.34265244 0.1760133 0.15333709 0.22956698 0.17075993
0.4229278 0.15690924 0.19481638 0.20386727 0.34367162 0.3365669 0.36823106 0.19904049
00000000: ea48 2f3e f375 063f b8b3 6e3e 2470 af3e
00000010: d53c 343e 6604 1d3e 9b13 6b3e b1db 2e3e
00000020: fe89 d83e d1ac 203e f27d 473e 95c2 503e
00000030: baf5 af3e 7f52 ac3e c888 bc3e 45d1 4b3e

down2.maxpool_conv.1.double_conv.3.weight f4 [16, 16, 3, 3]
0.067489974 0.042437673 0.052359115 0.037796568 -0.01621303 0.041954264 -0.0046443082 -0.026653584
0.037050515 0.037807096 -0.07357613 0.10749935 -0.04962713 -0.016432207 -0.050813664 -0.00050080963
-0.019646658 0.07066967 -0.030326001 -0.043600325 0.0373908 -0.12075612 -0.014137173 -0.039549567
-0.011983422 0.053317558 0.06739814 0.03252144 0.021205014 -0.005258583 0.0057321275 0.06180758
0.029192924 0.018735008 0.1285045 0.07691623 -0.01631142 0.022727337 -0.0800247 -0.08340161
0.071904935 0.04794889 0.06927584 0.09830859 -0.074006476 0.026893172 -0.07225511 -0.047715247
-0.019179633 0.029220004 -0.060141854 -0.010597607 0.012357173 0.052235268 0.0020688514 0.10590117
0.07135758 0.047827378 -0.006321175 -0.08292235 0.04579583 0.04404435 -0.010011828 0.0026084534
-0.06385789 0.07597749 0.08927185 -0.036434606 0.025695497 0.02572458 -0.044250235 0.02589924
-0.06427168 0.028206207 0.045359537 0.034219243 0.02305987 0.02539381 0.014447427 0.023456471
0.09822115 0.12809043 -0.059087858 0.05097137 0.13696446 0.06839426 0.08148636 -0.009737743
-0.034615047 -0.034974672 -0.13722101 0.022259152 0.091226876 -0.060941644 0.028980972 0.07755992
-0.052377027 -0.0035965822 -0.0010124474 0.052685335 -0.077381015 0.085034676 0.04528979 -0.053112876
0.09016439 0.109596446 -0.009263997 0.15752415 0.06910692 0.037417818 0.03703222 0.15444082
0.02060703 -0.07296147 0.12294417 0.04563779 0.0054063043 0.10277315 -0.0026808458 0.02474819
-0.02265955 -0.022880241 -0.04005299 -0.12112064 0.020084698 0.07610989 0.0016126703 0.06289254
0.030595273 0.08724881 0.0058089625 -0.019866578 0.09200293 0.09301214 0.023893017 -0.025295557
0.061272703 0.005139115 -0.027983636 -0.0764647 0.037506964 -0.040831503 0.032797486 0.048142526
-0.04121467 0.016921349 -0.084884 -0.08139772 0.042917013 -0.052614283 -0.015573929 0.01601748
-0.11451326 0.07335303 0.07361614 -0.05296404 0.053144746 0.06760176 -0.10438267 -0.037091535
-0.063481525 -0.053813178 -0.052825768 0.049548667 -0.053918116 0.054710753 -0.039551258 -0.041506737
0.11709779 -0.04907228 -0.04919402 0.08992001 0.03771349 0.078232944 0.03947615 -0.023837443
0.012787227 0.031086393 0.06194955 0.10137587 -0.112373464 -0.09158582 -0.045364033 -0.023386564
0.03071888 0.049352992 -0.0056039034 -0.0034155983 -0.0444558 0.07226548 0.0004918611 -0.017247282
0.007991812 -0.09836799 -0.05160487 0.048641734 -0.04570236 -0.020824824 0.11510382 0.06709943
0.107760645 0.052866224 -0.012353651 -0.02495908 -0.026766641 -0.05036771 -0.059324328 -0.027971262
-0.019464798 0.01567432 -0.025175521 -0.028959509 0.091059476 -0.05909553 -0.032804705 0.06219013
-0.07796228 -0.0068988944 -0.06558445 -0.041307796 -0.08387505 -0.013543086 -0.019701617 0.05276816
-0.030846525 -0.055825297 -0.024373762 -0.027586784 0.06443377 0.040187046 -0.07383079 0.05235106
-0.09757236 -0.06510588 -0.029344406 -0.010237662 0.07605738 0.04754561 0.06570083 0.06214871
-0.020028139 -0.020828122 -0.018998673 0.027931595 -0.012154143 -0.038810097 -0.04865619 -0.037754998
-0.05398996 0.037917893 0.103829004 -0.0855567 0.06817925 0.015522448 0.024872046 -0.063762255
00000000: 2f38 8a3d 20d3 2d3d 8376 563d 93d0 1a3d
00000010: 30d1 84bc 3cd8 2b3d 482f 98bb 9e58 dabc
00000020: 48c2 173d 9ddb 1a3d 15af 96bd 9f28 dc3d
00000030: d145 4bbd d69c 86bc fd21 50bd c448 03ba
00000040: 07f2 a0bc 43bb 903d 3c6e f8bc 4196 32bd
00000050: 1827 193d fc4e f7bd 9a9f 67bc bafe 21bd
00000060: 1d56 44bc 8363 5a3d 0908 8a3d 3435 053d
00000070: 23b6 ad3c 3150 acbb 92d4 bb3b f229 7d3d
00000080: 0026 ef3c 297a 993c af96 033e 4286 9d3d
00000090: 879f 85bc ae2e ba3c fde3 a3bd 77ce aabd
000000a0: e542 933d 0e66 443d 7ee0 8d3d 0456 c93d
000000b0: b590 97bd 124f dc3c 7dfa 93bd 1071 43bd
000000c0: 9b1e 9dbc ca5e ef3c 4e57 76bd 96a1 2dbc
000000d0: bd75 4a3c a6f4 553d 9195 073b b6e2 d83d
000000e0: ec23 923d a4e6 433d dc21 cfbb 31d3 a9bd
000000f0: 6994 3b3d d967 343d a608 24bc 96f2 2a3b
00000100: edc7 82bd 169a 9b3d 29d4 b63d 743c 15bd
00000110: 5d7f d23c 5bbc d23c bc3f 35bd a52a d43c
00000120: dfa0 83bd b410 e73c ecca 393d 7a29 0c3d
00000130: 0de8 bc3c ae06 d03c e7b4 6c3c c927 c03c
00000140: 2c28 c93d 232a 033e 1c06 72bd 5bc7 503d
00000150: 6940 0c3e 4a12 8c3d 52e2 a63d 0e8b 1fbc
00000160: 82c8 0dbd 9a41 0fbd aa83 0cbe d358 b63c
00000170: 28d5 ba3d f29d 79bd 8169 ed3c bcd7 9e3d
00000180: 4b89 56bd a3b4 6bbb 19b4 84ba 94cc 573d
00000190: f079 9ebd a926 ae3d c981 393d e38c 59bd
000001a0: 1ca8 b83d 1a74 e03d 05c8 17bc 034e 213e
000001b0: ee87 8d3d 6d43 193d 19af 173d bc25 1e3e
000001c0: 13d0 a83c d36c 95bd 27ca fb3d b1ee 3a3d
000001d0: 5e27 b13b bb7a d23d 21b1 2fbb b7bc ca3c
000001e0: 85a0 b9bc 586f bbbc 9b0e 24bd 190e f8bd
000001f0: aa88 a43c 81df 9b3d 3c60 d33a cecd 803d
00000200: f0a2 fa3c 81af b23d 1c59 be3b 3cbf a2bc
00000210: 086c bc3d 267d be3d 4abb c33c a138 cfbc
00000220: 16f9 7a3d 0566 a83b f03d e5bc 8699 9cbd
00000230: e7a0 193d ef3e 27bd a856 063d 1931 453d
00000240: b7d0 28bd a49e 8a3c aad7 adbd d9b3 a6bd
00000250: c0c9 2f3d 1382 57bd cb29 7fbc 1737 833c
00000260: ee85 eabd 1d3a 963d 0fc4 963d d2f0 58bd
00000270: 4eae 593d cb72 8a3d 95c6 d5bd 4bed 17bd
00000280: 9a02 82bd 356b 5cbd d55f 58bd 8bf3 4a3d
00000290: 3ed9 5cbd 6218 603d 8000 22bd f802 2abd
000002a0: f7d0 ef3d 0400 49bd ab7f 49bd fb27 b83d
000002b0: 7679 1a3d 9838 a03d beb1 213d be46 c3bc
000002c0: 8481 513c e4a8 fe3c d0be 7d3d 279e cf3d
000002d0: 0f24 e6bd 5991 bbbd a3cf 39bd 2e95 bfbc
000002e0: 29a6 fb3c 5d26 4a3d f3a0 b7bb 3bd8 5fbb
000002f0: 4917 36bd edff 933d 3df0 003a 2c4a 8dbc
00000300: 17f0 023c 2875 c9bd a15f 53bd 8e3c 473d
00000310: 6632 3bbd d298 aabc 8dbb eb3d 6d6b 893d
00000320: 9db1 dc3d 418a 583d f866 4abc fc76 ccbc
00000330: b745 dbbc 5f4e 4ebd 11fe 72bd fd23 e5bc
00000340: a474 9fbc 6e67 803c e53c cebc 7e3c edbc
00000350: 647d ba3d 280e 72bd 3a5e 06bd 14bb 7e3d
00000360: b0aa 9fbd 1f10 e2bb 2451 86bd 5d32 29bd
00000370: afc6 abbd d2e3 5dbc 4965 a1bc 6d23 583d
00000380: dab1 fcbc 11a9 64bd 7cab c7bc aefd e1bc
00000390: daf5 833d 2c9b 243d 9934 97bd 116e 563d
000003a0: 04d4 c7bd 3b56 85bd ae63 f0bc debb 27bc
000003b0: f9c3 9b3d 30bf 423d 288e 863d a58f 7e3d
000003c0: 0d12 a4bc bd9f aabc 1ba3 9bbc cdd0 e43c
000003d0: 2c22 47bc 56f7 1ebd b74b 47bd fca4 1abd
000003e0: 9424 5dbd cb4f 1b3d 4da4 d43d 5a38 afbd
000003f0: 90a1 8b3d de51 7e3c 76c0 cb3c c995 82bd

down2.maxpool_conv.1.double_conv.3.bias f4 [16]
-0.026226172 0.0050921026 0.012681411 0.061204053 -0.1620088 -0.06693585 0.021107962 0.11067841
-0.047113225 0.046992518 0.104740605 0.0923856 0.06289765 0.12150895 0.09875561 0.07730477
00000000: 45d8 d6bc a7db a63b b1c5 4f3c 1ab1 7a3d
00000010: a3e5 25be aa15 89bd 9bea ac3c 5dab e23d
00000020: ccf9 40bd 3a7b 403d 3e82 d63d a934 bd3d
00000030: 7cd0 803d afd9 f83d 6240 ca3d f751 9e3d

down2.maxpool_conv.1.double_conv.4.weight f4 [16]
0.9522011 0.9783331 0.9382141 0.9989677 1.0262095 0.9903204 0.9873936 0.9750003
1.037578 0.98309517 1.0015898 0.9753412 0.99409956 1.0058745 1.0349292 0.9518209
00000000: 74c3 733f 0a74 7a3f cd2e 703f 59bc 7f3f
00000010: d55a 833f a385 7d3f d4c5 7c3f 9f99 793f
00000020: 5bcf 843f 20ac 7b3f 1834 803f f6af 793f
00000030: 4f7d 7e3f 7fc0 803f 8f78 843f 89aa 733f

down2.maxpool_conv.1.double_conv.4.bias f4 [16]
-0.077393614 -0.010805663 -0.043646082 0.005514472 -0.1588627 -0.07045195 -0.047057275 -0.03778714
-0.024242243 0.008226988 -0.04784431 -0.026450329 -0.06937524 -0.08454522 0.07002716 -0.0877547
00000000: 8b80 9ebd 3c0a 31bc 3cc6 32bd beb2 b43b
00000010: e7ac 22be 1d49 90bd 21bf 40bd b0c6 1abd
00000020: ab97 c6bc 7dca 063c 65f8 43bd 5cae d8bc
00000030: 9b14 8ebd 0b26 adbd 666a 8f3d bcb8 b3bd

down2.maxpool_conv.1.double_conv.4.running_mean f4 [16]
0.8399162 -0.18789361 0.6730429 -0.16290446 0.3996243 0.75120825 0.29718384 -0.109541126
-0.49388602 -0.18372579 0.61053383 0.38240603 0.9675099 -0.11413499 -0.5221089 -0.57702863
00000000: c004 573f 2f67 40be 8a4c 2c3f 6dd0 26be
00000010: 8e9b cc3e 2f4f 403f 7b28 983e 1957 e0bd
00000020: a1de fcbe 9d22 3cbe f24b 1c3f b9ca c33e
00000030: bbae 773f 9bbf e9bd eea8 05bf 26b8 13bf

down2.maxpool_conv.1.double_conv.4.running_var f4 [16]
0.18750958 0.44495276 0.38339865 0.2780479 0.114942506 0.22160853 0.14432886 0.28489694
0.44399342 0.321737 0.17449556 0.33238685 0.27530974 0.26992807 0.29688278 0.34876996
00000000: 8302 403e d9d0 e33e d44c c43e 4b5c 8e3e
00000010: fa66 eb3d 59ed 623e f2ca 133e 03de 913e
00000020: 1b53 e33e b6ba a43e f7ae 323e 9c2e aa3e
00000030: 66f5 8c3e 0334 8a3e 0501 983e fa91 b23e

down3.maxpool_conv.1.double_conv.0.weight f4 [32, 16, 3, 3]
0.059550043 -0.002574555 0.06931249 0.032985967 0.03496368 0.016360436 -0.026725812 -0.03276052
0.03603662 0.039015222 -0.050429575 -0.102275774 0.043614026 0.04217254 -0.0046573547 -0.025347963
0.027644135 -0.042851623 -0.013177125 -0.06859671 0.04442251 -0.07256525 -0.05882588 0.064272426
-0.050497886 -0.017497053 0.06195839 0.0053156177 0.039594103 -0.023388295 -0.029939022 0.102481
0.0045730025 0.0828348 0.06799913 -0.112852715 0.00526981 0.00766096 -0.07297672 -0.084262565
0.024159037 0.028669586 0.02634004 -0.03951502 -0.043643806 0.038385157 0.05923202 0.06297646
0.020198327 0.051758993 0.00086884404 -0.06867402 0.0012136382 0.02729976 0.022583557 -0.07784035
0.022073466 0.0035803425 -0.038305 0.08205027 0.034686472 0.0017104598 -0.051727265 0.02355448
0.05181029 -0.09813485 -0.00056122645 0.10685724 -0.10246299 0.00597009 0.035539374 -0.084857844
0.035718326 0.085323274 -0.037817568 -0.031204136 0.009895447 -0.061026163 0.030430937 -0.044452526
-0.1430667 -0.073155776 0.103081994 -0.022577316 -0.0672759 0.017365675 0.05343609 -0.0638006
-0.017747836 0.005065204 0.042357482 -0.051193185 -0.04573583 0.01782531 -0.02477195 0.024256771
0.04278789 -0.10123596 0.046119925 0.03875273 -0.035640154 -0.02800405 0.047544688 -0.09435139
-0.0047885566 0.035121266 -0.087303154 0.017561158 -0.00047387168 -0.035047106 0.1256494 0.07525423
-0.07940507 0.08740047 0.05183558 0.018512927 0.12732731 -0.0014521268 0.083234034 -0.017675325
0.00970641 0.066030264 -0.076397784 0.04564969 -0.0076159877 -0.049874585 0.043310262 -0.08070842
-0.11818762 -0.038955428 0.0031304518 -0.09362249 0.02355117 0.08938852 -0.036381923 0.036002558
-0.030958852 0.07280016 -0.003290277 0.13687141 0.043576833 -0.04707649 0.072907805 0.0036797551
0.094506316 0.040196422 -0.0418641 0.05507833 0.01282542 -0.045337226 0.12686041 0.039278865
0.023949474 -0.00035543658 -0.03639072 0.03481168 -0.06352872 -0.083328545 0.010688956 0.028958095
0.023189904 -0.06615281 -0.05296549 0.018599251 0.027054949 -0.04037523 0.092269756 0.08945708
0.08350541 0.06185707 0.0020069587 -0.07154032 0.047613613 -0.06466197 0.1052093 0.06137848
-0.07674805 0.2564239 0.05074897 0.073773764 0.08709342 -0.0808713 0.08530818 0.061493084
-0.01369337 -0.066067025 -0.01809433 0.049426537 0.056993503 0.027283099 -0.07231079 -0.017097987
0.07472748 0.018719243 -0.08349927 0.029275432 0.06859805 -0.02253989 -0.015201667 0.03912628
-0.065168194 0.06247351 0.004985645 0.06657131 0.025203899 -0.082048275 -0.015401495 -0.05356754
0.026193654 0.02341446 0.049949575 0.04278561 -0.012748926 -0.035285283 -0.050768588 0.068253264
-0.071204536 0.052149706 0.025638806 0.06474942 -0.08043855 0.10039381 -0.043129448 0.08810859
-0.020933108 0.08023302 -0.05016739 0.047160365 0.10118634 -0.016440699 -0.05900488 0.102064
0.02918434 0.11899573 -0.034465022 -0.02497 -0.009869985 -0.0021387988 -0.06828143 -0.008211583
-0.008684008 -0.020029042 -0.032460522 -0.060770415 0.08254623 0.07682854 0.0064703124 -0.0078089936
-0.07171892 -0.0012627108 0.013767494 0.07278955 -0.109277934 -0.026682068 0.06492524 -0.081970274
00000000: bfea 733d deb9 28bb b5f3 8d3d 4b1c 073d
00000010: 1336 0f3d 5206 863c 17f0 dabc e52f 06bd
00000020: 239b 133d 6dce 1f3d 3e8f 4ebd f675 d1bd
00000030: 9fa4 323d 1dbd 2c3d b99c 98bb 88a6 cfbc
00000040: f475 e23c 2f85 2fbd dee4 57bc 6f7c 8cbd
00000050: 61f4 353d 179d 94bd 68f3 70bd 43a1 833d
00000060: dfd6 4ebd fb55 8fbc 15c8 7d3d a22e ae3b
00000070: 6d2d 223d cf98 bfbc ae42 f5bc 8fe1 d13d
00000080: 20d9 953b 4ba5 a93d 2143 8b3d 531f e7bd
00000090: 5fae ac3b ca08 fb3b d274 95bd da91 acbd
000000a0: 2ce9 c53c 7bdc ea3c 11c7 d73c 80da 21bd
000000b0: d9c3 32bd c139 1d3d 469d 723d cdf9 803d
000000c0: f676 a53c 3d01 543d 23c3 633a f7a4 8cbd
000000d0: f112 9f3a bfa3 df3c 2701 b93c c36a 9fbd
000000e0: 6ad3 b43c 2ea4 6a3b b4e5 1cbd f909 a83d
000000f0: 6713 0e3d 8231 e03a f8df 53bd 53f5 c03c
00000100: 0737 543d edfa c8bd 451f 13ba f8d7 da3d
00000110: 1ed8 d1bd bfa0 c33b bc91 113d f3c9 adbd
00000120: 614d 123d f8bd ae3d 98e6 1abd d19f ffbc
00000130: 8320 223c 92f6 79bd 4d4a f93c da13 36bd
00000140: 1480 12be b2d2 95bd a71c d33d 10f4 b8bc
00000150: f2c7 89bd 7642 8e3c cddf 5a3d e4a9 82bd
00000160: e963 91bc 03fa a53b 0a7f 2d3d f2af 51bd
00000170: 7e55 3bbd 6206 923c 8bee cabc 23b6 c63c
00000180: 5b42 2f3d cd54 cfbd 3fe8 3c3d 2fbb 1e3d
00000190: 69fb 11bd c068 e5bc 38be 423d 4d3b c1bd
000001a0: 53e9 9cbb 51db 0f3d ffcb b2bd 6bdc 8f3c
000001b0: fb71 f8b9 8e8d 0fbd 3caa 003e e41e 9a3d
000001c0: 209f a2bd 05ff b23d 8c51 543d 6ca8 973c
000001d0: 1762 023e 4a55 beba 9b76 aa3d d8cb 90bc
000001e0: a207 1f3c e03a 873d 7176 9cbd 2bfb 3a3d
000001f0: 898f f9bb 4b49 4cbd 1a66 313d 754a a5bd
00000200: 5a0c f2bd ba8f 1fbd 4428 4d3b 26bd bfbd
00000210: 62ee c03c 5411 b73d 3605 15bd 6b77 133d
00000220: 6b9d fdbc 4018 953d b0a1 57bb 0528 0c3e
00000230: 9f7d 323d 47d3 40bd b050 953d 0c28 713b
00000240: 878c c13d 01a5 243d b179 2bbd d199 613d
00000250: b621 523c 87b3 39bd b2e7 013e e0e2 203d
00000260: b031 c43c e459 bab9 700e 15bd b196 0e3d
00000270: 581b 82bd 28a8 aabd bb20 2f3c 8739 ed3c
00000280: c1f8 bd3c 207b 87bd 57f2 58bd 755d 983c
00000290: 57a2 dd3c 7f60 25bd edf7 bc3d 4635 b73d
000002a0: e204 ab3d d75d 7d3d 2e87 033b bb83 92bd
000002b0: 7e06 433d 7f6d 84bd f977 d73d 0068 7b3d
000002c0: 152e 9dbd fe49 833e 27de 4f3d b316 973d
000002d0: 095e b23d da9f a5bd 0eb6 ae3d 2ce0 7b3d
000002e0: 285a 60bc 264e 87bd 8f3a 94bc 7b73 4a3d
000002f0: 0572 693d ce80 df3c ae17 94bd 1411 8cbc
00000300: b90a 993d 1959 993c aa01 abbd 08d3 ef3c
00000310: 227d 8c3d 93a5 b8bc 6a10 79bc e142 203d
00000320: e776 85bd 39e4 7f3d 9f5e a33b 8a56 883d
00000330: 6878 ce3c ed08 a8bd 8d56 7cbc a369 5bbd
00000340: 1394 d63c aecf bf3c ed97 4c3d f73f 2f3d
00000350: dfe0 50bc 4d87 10bd b9f2 4fbd 5ec8 8b3d
00000360: afd3 91bd ee9a 553d 7908 d23c 589b 843d
00000370: f7bc a4bd 459b cd3d 81a8 30bd 4772 b43d
00000380: e97b abbc 3651 a43d 527c 4dbd 3a2b 413d
00000390: c93a cf3d a5ae 86bc 1aaf 71bd ee06 d13d
000003a0: ff13 ef3c 09b4 f33d 322b 0dbd e38d ccbc
000003b0: b8b5 21bc 172b 0cbb 22d7 8bbd e089 06bc
000003c0: 5f47 0ebc f213 a4bc 53f5 04bd 66ea 78bd
000003d0: ff0d a93d 4858 9d3d ea04 d43b 96e2 ffbb
000003e0: 5ee1 92bd 8b81 a5ba 0e91 613c b012 953d
000003f0: 1ccd dfbd 5a94 dabc 86f7 843d 08e0 a7bd

down3.maxpool_conv.1.double_conv.0.bias f4 [32]
0.012248862 -0.057009686 0.029383104 -0.012286266 -0.014448058 -0.038568757 0.06853566 -0.044134688
0.1385383 0.012811121 -0.14278246 -0.07782719 0.017100906 0.040690873 0.057096675 -0.07691944
0.006888557 -0.050515465 -0.076907195 0.014475736 -0.041081663 0.030919872 -0.00038282905 -0.006644578
-0.13103674 -0.0918402 -0.012261273 -0.05280006 0.09022284 0.030585939 0.01215764 0.10873073
00000000: 73af 483c fd82 69bd d6b4 f03c 564c 49bc
00000010: 8cb7 6cbc 46fa 1dbd 6d5c 8c3d 93c6 34bd
00000020: fcdc 0d3e bce5 513c 9135 12be dd63 9fbd
00000030: 3317 8c3c 79ab 263d 34de 693d f087 9dbd
00000040: 68b9 e13b 4ee9 4ebd 8581 9dbd a32b 6d3c
00000050: 3f45 28bd ac4b fd3c 72b6 c8b9 c3ba d9bb
00000060: 7f2e 06be b716 bcbd 82e3 48bc e044 58bd
00000070: c1c6 b83d 5d8f fa3c d730 473c 38ae de3d

down3.maxpool_conv.1.double_conv.1.weight f4 [32]
1.0194325 1.010964 0.9947443 0.9514433 1.0239853 0.9965 0.9732843 1.0534297
1.0056415 1.064892 0.9756782 0.9817838 0.99389756 1.0027765 1.0268245 0.9929342
0.9511887 0.9714847 0.9996145 1.0084342 1.0114951 1.0134454 0.9916663 1.0096227
1.04736 0.98556703 0.97663665 1.0336516 0.96240747 1.0276706 0.95739627 0.91192704
00000000: c47c 823f 4567 813f 90a7 7e3f ca91 733f
00000010: f311 833f a01a 7f3f 2929 793f c9d6 863f
00000020: dcb8 803f 624e 883f 0cc6 793f 2f56 7b3f
00000030: 1270 7e3f fb5a 803f fc6e 833f f030 7e3f
00000040: 1a81 733f 39b3 783f bce6 7f3f 5f14 813f
00000050: ac78 813f 94b8 813f d8dd 7d3f 513b 813f
00000060: e40f 863f 1f4e 7c3f dc04 7a3f b24e 843f
00000070: 5660 763f b68a 833f ec17 753f 0d74 693f

down3.maxpool_conv.1.double_conv.1.bias f4 [32]
-0.11068568 -0.02641461 -0.091619976 -0.074108146 -0.032278087 -0.06520344 -0.10956945 0.024179734
-0.06772428 -0.014541747 -0.017550342 0.020927848 0.002836189 -0.039729923 -0.0105605805 -0.023453826
-0.08641763 -0.11381478 -0.058517583 -0.023799127 0.00066133885 -0.10690151 -0.09136439 -0.06554682
0.022096887 -0.09081288 -0.0058459593 -0.019166248 -0.037229944 -0.04597815 -0.03946781 -0.16130674
00000000: 2caf e2bd 7463 d8bc 41a3 bbbd 03c6 97bd
00000010: 0736 04bd 6289 85bd f365 e0bd 9414 c63c
00000020: 07b3 8abd 8240 6ebc bcc5 8fbc e170 ab3c
00000030: 5bdf 393b d8bb 22bd 4906 2dbc 3d22 c0bc
00000040: bafb b0bd b917 e9bd 22b0 6fbd 63f6 c2bc
00000050: b35d 2d3a 2eef dabd 411d bbbd 693d 86bd
00000060: 8804 b53c 1afc b9bd 768f bfbb 8902 9dbc
00000070: 6d7e 18bd 9653 3cbd 00a9 21bd 982d 25be

down3.maxpool_conv.1.double_conv.1.running_mean f4 [32]
0.14117363 0.6050335 1.349579 0.38044477 -0.2668514 0.47836655 0.029766293 -0.24426141
0.17378235 -0.77565765 -0.47286752 -0.51309866 -0.3422521 0.43444803 -0.9279605 0.3731444
-0.42281407 0.1895905 0.23083133 -0.6451028 -0.6404982 0.22034523 0.14379689 -0.19399223
-0.91923094 0.49322814 -0.6496349 -0.92303663 -0.12353265 -0.27244034 -0.493282 -0.34269905
00000000: d28f 103e 7ae3 1a3f 01bf ac3f a8c9 c23e
00000010: bfa0 88be 76ec f43e 71d8 f33c aa1f 7abe
00000020: 00f4 313e 8091 46bf b11b f2be 6f5a 03bf
00000030: ab3b afbe f96f de3e d28e 6dbf c80c bf3e
00000040: 167b d8be 0324 423e 0c5f 6c3e 7525 25bf
00000050: b1f7 23bf 2ea2 613e 7e3f 133e e6a5 46be
00000060: b852 6bbf 6688 fc3e 794e 26bf 214c 6cbf
00000070: b0fe fcbd 4d7d 8bbe 758f fcbe 4076 afbe

down3.maxpool_conv.1.double_conv.1.running_var f4 [32]
0.27669525 0.5643121 0.32976654 0.29738483 0.24153106 0.24006373 0.15725762 0.15684274
0.12229066 0.31388578 0.2844934 0.15208185 0.19879133 0.22258493 0.42723873 0.2437199
0.48086762 0.25443852 0.3922193 0.31551245 0.2999233 0.204808 0.17919466 0.5988704
0.1980903 0.093977906 0.25350094 0.3602054 0.40848523 0.18746632 0.3676561 0.45933807
00000000: 00ab 8d3e c276 103f 29d7 a83e d342 983e
00000010: eb53 773e 44d3 753e 2408 213e 629b 203e
00000020: 8773 fa3d a3b5 a03e 1ea9 913e 58bb 1b3e
00000030: f48f 4b3e 4eed 633e 09bf da3e b691 793e
00000040: 4834 f63e c445 823e f8d0 c83e d98a a13e
00000050: 8c8f 993e 30b9 513e ce7e 373e 924f 193f
00000060: 2fd8 4a3e 7d77 c03d e0ca 813e d86c b83e
00000070: fa24 d13e 2cf7 3f3e 6c3d bc3e 5c2e eb3e
